VGDAE/baseline/VGAE-main/gae_cora_bias.pth (torch, 70615 bytes, 6 tensors)

encoder.conv1.bias f4 [32]
0	0x3e9c64e8	0.30545735
1	0xbd77cfeb	-0.06050102
2	0xbd719fdb	-0.05899034
3	0xbd7c6650	-0.06162101
4	0xbd7021ed	-0.058626104
5	0x3ea2abb9	0.3177164
6	0x3e8382f0	0.25685835
7	0x3e8aa6f5	0.27080503
8	0xbd74d10e	-0.059769683
9	0xbd78d841	-0.06075311
10	0xbd77eb68	-0.060527235
11	0x3e54b2e6	0.2077137
12	0x3e8b4f04	0.27208722
13	0xbd7453f0	-0.05965036
14	0x3e753737	0.23946844
15	0x3e93d7cc	0.28875577
16	0xbd7808f1	-0.060555402
17	0xbd772952	-0.06034214
18	0x3d78f952	0.060784645
19	0xbd7afcd3	-0.06127627
20	0x3e91cd9f	0.2847719
21	0xbd77be0e	-0.060483985
22	0xbd625550	-0.05525714
23	0xbd770a9e	-0.06031286
24	0x3e960d71	0.2930713
25	0x3e8228a1	0.25421622
26	0x3e8e0a19	0.2774208
27	0x3e9b2dc5	0.30308357
28	0xbd77f20c	-0.06053357
29	0xbd7c2db6	-0.06156703
30	0x3e90bcbe	0.28269
31	0x3e9bfa25	0.30464283

encoder.conv1.lin.weight f4 [32, 500]
0	0x3eb66d53	0.35630283
1	0x3e719c32	0.2359474
2	0x3e7dc3f5	0.24781783
3	0x3eb40e57	0.3516719
4	0x3e22cff6	0.15899643
5	0x3f1f5e7f	0.62253565
6	0x3ec37f48	0.38183045
7	0x3ec095f1	0.37614396
8	0x3e994165	0.29932705
9	0x3eb0f0e9	0.345588
10	0x3e4a87f2	0.19778422
11	0x3eef0f93	0.4669157
12	0x3e8ad0eb	0.27112517
13	0x3e9e8e2e	0.3096785
14	0x3ec13782	0.37737662
15	0x3ec5e6f2	0.3865276
16	0x3e999807	0.299988
17	0x3e8a9cd3	0.27072772
18	0x3e83a74b	0.25713572
19	0x3e93c89a	0.28863984
20	0x3ed245fb	0.41069016
21	0x3e704f86	0.23467836
22	0x3ea07d98	0.3134582
23	0x3ec64fb6	0.3873269
24	0x3e84d64a	0.2594474
25	0x3eb97665	0.3622314
26	0x3e93071e	0.28716367
27	0x3e9e2a43	0.30891618
28	0x3e70621a	0.23474923
29	0x3e8b50d7	0.27210113
30	0x3e48c4ab	0.19606273
31	0x3e912ab9	0.28352907
32	0x3eac4bfc	0.3365172
33	0x3e8ae0d0	0.27124643
34	0x3e6396c3	0.2222548
35	0x3ed335f7	0.4125211
36	0x3e95e387	0.29275152
37	0x3ed643c0	0.41848564
38	0x3ed7dd7f	0.42161176
39	0x3eb9892d	0.3623747
40	0x3e902dfd	0.28160086
41	0x3ec7643b	0.38943657
42	0x3eadc12e	0.33936447
43	0x3eb57ced	0.35446873
44	0x3e93e1e8	0.2888329
45	0x3e2178de	0.15768763
46	0x3eb2f0f5	0.3494946
47	0x3e3bfe78	0.18358791
48	0x3e8fadaf	0.28062198
49	0x3ecb13c1	0.3966351
50	0x3eb11f38	0.3459413
51	0x3ed29e58	0.41136432
52	0x3e16b19b	0.14716189
53	0x3ebeec6d	0.37289754
54	0x3e93846d	0.2881197
55	0x3e9e9346	0.30971736
56	0x3e94cd55	0.29062906
57	0x3ebac1ab	0.36475882
58	0x3e2c7474	0.16841298
59	0x3ea2f7a9	0.31829575
60	0x3ecf77ce	0.4052109
61	0x3e8fbbcd	0.28072968
62	0x3eac2321	0.3362055
63	0x3ea2ccf2	0.31796986
64	0x3e9a5bf1	0.3014827
65	0x3ed6e438	0.41970992
66	0x3e4154a4	0.18879944
67	0x3ed86bfb	0.42269883
68	0x3e9c5ff1	0.30541947
69	0x3dcb8fed	0.09939561
70	0x3e673513	0.2257884
71	0x3eb30505	0.34964767
72	0x3e87ece8	0.26547933
73	0x3e61bea2	0.22045377
74	0x3ebf42d0	0.3735566
75	0x3e7e9ef4	0.24865323
76	0x3ec5f22e	0.3866133
77	0x3e8615ef	0.2618861
78	0x3ea59811	0.3234258
79	0x3e9c24fe	0.30496973
80	0x3eb3227f	0.34987256
81	0x3ebd5f20	0.36986637
82	0x3e803d5e	0.2504682
83	0x3ebc7077	0.36804554
84	0x3e8dbd6a	0.27683574
85	0x3eebdb02	0.46065527
86	0x3f068ff5	0.5256341
87	0x3e298590	0.16554856
88	0x3ec68d46	0.38779658
89	0x3eb66476	0.3562352
90	0x3e8b4e06	0.27207965
91	0x3eb45c6e	0.35226768
92	0x3f08d817	0.53454727
93	0x3e936f22	0.28795725
94	0x3e62ae78	0.22136867
95	0x3e54daaa	0.20786539
96	0x3d592c0f	0.053020533
97	0x3e9b81f3	0.3037258
98	0x3ea0020b	0.3125156
99	0x3e5457e4	0.20736653
100	0x3ecdb192	0.40174538
101	0x3e5f7251	0.21820952
102	0x3decfa18	0.11571139
103	0x3e593dfa	0.21215048
104	0x3e90de9f	0.28294846
105	0x3ebef8ff	0.37299344
106	0x3ece4052	0.40283448
107	0x3e9fdef4	0.31224787
108	0x3efff0ef	0.49988505
109	0x3eab8471	0.33499482
110	0x3ec505f6	0.3848111
111	0x3e614d4e	0.22002146
112	0x3eab05f1	0.3340297
113	0x3ec967ef	0.39337108
114	0x3e4cdf02	0.20006946
115	0x3e802d55	0.25034586
116	0x3e61c632	0.22048262
117	0x3eb4dbd2	0.3532396
118	0x3ea67a5c	0.32515228
119	0x3ec4cdba	0.38438207
120	0x3eae8230	0.340837
121	0x3ed0c2c8	0.40773606
122	0x3eb3a8c6	0.350897
123	0x3e65febd	0.22460456
124	0x3e477365	0.19477613
125	0x3e45f304	0.19330984
126	0x3e9497a8	0.29021955
127	0x3ed41e5f	0.4142942
128	0x3ecfcd47	0.40586302
129	0x3eac43b1	0.33645394
130	0x3eea7b13	0.45797023
131	0x3e5afba1	0.21385051
132	0x3e485e41	0.19567205
133	0x3e9fa8ab	0.3118337
134	0x3e8072b0	0.250875
135	0x3ec16d42	0.3777867
136	0x3ed07578	0.40714622
137	0x3eb35663	0.35026845
138	0x3eeb0eb8	0.45909667
139	0x3eb1ee74	0.34752238
140	0x3ecbece1	0.39829162
141	0x3e56797f	0.20944785
142	0x3e985aba	0.2975672
143	0x3e52363f	0.20528506
144	0x3e977b32	0.29586178
145	0x3ebdd3ca	0.37075645
146	0x3e8e0043	0.27734575
147	0x3ea409d6	0.32038754
148	0x3ec0c071	0.3764682
149	0x3ecd9088	0.4014933
150	0x3ecf0755	0.4043528
151	0x3e8a9c58	0.27072406
152	0x3e8e0f10	0.27745867
153	0x3e73becd	0.23803253
154	0x3e913015	0.28356996
155	0x3ea4ac7c	0.32162845
156	0x3eba695a	0.36408502
157	0x3e75d771	0.24007966
158	0x3ed35e97	0.41283104
159	0x3e40015b	0.18750517
160	0xbd02fe7e	-0.031980984
161	0x3ec50904	0.3848344
162	0x3dc42314	0.09577003
163	0x3ec54a87	0.38533422
164	0x3eab9c03	0.33517465
165	0x3e34c2be	0.17652413
166	0x3ed259b9	0.41084078
167	0x3d7bfc36	0.061519824
168	0x3e52e1ad	0.20593901
169	0x3eb58bcc	0.3545822
170	0x3e330b11	0.1748469
171	0x3ec85f47	0.3913519
172	0x3eacc4d6	0.33743924
173	0x3ed2c568	0.41166234
174	0x3eace81f	0.33770844
175	0x3e3a9849	0.18222155
176	0x3e9bc079	0.30420282
177	0x3eefb51e	0.4681787
178	0x3ed17b1d	0.4091424
179	0x3e868f32	0.26281124
180	0x3eb48a5e	0.35261816
181	0x3ec748c2	0.38922697
182	0x3e636b10	0.2220881
183	0x3e209005	0.15679939
184	0x3ec2e38b	0.38064227
185	0x3e695883	0.22787671
186	0x3e77adf7	0.24187456
187	0x3e4c096c	0.19925469
188	0x3e9d27e4	0.30694497
189	0x3eb2c9aa	0.34919482
190	0x3ea9fa4a	0.33198768
191	0x3ecc6ea3	0.3992816
192	0x3ebc2d15	0.36753145
193	0x3ec2bfea	0.38037044
194	0x3e975bc2	0.29562193
195	0x3e95c208	0.29249597
196	0x3de2c5b9	0.11072869
197	0x3ec54681	0.38530353
198	0x3e9e1072	0.30871922
199	0x3ebf8d4a	0.37412483
200	0x3eb3895e	0.3506574
201	0x3e741c63	0.23838954
202	0x3e700642	0.23439887
203	0x3e78d88b	0.24301355
204	0x3e5b54c9	0.21419062
205	0x3e5fd356	0.21857962
206	0x3e8f3a42	0.27974135
207	0x3e75927c	0.2398166
208	0x3e571def	0.21007513
209	0x3eac8aaa	0.33699542
210	0x3ebd26e3	0.3694373
211	0x3e63f544	0.2226153
212	0x3e291581	0.1651211
213	0x3e7dae23	0.24773459
214	0x3ef886e6	0.4854042
215	0x3ed20ec1	0.4102688
216	0x3ea1cdd3	0.31602344
217	0x3eabb0ee	0.33533424
218	0x3e91a0fa	0.28443128
219	0x3e9ee6f2	0.31035572
220	0x3e8a0367	0.2695572
221	0x3e8ab1f4	0.27088892
222	0x3ec1b578	0.37833762
223	0x3ecb5308	0.39711785
224	0x3e926ac6	0.28597087
225	0x3ed49759	0.4152172
226	0x3ed632ef	0.41835734
227	0x3e886e40	0.26646614
228	0x3e92f22f	0.28700396
229	0x3eb5db45	0.35518852
230	0x3e189c12	0.14903286
231	0x3ea8220b	0.32838473
232	0x3ebe3848	0.37152314
233	0x3ea130e7	0.31482622
234	0x3ed3e537	0.41385815
235	0x3e6461a5	0.22302873
236	0x3f0e26f7	0.55528206
237	0x3e8447f8	0.25836158
238	0x3eb96a84	0.36214077
239	0x3e02fe65	0.12792356
240	0x3e4dfdf6	0.2011641
241	0x3e2928a7	0.16519414
242	0x3ed418f7	0.41425297
243	0x3e9e449e	0.30911726
244	0x3eb10c31	0.34579614
245	0x3e5e3950	0.2170155
246	0x3ec0724c	0.37587202
247	0x3e625c75	0.22105582
248	0x3eb91846	0.36151332
249	0x3e6d1ab5	0.23154719
250	0x3ea81645	0.3282949
251	0x3eb162ef	0.34645793
252	0x3ebea4af	0.3723502
253	0x3e29e5c2	0.16591552
254	0x3e05882e	0.1304023
255	0x3ed04803	0.4067994

encoder.conv_mu.bias f4 [16]
0	0xbd2b71c5	-0.041856546
1	0xbca079b9	-0.019589292
2	0x3e266e6d	0.16253062
3	0xbe641862	-0.22274926
4	0xbe83a70e	-0.2571339
5	0xbd2143eb	-0.039371412
6	0x3e0fc490	0.14039826
7	0x3c153813	0.009107607
8	0xbd02f2d4	-0.03196986
9	0x3e291be3	0.16514544
10	0x3e4fdafb	0.20298378
11	0x3d4a1d7e	0.049344532
12	0x3d881ff3	0.06646719
13	0xbc5816fa	-0.013189072
14	0xbd05b211	-0.03264052
15	0xbde4cdd1	-0.11172069

encoder.conv_mu.lin.weight f4 [16, 32]
0	0x3df5b92b	0.119982086
1	0x3e3ed05b	0.18634169
2	0xbbe6b03e	-0.0070400527
3	0x3ec010cd	0.37512818
4	0x3e0a67a2	0.13516095
5	0x3e1b1b13	0.15147047
6	0x3d7f39f7	0.06231114
7	0x3d01aa6c	0.031656668
8	0x3df0e6dc	0.11762783
9	0xbe21bb07	-0.15794002
10	0xbe2e7e94	-0.17040473
11	0xbec15f99	-0.37768248
12	0x3c57f5ab	0.01318113
13	0x3e841e22	0.2580424
14	0x3e636da2	0.2220979
15	0x3df18605	0.1179314
16	0x3eabefa5	0.33581272
17	0xbd23f170	-0.040025175
18	0xbea1c7ee	-0.31597847
19	0xbed31e5b	-0.41234097
20	0x3e92023f	0.2851734
21	0xbe4ba3bc	-0.19886678
22	0xbe47667f	-0.19472693
23	0xbca03e4b	-0.019560954
24	0x3d2384f6	0.039921723
25	0x3e31c49a	0.17360154
26	0xbe4bda05	-0.19907387
27	0xbe853259	-0.26014975
28	0xbe14c59b	-0.14528506
29	0xbdba9cd7	-0.09111946
30	0xbd4126bf	-0.04715609
31	0xbebd04b2	-0.36917645
32	0x3ed209d5	0.41023126
33	0xbe087c30	-0.13328624
34	0x3daffddf	0.08593344
35	0xbe731196	-0.23737177
36	0x3e91712b	0.28406653
37	0xbdd1a419	-0.10236377
38	0x3e3ca106	0.184208
39	0xbe22d664	-0.15902096
40	0xbd3ae51b	-0.04562865
41	0xbed6a643	-0.41923723
42	0xbe51655b	-0.2044882
43	0x3d1164e9	0.035496626
44	0x3ecaf234	0.3963791
45	0x3d8dea15	0.06929413
46	0xbe21fcb4	-0.15819055
47	0xbeb46c17	-0.35238716
48	0xbe43d1eb	-0.19123046
49	0xbebcbb2f	-0.3686156
50	0xbece3b34	-0.40279543
51	0x3c94fc94	0.018186845
52	0x3ec135ef	0.3773646
53	0xbe773c8a	-0.24144188
54	0xbe2fda91	-0.1717322
55	0x3e5fed40	0.21867847
56	0xbd8386a0	-0.06422162
57	0x3e10c190	0.14136338
58	0xbd0c85b4	-0.034307197
59	0xbe8b713e	-0.27234834
60	0x3d3a469b	0.04547749
61	0x3d3fb018	0.046798795
62	0xbe29edb2	-0.1659458
63	0xbe7df30d	-0.24799748
64	0x3d2121b9	0.0393388
65	0x3e91f49d	0.28506938
66	0xbe3efffb	-0.18652336
67	0xbe96ea9b	-0.29475865
68	0xbe35ab2c	-0.17741078
69	0x3e040b56	0.1289495
70	0xbd713a9e	-0.058893792
71	0xbdd48611	-0.10377134
72	0xbe187050	-0.14886594
73	0xbe484145	-0.19556148
74	0xbd6d0c2d	-0.05787294
75	0xbec73781	-0.38909534
76	0xbe7c1518	-0.24617422
77	0x3d808771	0.062758334
78	0x3e07cabf	0.13260935
79	0xbe88fb56	-0.26754254
80	0xbd317ebf	-0.043333765
81	0xbc8f346d	-0.017481053
82	0xbf147a62	-0.5799924
83	0xbd5e2ae2	-0.054240115
84	0xbdc7af37	-0.097502165
85	0xbe4e7390	-0.20161271
86	0x3d9442c0	0.07239294
87	0xbe8065fe	-0.25077814
88	0xbe01a904	-0.1266213
89	0xbe56bee4	-0.20971256
90	0x3ea18ced	0.3155283
91	0xbee8654c	-0.45389783
92	0x3eb382db	0.35060772
93	0x3e8f72c0	0.28017235
94	0x3e47b642	0.1950312
95	0x3fac223f	1.3447951
96	0xbe0fd619	-0.14046516
97	0x3e92f999	0.28706053
98	0xbbfb7804	-0.007674219
99	0xbe3e1a1a	-0.18564644
100	0xbcc9c073	-0.0246279
101	0x3dd998c0	0.10624838
102	0x3e2182ac	0.15772504
103	0x3d60f563	0.05492152
104	0x3e314e11	0.17314936
105	0xbe3b13eb	-0.18269317
106	0xbccb8e77	-0.024848206
107	0xbd43e5b4	-0.047826484
108	0x3e4e69fa	0.20157614
109	0x3ea6c3e6	0.32571334
110	0x3e5050a3	0.2034326
111	0xbe872046	-0.2639181
112	0x3eaaece2	0.33383852
113	0x3ea862f5	0.32887998
114	0xbe87e94d	-0.26545182
115	0x3e1f9eed	0.15587969
116	0x3e26f795	0.16305383
117	0x3e8a58ba	0.27020818
118	0xbe7f062f	-0.24904703
119	0xbe10b6f1	-0.14132287
120	0xbe549342	-0.207593
121	0x3edbb70d	0.42913094
122	0x3db70e50	0.08938277
123	0x3e15283c	0.1456613
124	0xbc8c9575	-0.01716111
125	0x3e235e07	0.15953837
126	0x3eb9fc63	0.36325368
127	0xbf8edee4	-1.1161771
128	0x3e8f654d	0.28006974
129	0xbeabd11e	-0.3355798
130	0x3dd15351	0.102209695
131	0xbde63719	-0.11240978
132	0xbe2aaed6	-0.16668257
133	0xbf12e206	-0.57376134
134	0x3f1362b0	0.5757246
135	0x3edfbbca	0.4369796
136	0x3cb2f57f	0.021845577
137	0x3ebc78bb	0.3681086
138	0x3de1a798	0.11018294
139	0xbf263b48	-0.64934206
140	0x3eed7247	0.4637625
141	0xbe82c772	-0.2554279
142	0x3f22aae6	0.6354202
143	0xbf4e031c	-0.80473495
144	0xbb94461c	-0.0045249593
145	0xbd9dbee7	-0.07702427
146	0xbf946b29	-1.1595203
147	0xbed0fd3c	-0.40818202
148	0x3f60f0a7	0.87867206
149	0x3ebbf7af	0.36712405
150	0x3eaade4e	0.3337273
151	0xbe7d4f2a	-0.2473723
152	0xbf19f0eb	-0.60133237
153	0x3eb5bdcf	0.35496375
154	0xbe1ea67d	-0.15493198
155	0xbf0fd637	-0.5618624
156	0x3ebb4361	0.36574844
157	0xbe37f06b	-0.17962806
158	0x3f19f38e	0.6013726
159	0xbeb0bfe5	-0.34521404
160	0xbee06540	-0.43827248
161	0x3d559993	0.052148413
162	0xbe070a38	-0.13187492
163	0x3e361117	0.17779957
164	0xbe1059a6	-0.14096698
165	0x3e9e74f8	0.30948615
166	0x3e9703e3	0.29495153
167	0xbe47cee8	-0.19512522
168	0x3e10aca0	0.14128351
169	0x3e968a06	0.2940218
170	0x3e59b4f0	0.21260428
171	0x3e80d1d6	0.25160092
172	0xbe319194	-0.1734069
173	0x3de3f79c	0.11131212
174	0xbe9038c7	-0.28168318
175	0x3dd119f6	0.1021003
176	0x3d9268d5	0.071489014
177	0x3e6e14dc	0.23250145
178	0x3d8d5250	0.069004655
179	0x3e468eda	0.19390431
180	0x3d38210d	0.044953395
181	0x3e2d055d	0.16896577
182	0x3e4a9762	0.1978431
183	0x3ddd5dec	0.1080893
184	0x3e5a336b	0.21308677
185	0x3d9a3d19	0.07531185
186	0xbea1597c	-0.31513584
187	0x3ea3d848	0.32000947
188	0xbe477eb9	-0.19481935
189	0xbe21eae6	-0.15812263
190	0x3e3c9668	0.1841675
191	0xbf047c8d	-0.5175255
192	0xbe41eb70	-0.18937469
193	0x3eb532c0	0.35390282
194	0x3e88182f	0.2658095
195	0xbe5e3155	-0.21698506
196	0xbdb37740	-0.087629795
197	0x3dba5a69	0.090992756
198	0x3c3aaa21	0.011393101
199	0xbdc9caa2	-0.09853102
200	0xbe2645e7	-0.16237603
201	0x3d3b0dae	0.045667343
202	0xbec1447f	-0.3774757
203	0xbe8933a4	-0.2679721
204	0xbe9a4ad8	-0.30135226
205	0x3e44b882	0.19211009
206	0x3db3c8bf	0.08778524
207	0xbe8cf2c3	-0.27528962
208	0xbdec0b61	-0.11525608
209	0xbdbc2ecd	-0.09188614
210	0xbf21871f	-0.63096803
211	0x3e0add23	0.1356092
212	0x3e4d11e4	0.20026356
213	0x3d97c1e2	0.07410027
214	0x3e521ded	0.20519228
215	0x3d7ca8ec	0.061684534
216	0xbee989c4	-0.4561292
217	0x3e8a5e96	0.27025288
218	0xbe53a8ee	-0.2066991
219	0x3ce9d220	0.028542578
220	0xbdb23514	-0.0870153
221	0xbe173b09	-0.14768614
222	0x3e42f392	0.19038227
223	0x3f80d05d	1.0063587
224	0x3df255da	0.11832781
225	0xbe562080	-0.20910835
226	0x3e315109	0.17316069
227	0xbde2c5a3	-0.110728525
228	0x39cbf655	0.0003890271
229	0x3e7d5bbe	0.24742028
230	0xbebb672f	-0.3660216
231	0x3e95de39	0.29271105
232	0x3d1eaa2e	0.038736515
233	0x3e3a146e	0.18171856
234	0xbe75fce2	-0.24022248
235	0xbeaa62dc	-0.3327855
236	0xbe4355a0	-0.19075632
237	0x3e812257	0.25221512
238	0xbe24e24f	-0.16101955
239	0x3eaa7376	0.33291215
240	0xbe42f8fe	-0.19040295
241	0x3e958121	0.2920008
242	0x3ee52552	0.44755036
243	0xbd95676c	-0.07295117
244	0xbda803e1	-0.08203865
245	0x3ea4589e	0.3209886
246	0x3ea32d22	0.3187037
247	0xbe76744c	-0.24067801
248	0xbe0b3151	-0.13593031
249	0x3ea6acb2	0.3255363
250	0xbd246dba	-0.040143706
251	0xbdda7299	-0.10666389
252	0x3da36fcb	0.07980307
253	0xbe9aabd8	-0.3020923
254	0x3e6ed291	0.23322512
255	0xbf172a44	-0.5904887

encoder.conv_logstd.bias f4 [16]
0	0xbe8fe87f	-0.28107068
1	0xbe7a05f1	-0.24416329
2	0xbe4d4f0e	-0.20049688
3	0xbe47dc07	-0.19517528
4	0xbe6561c8	-0.22400582
5	0xbe6636a8	-0.22481787
6	0xbe543049	-0.20721544
7	0xbe69dd84	-0.22838408
8	0xbe63a1d2	-0.22229698
9	0xbe5a94bf	-0.21345805
10	0xbe5a336b	-0.21308677
11	0xbe57b84d	-0.21066399
12	0xbe5f6e63	-0.21819453
13	0xbe807670	-0.2509036
14	0xbe71f604	-0.23629004
15	0xbe619053	-0.22027712

encoder.conv_logstd.lin.weight f4 [16, 32]
0	0xbeee935f	-0.4659681
1	0xbebf8821	-0.37408546
2	0xbd90f485	-0.070778884
3	0xbe284dc2	-0.16435912
4	0x3d1b66d1	0.03793985
5	0xbe894be2	-0.26815706
6	0xbedaafe8	-0.4271233
7	0x3cd224c2	0.025652293
8	0xbe6222df	-0.22083615
9	0x3da713d1	0.081580766
10	0x3dd5b8e1	0.104356535
11	0xbd3c116b	-0.04591505
12	0xbe67a45f	-0.22621296
13	0x3d39226a	0.045198835
14	0xbd959c92	-0.07305254
15	0xbdd2ba39	-0.102894254
16	0xbeb1d5ec	-0.34733522
17	0xbe20f63b	-0.1571893
18	0x3cfb0f42	0.030646924
19	0x3e9065ec	0.2820276
20	0xbd1ba3d4	-0.037998036
21	0xbdfce0fe	-0.12347601
22	0xbe7f69da	-0.24942723
23	0xbe2ac416	-0.16676363
24	0x3cf2bd0c	0.02963116
25	0xbeb0871c	-0.3447808
26	0xbf036d91	-0.5133906
27	0xbedbacc0	-0.42905235
28	0x3e053ea0	0.13012171
29	0xbe2d3f80	-0.16918755
30	0xbf0e3734	-0.55552983
31	0xbf86140e	-1.047487
32	0xbeed4daf	-0.4634833
33	0x3dabe686	0.08393578
34	0xbe3c9e8e	-0.18419859
35	0x3e80e4ef	0.25174662
36	0xbdb72c60	-0.08944011
37	0x3ca552c0	0.02018106
38	0xbf1bfc5a	-0.6093193
39	0xbee9f62a	-0.4569562
40	0x3e057100	0.13031387
41	0x3e104ead	0.14092512
42	0x3e080280	0.13282204
43	0xbee39b2d	-0.44454327
44	0xbe78abf5	-0.24284346
45	0x3e04a2bc	0.12952703
46	0x3ccedf73	0.025253033
47	0xbece836b	-0.4033464
48	0x3e01f0bf	0.12689494
49	0xbe38bde1	-0.18041183
50	0xbee00c39	-0.43759325
51	0x3df5c499	0.12000389
52	0xbe588fc0	-0.21148586
53	0xbeccf126	-0.40027732
54	0xbd93656d	-0.0719708
55	0x3e3ef63a	0.18648615
56	0xbd2ee776	-0.042701207
57	0xbf13099b	-0.5743653
58	0xbf190e5f	-0.59787554
59	0xbd9b4563	-0.07581594
60	0x3d62291e	0.055214994
61	0x3d9620da	0.07330485
62	0xbd0db015	-0.034591753
63	0xbfa87d80	-1.31633
64	0xbf027743	-0.5096323
65	0x3e6e1696	0.23250803
66	0xbe5dad63	-0.21648173
67	0xbe02ddbb	-0.12779896
68	0xbe8d1194	-0.27552474
69	0xbefc4c06	-0.4927675
70	0xbf19c06b	-0.6005923
71	0xbeb21d7a	-0.34788114
72	0xbc7db78f	-0.015485658
73	0xbebcc12e	-0.36866134
74	0xbe6fcffd	-0.23419185
75	0xbf269e4a	-0.6508528
76	0xbf15827e	-0.5840224
77	0x3dd98916	0.1062185
78	0xbf2a96e7	-0.6663651
79	0xbe3eeb20	-0.1864438
80	0xbe5d0b40	-0.21586323
81	0x3ddfdc51	0.10930694
82	0xbece4e0a	-0.40293914
83	0xbe531507	-0.2061349
84	0xbf05b82b	-0.52234143
85	0xbd6ea372	-0.058261342
86	0xbea78bef	-0.32723948
87	0x3c9e1417	0.019296689
88	0xbebfda35	-0.37471166
89	0xbea156ed	-0.31511632
90	0xbf157c8e	-0.5839318
91	0xbed25d1d	-0.41086665
92	0xbdd9b166	-0.10629539
93	0x3e251e66	0.16124877
94	0xbe48deee	-0.19616291
95	0xbf04b3bd	-0.5183676
96	0xbeee69d3	-0.46565112
97	0xbe00415c	-0.12524933
98	0x3e8c7ce1	0.27439025
99	0xbd7f7020	-0.06236279
100	0x3e8a1511	0.26969197
101	0xbe93089d	-0.2871751
102	0xbefaf964	-0.49018395
103	0xbf1fbb87	-0.6239552
104	0x3de88703	0.113538764
105	0x3e5169e7	0.20450555
106	0xbea0d642	-0.31413466
107	0xbf1c044f	-0.60944074
108	0xbed84572	-0.42240483
109	0x3e3b1e28	0.18273222
110	0xbebadd93	-0.36497173
111	0xbf19c42b	-0.60064954
112	0x3dfd700c	0.12374887
113	0xbdf93550	-0.12168372
114	0xbd26727c	-0.040636525
115	0xbe84576b	-0.25847945
116	0xbea69a14	-0.32539427
117	0x3e843548	0.258219
118	0x3dd2f8e2	0.10301377
119	0x3e873d1d	0.26413813
120	0xbebec314	-0.37258208
121	0xbec1b70f	-0.37834975
122	0xbef3e2b6	-0.47633904
123	0xbf0885df	-0.5332927
124	0xbe70e8e4	-0.2352634
125	0x3df789dd	0.12086842
126	0xbf207d0a	-0.62690794
127	0xbf40053e	-0.75008
128	0xbee6818f	-0.4502072
129	0x3e0d8215	0.13819154
130	0xbc98ab47	-0.018636359
131	0xbe5ff15b	-0.21869414
132	0xbbc2a8ea	-0.0059405463
133	0xbdc5a8a3	-0.096513055
134	0xbe2113e8	-0.1573025
135	0xbf132345	-0.5747569
136	0x3d478558	0.04871115
137	0xbda0c8b8	-0.07850784
138	0xbe804400	-0.2505188
139	0xbf193871	-0.5985175
140	0xbf067c40	-0.5253334
141	0xbe876247	-0.26442167
142	0xbf16a1f6	-0.5884088
143	0xbe06842e	-0.1313636
144	0xbebec505	-0.3725969
145	0xbca1ecc4	-0.019766219
146	0xbf1fc19a	-0.6240479
147	0x3e638dad	0.22222014
148	0xbf389a86	-0.72110784
149	0xbd8876df	-0.06663298
150	0x3e62c18d	0.22144146
151	0x3e728219	0.23682441
152	0xbf38a3ac	-0.72124743
153	0xbe8d053f	-0.27543065
154	0xbf3263b0	-0.6968336
155	0xbec582b6	-0.38576287
156	0xbe584f98	-0.21124113
157	0x3e528d21	0.20561649
158	0xbf0cdcdb	-0.550245
159	0xbf9b842c	-1.2149711
160	0xbdbe6571	-0.09296692
161	0x3e510e74	0.2041567
162	0x3e33b5e5	0.17549856
163	0x3d6d3889	0.057915244
164	0xbe1b7162	-0.15179971
165	0xbebe8fcb	-0.3721908
166	0xbeb36aef	-0.3504252
167	0xbe2a86b5	-0.16652949
168	0x3e64d7c0	0.22347927
169	0x3e084043	0.13305764
170	0xbe91bf77	-0.2846639
171	0xbe01e752	-0.12685898
172	0xbd8cc097	-0.06872671
173	0xbdb3cf5c	-0.08779785
174	0xbf25547d	-0.64582044
175	0xbeb87722	-0.3602839
176	0x3d8aa4d8	0.06769723
177	0x3e8caec8	0.27477098
178	0xbf17f55f	-0.5935878
179	0x3e72bee7	0.23705636
180	0xbe1932b4	-0.14960748
181	0xbe13859e	-0.1440644
182	0x3e3cc0b5	0.18432887
183	0xbec77911	-0.38959554
184	0xbf16336c	-0.58672214
185	0xbf000796	-0.50011575
186	0xbe21ac95	-0.15788491
187	0xbec5ae2f	-0.38609454
188	0x3e65f1a2	0.22455457
189	0xbd974d42	-0.07387783
190	0xbf01a262	-0.506384
191	0xbf526c7f	-0.821968
192	0xbec8416f	-0.39112422
193	0x3e78ec56	0.24308905
194	0xbec4cd6c	-0.38437974
195	0xbebbeabc	-0.36702526
196	0xbebf0fc5	-0.3731672
197	0xbf1b9728	-0.6077752
198	0xbead177b	-0.33806977
199	0xbe86b4db	-0.26309857
200	0x3e2421ec	0.16028565
201	0x3c04a559	0.008096063
202	0x3db86f15	0.09005562
203	0xbf038421	-0.5137349
204	0xbedee838	-0.43536544
205	0x3cf1d9ae	0.029522743
206	0xbf237d91	-0.63863474
207	0xbedceb67	-0.43148348
208	0x3e16d76b	0.14730613
209	0x3dd6f63b	0.104961835
210	0xbe6b47c1	-0.2297659
211	0xbe5d3d57	-0.2160543
212	0xbf13668d	-0.57578355
213	0xbd9f9e9b	-0.077939235
214	0x3e45f680	0.19332314
215	0xbe921dea	-0.28538448
216	0xbf2604e9	-0.6485124
217	0xbe031347	-0.12800322
218	0xbe5631fc	-0.20917505
219	0xbf14a4c7	-0.5806393
220	0xbe49ea39	-0.19718255
221	0xbb72e0a6	-0.003706017
222	0xbf18e163	-0.5971891
223	0xbf3ebe95	-0.74509555
224	0xbdb5ea9b	-0.08882638
225	0xbc03276e	-0.008005006
226	0xbeb03d0a	-0.3442157
227	0x3e46981a	0.1939396
228	0xbe731f4c	-0.23742408
229	0xbed3cda1	-0.4136782
230	0xbcc62d60	-0.024191558
231	0xbe5fb9b1	-0.2184818
232	0xbe88b28a	-0.26698714
233	0xbdba2d34	-0.09090653
234	0xbea2adb9	-0.31773165
235	0xbeb03ce3	-0.34421453
236	0xbf206cd8	-0.6266608
237	0xbd4e34bc	-0.05034326
238	0xbdf6e146	-0.12054686
239	0xbe5880e2	-0.21142915
240	0x3e27bcff	0.1638069
241	0xbdea4b1d	-0.11440108
242	0xbe08b0ea	-0.13348737
243	0x3d5fc1ba	0.05462811
244	0xbece59ea	-0.40302974
245	0x3e18996a	0.14902273
246	0xbd5d3d22	-0.05401338
247	0x3e4246db	0.18972342
248	0xbebddbed	-0.37081853
249	0xbe2fba7d	-0.17160983
250	0xbf133a95	-0.57511264
251	0xbeb6ed88	-0.35728097
252	0x3e876890	0.26446962
253	0xbe28f7a4	-0.16500717
254	0xbf0a090e	-0.53920066
255	0xbf2c3d06	-0.67280614
