VGDAE_ijcai/VGDAE_CLUB/VGDAE_hyp/cora.pth (torch, 919391 bytes, 4 tensors)

encoder.linear.weight f4 [80, 1433]
0	0x3e01a04c	0.12658805
1	0x3d0b29b2	0.03397531
2	0xbdde42ae	-0.10852562
3	0xbe08c31b	-0.13355677
4	0x3e320e4c	0.17388266
5	0x3dd2df56	0.10296504
6	0xbe1954f8	-0.1497382
7	0xbce6c6e5	-0.028171012
8	0x3e8b5a5e	0.27217382
9	0x3dd5d59c	0.104411334
10	0x3ccab21c	0.024743132
11	0x3b176d4b	0.0023105915
12	0xbe123803	-0.1427918
13	0x3dff2672	0.12458505
14	0xb98c1053	-0.00026715043
15	0xbd1f9bd3	-0.038966965
16	0xbc9843a3	-0.01858694
17	0xbd01bf2c	-0.031676456
18	0xbddbaabd	-0.10725925
19	0xbb2bd1ab	-0.00262175
20	0x3c39f7bc	0.011350568
21	0xbbb5f77b	-0.0055531836
22	0x3e2f7daf	0.17137788
23	0xbd1ec089	-0.038757835
24	0x3cb0236a	0.021501262
25	0x3d3e3688	0.046438724
26	0x3dbe1ca3	0.09282806
27	0x3c325558	0.010884605
28	0x3cac2fd3	0.021018898
29	0xbd44c4f3	-0.048039388
30	0x3d656637	0.056005683
31	0x3dd846e0	0.10560393
32	0x3dcea54c	0.100901216
33	0xbe1e420d	-0.15454884
34	0x3d60a97d	0.054849137
35	0x3c4150ad	0.01179902
36	0x3d869636	0.06571619
37	0xbe2126de	-0.15737483
38	0xbe7555ca	-0.23958507
39	0x3dd9bcfc	0.10631749
40	0x3e8307c7	0.2559187
41	0x3d41953b	0.047261458
42	0xbe274cf1	-0.16337945
43	0xbde36d7e	-0.11104868
44	0xbd970e7d	-0.0737581
45	0x3d01e70a	0.031714477
46	0xbe05e0be	-0.13074014
47	0x3cc7da2e	0.024396028
48	0xbd33a80a	-0.043861426
49	0xbc6e0852	-0.014528351
50	0x3d2b80da	0.04187093
51	0x3c1d7ff1	0.009613023
52	0xbcd30274	-0.025758006
53	0xbcddf456	-0.027094048
54	0x3d7b45a2	0.061345704
55	0xbdd8bedc	-0.105832785
56	0xbdacc475	-0.08435909
57	0xbddb437e	-0.107062325
58	0x3d123342	0.035693415
59	0x3c89a328	0.016801432
60	0x3d82958a	0.063761786
61	0xbc9ea79f	-0.019367037
62	0xbd8de5e8	-0.06928617
63	0xbc5470ff	-0.0129663935
64	0x3e0a43de	0.13502452
65	0x3c863846	0.016384255
66	0x3e5a31d1	0.21308066
67	0x3dc70b08	0.09718901
68	0x3c58590d	0.013204825
69	0xbdccb0a8	-0.09994632
70	0x3dc7a9aa	0.09749158
71	0x3e040069	0.12890781
72	0x3e1b1ec9	0.15148462
73	0x3df64cee	0.12026392
74	0xbe52efda	-0.20599309
75	0x3dc49c07	0.09600072
76	0x3cc25d56	0.023726147
77	0x3a94ea83	0.0011361394
78	0x3c8e42ec	0.017365895
79	0xbd828cdf	-0.06374525
80	0xbe25f81b	-0.16207926
81	0xbca1b5fa	-0.019740093
82	0xbe112b14	-0.14176589
83	0xbe050548	-0.12990296
84	0x3d053f06	0.032530807
85	0x3dc2eb3f	0.09517526
86	0xbd0fc9b0	-0.035104454
87	0x3c5f1b90	0.013617411
88	0x3d9e2f12	0.07723822
89	0xbb31a0df	-0.0027103943
90	0xb90b1f42	-0.00013267717
91	0xbc1f68ad	-0.0097295465
92	0x3c611d2a	0.013739863
93	0x3de5118f	0.1118499
94	0xbb78dcb8	-0.0037973356
95	0x3c9611ca	0.01831903
96	0x3da7a3c1	0.081855305
97	0xbd5c6c12	-0.053814
98	0xbdb92897	-0.09040945
99	0xbe31da52	-0.17368439
100	0xbe39c8cc	-0.18143004
101	0x3dd7eaef	0.10542857
102	0xbc1d55b8	-0.0096029565
103	0x3db2a92c	0.08723673
104	0xbda15afb	-0.07878681
105	0xbd49220a	-0.049104728
106	0xbd197339	-0.0374634
107	0x3dae3e2a	0.085079506
108	0xbc471d32	-0.012152957
109	0xbcfc359f	-0.030787287
110	0x3e3b1031	0.18267895
111	0xbb6a4dc1	-0.0035751911
112	0xbe1b4cfd	-0.15166087
113	0x3e450693	0.19240789
114	0xbd9864e2	-0.07441117
115	0xbdddcb06	-0.10829739
116	0x3d2b6fc9	0.041854654
117	0x3e3a1368	0.18171465
118	0xbd23c514	-0.03998287
119	0xbdd25fc3	-0.10272171
120	0x3dc16996	0.09443967
121	0xbe1d33a4	-0.1535173
122	0x3e2478bd	0.16061683
123	0x3aa6f4de	0.0012737771
124	0xbd8aa52b	-0.067697845
125	0x3d8b62bb	0.06805941
126	0xbdb902b0	-0.09033716
127	0x3cfe8b8a	0.031072397
128	0x3e1809ea	0.14847532
129	0x3d13bfce	0.03607159
130	0x3df77020	0.12081933
131	0x3cfe5c16	0.03104977
132	0xbdd2fcef	-0.103021495
133	0xbe1aa24d	-0.15100975
134	0xbe00e835	-0.1258858
135	0xbd88cb85	-0.06679443
136	0x3dcb4c31	0.09926642
137	0x3e31a033	0.17346267
138	0x3e6b587c	0.22982973
139	0x3d0c47e5	0.03424825
140	0xbe0ab9d4	-0.1354745
141	0x3e84cb0f	0.2593617
142	0xbd2b85e4	-0.041875735
143	0x3cd35aa1	0.025800051
144	0xbe46e4a9	-0.19423164
145	0x3e1e641e	0.15467879
146	0xbd676351	-0.0564912
147	0xbd518c56	-0.051159225
148	0xbc3de9ea	-0.011591414
149	0x3c99500f	0.018714933
150	0xbb703db8	-0.003665788
151	0x3e188e68	0.14898074
152	0xbd0f4b06	-0.034983657
153	0xbd96a4c9	-0.07355649
154	0xbda65c4a	-0.081230715
155	0xbd8b7a80	-0.068104744
156	0x3cc10cdf	0.023565708
157	0x3e2ce74e	0.1688511
158	0xbd8361ab	-0.06415113
159	0xbc50703c	-0.012722071
160	0x3dd24b82	0.10268308
161	0x3d8d3964	0.06895712
162	0x3d17955d	0.03700768
163	0x3acb45b0	0.0015508439
164	0xbb5a8ba0	-0.0033347383
165	0x3e11e767	0.14248429
166	0xbe39db3f	-0.18150042
167	0xbe2d5c2a	-0.16929689
168	0xbe195b96	-0.14976344
169	0xbafe9101	-0.0019421877
170	0x3e0a6e64	0.13518673
171	0x3cdd9593	0.027048862
172	0xbe1fcc92	-0.15605381
173	0x3cdcc1a9	0.026947813
174	0x3de21c8e	0.110406026
175	0xbdd7fb28	-0.10545951
176	0x3d7bbc4a	0.061458863
177	0x3c19e4de	0.009392945
178	0x3e1a3554	0.15059406
179	0xbe095702	-0.13412097
180	0x3c335f33	0.01094799
181	0xbde147f3	-0.11000051
182	0xbb856664	-0.004071044
183	0xbdf4dfbd	-0.11956737
184	0x3d52c84d	0.051460553
185	0xbe46ea47	-0.19425307
186	0x3b894782	0.0041894326
187	0x3e0a27e2	0.13491777
188	0x3d7c3786	0.06157639
189	0x3d8ddfb5	0.06927434
190	0xbda76589	-0.08173663
191	0xbd267850	-0.040642083
192	0xbbc11e40	-0.0058934987
193	0x3d1a3660	0.037649512
194	0xbd98d83f	-0.07463121
195	0x3e16d41e	0.14729354
196	0x3c2a4cc1	0.010394276
197	0x3dec553e	0.11539696
198	0x3c956bdc	0.018239908
199	0xbdc05a09	-0.09392173
200	0x3e0366cf	0.12832187
201	0x3dd417bf	0.10356092
202	0xbd32c2db	-0.04364286
203	0x3cc3b7de	0.023891386
204	0xbc412753	-0.011789161
205	0x3de1d5e3	0.11027124
206	0xbc93531a	-0.017983962
207	0x3dd286d2	0.10279621
208	0x3e27df7b	0.16393845
209	0xbbf9c1bd	-0.0076219724
210	0xbe03e4ff	-0.12880324
211	0xbe20bc63	-0.15696864
212	0xbc7cdd5c	-0.015433636
213	0xbdce334c	-0.10068378
214	0xbe1b3ac3	-0.15159135
215	0x3e66bbfb	0.22532646
216	0xbe6a4cba	-0.22880831
217	0xbcdc8ef1	-0.026923629
218	0x3d6a3cc2	0.05718685
219	0xbe14ed0f	-0.14543556
220	0x3a72e034	0.0009264976
221	0xbd644a76	-0.055735074
222	0xbd614643	-0.054998647
223	0x3de9bc3d	0.11412857
224	0xbda882eb	-0.082280956
225	0xbe0f1783	-0.13973813
226	0x3ddc1b8a	0.1074744
227	0xbe16a334	-0.14710695
228	0x3d00b0f4	0.031418756
229	0xbbd14ffd	-0.006387709
230	0x3d1cdd32	0.038296886
231	0x3d748150	0.059693635
232	0xbd90abdc	-0.070640296
233	0xbd7bf0aa	-0.061508812
234	0x3ddfda19	0.10930271
235	0x3d1b47d6	0.037910305
236	0x3e41d107	0.18927394
237	0xbe812d9e	-0.25230116
238	0x3db902a4	0.09033707
239	0x3de81759	0.11332578
240	0xbdafb5e6	-0.08579616
241	0xbd09175e	-0.03346955
242	0xbd0e23d1	-0.034702126
243	0x3dba6456	0.09101169
244	0x3d41e7f0	0.047340333
245	0xbe0160a0	-0.12634516
246	0xbc7c3e31	-0.015395687
247	0xbccdeb69	-0.025136666
248	0x3da58d28	0.08083564
249	0x3d2c6178	0.04208514
250	0x3d64f052	0.05589325
251	0x3e43a0f4	0.19104367
252	0x3ccdd6a1	0.025126757
253	0xbd919336	-0.071081564
254	0xbe40cb64	-0.18827587
255	0xbcf21ceb	-0.029554805

encoder.linear.bias f4 [80]
0	0x3b018670	0.001976397
1	0xba9d5833	-0.0012004435
2	0x3accedc3	0.0015634823
3	0x3b8f8474	0.0043798033
4	0xbb532e60	-0.0032223687
5	0x3b124c4a	0.0022323304
6	0xbb66b395	-0.0035202254
7	0xbb228abf	-0.0024801937
8	0x3c26b6b3	0.010175395
9	0x3b466844	0.003027455
10	0x3b4cab14	0.00312299
11	0x3c0bedf7	0.008540622
12	0xba081cd6	-0.0005192285
13	0x3aa3ba97	0.0012491521
14	0xbaf86526	-0.0018951043
15	0xbb7e9d7f	-0.00388512
16	0xbb2c9d10	-0.0026338734
17	0x3bc67e37	0.0060575265
18	0x3c4c344b	0.0124636395
19	0x3afe77a5	0.0019414319
20	0x3c87ce69	0.016577916
21	0xba5449dd	-0.00080981647
22	0xbbc75e55	-0.0060842433
23	0x3a7e0154	0.0009689529
24	0x3bf6d135	0.0075322636
25	0xbc26641b	-0.010155703
26	0xbc218b1a	-0.009859825
27	0x3c00c5d5	0.007859667
28	0x3bb40c2f	0.0054946165
29	0xbaae3420	-0.0013290681
30	0xbaedfd0d	-0.001815708
31	0xbbcbfa8a	-0.006224935
32	0xbb9beb8c	-0.004758304
33	0x3c05a4d5	0.008156975
34	0x39e35402	0.00043359405
35	0x39d26b7f	0.00040134412
36	0x3bb52de4	0.005529152
37	0x3baf2a2a	0.0053456025
38	0xba8aabed	-0.0010579802
39	0x3a9b8c50	0.0011867378
40	0xbbb96cd8	-0.005658727
41	0x3bd94d75	0.006631548
42	0x3a8559b4	0.0010173828
43	0xbb42d18b	-0.0029726948
44	0x3c0c0852	0.008546906
45	0x3a37952e	0.00070031255
46	0xbbbe312e	-0.0058042025
47	0xbb3995b5	-0.0028317992
48	0xbb33f194	-0.0027457224
49	0x3b8953c3	0.0041908934
50	0xbc49c2bd	-0.012314496
51	0xbc092552	-0.008370714
52	0xbbf32d43	-0.007421167
53	0xbc07e409	-0.008294114
54	0x3c102eaf	0.008800193
55	0xba8a6fdb	-0.00105619
56	0xbb88bb44	-0.0041727144
57	0x3bb85085	0.005624833
58	0xb93696c1	-0.00017413033
59	0x3c339b1e	0.010962276
60	0x3b0d6430	0.002157461
61	0x3bf873ec	0.0075821783
62	0xb9e1e9a2	-0.00043089414
63	0x3b858045	0.004074129
64	0xbb949d2b	-0.0045353374
65	0x3b67ecd8	0.0035388973
66	0x3b39b7c7	0.00283383
67	0xbace5af5	-0.001574366
68	0xbb7798a8	-0.00377802
69	0xbc206408	-0.009789474
70	0x3b838535	0.0040136822
71	0x3ae51b16	0.0017479386
72	0xbc10923a	-0.008823926
73	0x3b665030	0.003514301
74	0xbb8d1db0	-0.0043065175
75	0x3b124c32	0.0022323248
76	0xba6541a5	-0.00087454385
77	0xbb4e6121	-0.0031490999
78	0x3b423b21	0.0029637294
79	0xba777787	-0.0009440113

encoder.linear_.weight f4 [80, 1433]
0	0xbe914877	-0.283756
1	0xbea4ff0d	-0.32225838
2	0xbecd10d7	-0.4005191
3	0xbe665940	-0.22494984
4	0xbee1af51	-0.44079068
5	0xbdd486b2	-0.103772536
6	0xbe863428	-0.26211667
7	0xbe74dc04	-0.23912054
8	0xbe6e3f02	-0.23266223
9	0xbe51909f	-0.20465325
10	0xbe552ffc	-0.20819086
11	0xbe3412a1	-0.17585231
12	0xbe95e2f7	-0.29274723
13	0xbe841b93	-0.25802287
14	0xbdf3789a	-0.11888237
15	0xbe975256	-0.29555005
16	0xbe634726	-0.2219511
17	0xbe4a40fd	-0.19751354
18	0xbeb0371d	-0.34417048
19	0xbf0bbdca	-0.5458647
20	0xbe07bb53	-0.13255052
21	0xbe22a84f	-0.15884517
22	0xbe1efefa	-0.15526953
23	0xbe926720	-0.28594303
24	0xbea48ea0	-0.32140064
25	0xbe6cdd44	-0.23131281
26	0xbe965241	-0.2935963
27	0xbe4bd49a	-0.1990532
28	0xbe05eac7	-0.13077842
29	0xbe64f3f5	-0.22358687
30	0xbead279d	-0.33819285
31	0xbe22179a	-0.15829316
32	0xbdd609f4	-0.10451117
33	0xbe067a47	-0.13132583
34	0xbe9a5812	-0.30145317
35	0xbe9c1a32	-0.30488735
36	0xbe68e0b5	-0.22741969
37	0xbe3b0e05	-0.18267067
38	0xbebaac4c	-0.36459577
39	0xbed9b57a	-0.42521268
40	0xbec6b4a3	-0.3880969
41	0xbef402b2	-0.47658306
42	0xbe1b1f36	-0.15148625
43	0xbda5bbed	-0.080924846
44	0xbeddbc48	-0.4330771
45	0xbe09e7ca	-0.13467327
46	0xbdd7cf51	-0.10537589
47	0xbe4a45fc	-0.1975326
48	0xbebca3ec	-0.36843812
49	0xbde6e031	-0.1127323
50	0xbe0fcc17	-0.14042698
51	0xbeaf849b	-0.34280857
52	0xbef16934	-0.47150576
53	0xbddd4666	-0.10804443
54	0xbe414d1c	-0.18877071
55	0xbea43e16	-0.32078618
56	0xbe989ea7	-0.29808542
57	0xbe97b920	-0.29633427
58	0xbeb80b7d	-0.35946265
59	0xbe981a2d	-0.2970747
60	0xbe34536a	-0.17609945
61	0xbeef96c1	-0.46794704
62	0xbeb9d93e	-0.36298555
63	0xbf0a5e84	-0.5405047
64	0xbee5141b	-0.44741902
65	0xbedb87a2	-0.42876917
66	0xbe28aea1	-0.16472866
67	0xbec47f6d	-0.38378468
68	0xbe44e30b	-0.19227235
69	0xbe578a97	-0.21048962
70	0xbe7bedd4	-0.24602443
71	0xbdae4e5b	-0.08511039
72	0xbe32a413	-0.17445402
73	0xbe7f0c36	-0.24907002
74	0xbe3e5163	-0.18585734
75	0xbe5a44fd	-0.2131538
76	0xbe42ef32	-0.19036558
77	0xbe6aa311	-0.22913767
78	0xbe8d816e	-0.2763781
79	0xbe11952a	-0.14217058
80	0xbe9a5154	-0.30140173
81	0xbea64d11	-0.32480672
82	0xbed74f9e	-0.4205293
83	0xbe91514f	-0.28382346
84	0xbe5cf54a	-0.21577945
85	0xbeb7e9a0	-0.3592043
86	0xbe8f4ca2	-0.27988154
87	0xbeb36377	-0.35036823
88	0xbedc232e	-0.4299559
89	0xbedeb944	-0.4350072
90	0xbe7640d8	-0.24048173
91	0xbe3ab47f	-0.18232916
92	0xbea62875	-0.3245274
93	0xbf0145f5	-0.5049737
94	0xbea87053	-0.32898197
95	0xbdfb0829	-0.12257416
96	0xbea26db0	-0.3172431
97	0xbeeeb285	-0.46620575
98	0xbea18f79	-0.31554773
99	0xbf036e50	-0.513402
100	0xbe9339cf	-0.28755042
101	0xbd8ba420	-0.06818414
102	0xbe782e1d	-0.24236341
103	0xbe9454e4	-0.28971016
104	0xbe8226c5	-0.25420204
105	0xbe4f08e3	-0.20218234
106	0xbe60d507	-0.21956263
107	0xbea3fe60	-0.3203001
108	0xbe849b50	-0.25899744
109	0xbe0f4f52	-0.13995102
110	0xbe709156	-0.23492941
111	0xbdcfe2a6	-0.10150652
112	0xbe300216	-0.17188296
113	0xbddceee8	-0.10787755
114	0xbeacd604	-0.3375703
115	0xbe81ef09	-0.25377682
116	0xbe18b58d	-0.14913006
117	0xbd3f074f	-0.04663783
118	0xbeaf11b1	-0.34193185
119	0xbdb5fdfe	-0.08886336
120	0xbe627e6d	-0.2211854
121	0xbeaf25f6	-0.3420865
122	0xbe6db45d	-0.23213334
123	0xbe8f6f96	-0.2801482
124	0xbe8d1c55	-0.27560678
125	0xbed07017	-0.40710518
126	0xbed29729	-0.4113095
127	0xbe6b5fb3	-0.22985725
128	0xbeeb830a	-0.45998412
129	0xbe8b4e15	-0.2720801
130	0xbec2ec04	-0.3807069
131	0xbeae9907	-0.34101126
132	0xbf0da4f0	-0.553298
133	0xbec4b322	-0.38417917
134	0xbe3aa7e3	-0.18228106
135	0xbed3df88	-0.41381478
136	0xbe9496da	-0.2902134
137	0xbea8b0f1	-0.32947496
138	0xbe2c7c81	-0.1684437
139	0xbe11fce2	-0.14256623
140	0xbed6a865	-0.4192535
141	0xbe663887	-0.22482501
142	0xbe67f3a4	-0.22651535
143	0xbe848549	-0.25882939
144	0xbe5c03d9	-0.21485843
145	0xbe3e8949	-0.18607058
146	0xbe8ce66f	-0.27519557
147	0xbe857f82	-0.26073843
148	0xbe40e0ae	-0.18835708
149	0xbeaffd83	-0.34373102
150	0xbe8b7ead	-0.27245083
151	0xbeb71de4	-0.35764992
152	0xbe77acca	-0.24187008
153	0xbeb58c2f	-0.35458514
154	0xbea1a3d5	-0.31570306
155	0xbe91f76a	-0.28509074
156	0xbe86b0ea	-0.2630685
157	0xbec7441d	-0.38919154
158	0xbe7fae72	-0.2496889
159	0xbe46cb09	-0.1941339
160	0xbe729aad	-0.23691817
161	0xbe391a1e	-0.18076369
162	0xbe093246	-0.13398084
163	0xbe3fb5c4	-0.18721682
164	0xbe8dc65a	-0.27690393
165	0xbe65af73	-0.2243021
166	0xbe33193e	-0.17490098
167	0xbe72b0fd	-0.23700328
168	0xbeae136e	-0.339992
169	0xbe6af36e	-0.22944424
170	0xbe18187c	-0.1485309
171	0x3cf70dc3	0.03015793
172	0xbe68d8ac	-0.22738904
173	0xbec9010d	-0.39258614
174	0xbe7eebf4	-0.24894696
175	0xbe376915	-0.1791118
176	0xbec49939	-0.3839815
177	0xbe5b9c56	-0.21446356
178	0xbe79a596	-0.24379572
179	0xbed9f1f6	-0.42567414
180	0xbe00648c	-0.12538356
181	0xbdb291c2	-0.08719207
182	0xbe871c92	-0.26388985
183	0xbe201224	-0.1563192
184	0xbe8f74e0	-0.28018856
185	0xbd39b780	-0.045341015
186	0xbe97ac22	-0.29623514
187	0xbeebb4de	-0.46036428
188	0xbcf8ae6f	-0.030356614
189	0xbe4eed95	-0.20207818
190	0xbe36a003	-0.17834477
191	0xbec80825	-0.39068714
192	0xbed3e4b0	-0.41385412
193	0xbe2e03e7	-0.16993676
194	0xbeab7632	-0.33488613
195	0xbe867fe9	-0.26269463
196	0xbe6f3d28	-0.23363173
197	0xbe00d3b0	-0.12580752
198	0xbe620a5a	-0.22074261
199	0xbe283633	-0.16426925
200	0xbe558b3e	-0.20853898
201	0xbdc262ab	-0.09491476
202	0xbe5b1ee3	-0.21398501
203	0xbf05dec9	-0.5229307
204	0xbd3bf736	-0.045890056
205	0xbeeabd0a	-0.4584735
206	0xbe3f3c5d	-0.1867537
207	0xbe5282bc	-0.20557684
208	0xbe57bf53	-0.21069078
209	0xbe902931	-0.28156427
210	0xbe9389b4	-0.28815997
211	0xbef1d40f	-0.472321
212	0xbe9134be	-0.28360552
213	0xbeab4286	-0.3344919
214	0xbe216960	-0.15762854
215	0xbe16a1d3	-0.14710169
216	0xbe080c90	-0.13286042
217	0xbea5f28e	-0.32411617
218	0xbe3c2cf9	-0.1837653
219	0xbe3d4cb0	-0.18486285
220	0xbe38afa3	-0.1803575
221	0xbea2c6de	-0.3179235
222	0xbe826dfc	-0.25474536
223	0xbe73914a	-0.23785892
224	0xbe0ff96a	-0.14059988
225	0xbeaa6553	-0.3328043
226	0xbe861ad4	-0.26192343
227	0xbe17ce88	-0.14824879
228	0xbec2a7eb	-0.38018736
229	0xbe017dd9	-0.12645663
230	0xbeaf8fd1	-0.3428941
231	0xbe9d8b04	-0.30770123
232	0xbe2a4c87	-0.16630755
233	0xbec6961c	-0.387864
234	0xbefb561e	-0.4908914
235	0xbe0b7079	-0.13617124
236	0xbe7686c9	-0.24074854
237	0xbebf355a	-0.37345392
238	0xbf036a13	-0.5133373
239	0xbdd67105	-0.104707755
240	0xbe5acd7d	-0.2136745
241	0xbc284a88	-0.010271676
242	0xbe665215	-0.2249225
243	0xbe27dd98	-0.16393125
244	0xbe418aab	-0.18900554
245	0xbe459106	-0.19293603
246	0xbe5f7e5b	-0.21825545
247	0xbead77dd	-0.3388051
248	0xbe3c99ad	-0.18417998
249	0xbe76e2a6	-0.24109897
250	0xbec646bf	-0.3872585
251	0xbe9b98c6	-0.30389994
252	0xbe6bf24e	-0.2304165
253	0xbde9fb7d	-0.11424921
254	0xbe47107b	-0.1943988
255	0xbea639a0	-0.3246584

encoder.linear_.bias f4 [80]
0	0xbf199f85	-0.6000903
1	0xbf11beeb	-0.5693194
2	0xbf083940	-0.53212357
3	0xbf075cea	-0.5287615
4	0xbf04d110	-0.51881504
5	0xbf09a2d5	-0.53764087
6	0xbf09c59f	-0.5381717
7	0xbf0a2c56	-0.539739
8	0xbf1735fa	-0.59066737
9	0xbf1349b3	-0.5753433
10	0xbf0b4ee5	-0.5441726
11	0xbf12117a	-0.5705792
12	0xbf0fe4f6	-0.5620874
13	0xbf105ea2	-0.563944
14	0xbf1376a8	-0.5760293
15	0xbf0ad620	-0.5423298
16	0xbf106282	-0.5640031
17	0xbf0c02dd	-0.5469187
18	0xbf085a14	-0.5326245
19	0xbf19f6c1	-0.6014214
20	0xbf0bd339	-0.54619175
21	0xbf0d2320	-0.5513172
22	0xbf156ef6	-0.5837244
23	0xbf0b4369	-0.54399735
24	0xbf09924b	-0.5373885
25	0xbf14fd7a	-0.58199275
26	0xbf080aa5	-0.5314124
27	0xbf0e13b1	-0.55498797
28	0xbf0f6c8d	-0.5602501
29	0xbf0eef4f	-0.55833906
30	0xbf179c03	-0.5922243
31	0xbf0a1e91	-0.5395289
32	0xbf15b922	-0.58485615
33	0xbf0fba1e	-0.5614337
34	0xbf12cd23	-0.57344264
35	0xbf102f1f	-0.563219
36	0xbf08fde1	-0.5351239
37	0xbf0cdaa0	-0.55021095
38	0xbf11a7af	-0.5689649
39	0xbf1aaadc	-0.6041696
40	0xbf0db656	-0.5535635
41	0xbf0e3db0	-0.5556288
42	0xbf13c5f1	-0.5772391
43	0xbf0d8090	-0.55274296
44	0xbf060008	-0.523438
45	0xbf16be28	-0.58883905
46	0xbf0b203e	-0.5434607
47	0xbf0513c9	-0.51983315
48	0xbf12a9a0	-0.5729008
49	0xbf0e53b2	-0.5559646
50	0xbf0a6dfe	-0.54074085
51	0xbf10be89	-0.56540734
52	0xbf14f9b3	-0.5819351
53	0xbf14bbb4	-0.5809891
54	0xbf0c121a	-0.5471512
55	0xbf0baa33	-0.5455658
56	0xbf0d1680	-0.5511246
57	0xbf0990b6	-0.53736436
58	0xbf0d699b	-0.55239266
59	0xbf0d9b92	-0.55315506
60	0xbf0cc1f9	-0.5498348
61	0xbf10be47	-0.5654034
62	0xbf09c0a0	-0.5380955
63	0xbf122189	-0.5708242
64	0xbf141c11	-0.57855326
65	0xbf11ac7a	-0.56903803
66	0xbf12a8e1	-0.5728894
67	0xbf0c1139	-0.5471378
68	0xbf074492	-0.52839005
69	0xbf1dc00a	-0.61621153
70	0xbf09944e	-0.5374192
71	0xbf0d504a	-0.55200636
72	0xbf0f3bfc	-0.55950904
73	0xbf0c41e3	-0.54788035
74	0xbf0a0e54	-0.53928113
75	0xbf0b6305	-0.54447967
76	0xbf100071	-0.56250674
77	0xbf15df42	-0.5854379
78	0xbf1124b7	-0.5669665
79	0xbf0f55f9	-0.5599056
