CLDGE/main_cv/best_log.pth (torch, 8231 bytes, 2 tensors)

fc.weight f4 [7, 256]
00000000: 4786 c63d 6ae2 65be 8808 c03d c395 00be
00000010: 27b8 2c3e 66e5 96be b39f 5a3c 7772 28be
00000020: d703 123c 13b5 223e 8fa8 30be b90b 353b
00000030: 25b2 883d acfc 28bd dfa3 1ebd b05c fe3b
00000040: fb7b a2be b17b cd3c b741 133e c880 3bbe
00000050: a38b 4a3d cd55 c3bc dc6d 41bd 6ece a03e
00000060: 8c70 b7bd 5dea d23d 5168 2b3c a7e5 15bb
00000070: b9b3 3e3e 1075 d5bd e8a9 90bd 9470 e83d
00000080: a195 9b3d 2679 99b7 44eb d2bd 490f b1bd
00000090: f31b 12bd 87b4 8fbc 0e80 973c 8d44 10bc
000000a0: b9a7 8fbd 9e4e a1bc 9305 31be b39c 4fbd
000000b0: 7bcf 0abe 2722 13be 9a5d a2be a98e 343e
000000c0: f16b 62bd 6c10 163e a647 493d b88d 99bc
000000d0: 99cc 13be 06e4 86bd c91b b5bd c25c e43a
000000e0: dcc2 8bbd c61a ac3e 3b61 023f ebeb 8abd
000000f0: bc5d b53c 50fd 103d 9a4b a43e 5051 3cbd
00000100: a757 86be e62b 6ebd 8aed 893d 38e2 383e
00000110: e21b 553d 3e85 9d3b b51a 173d 4093 ba3e
00000120: 0eef 41be 5e5d 143e a676 0bbe 55b3 c23d
00000130: 4c34 f53d 5e80 f53d 014b f3bd d069 33be
00000140: c771 da3d daa6 52bd b7bc 55bc a425 91bd
00000150: 4d37 1c3e 5726 88bd 62cb 003e da2f 33be
00000160: f683 9c3d 6e74 dcbb 845e 1fbe c924 a7bd
00000170: b2c8 cc3b ecbb f0bd 7f15 73bd ee6e d53d
00000180: 6924 6b3d a3ed 993e edf7 05bd 3fb4 3ebb
00000190: 60f5 f1bd fa8b a53e e26e 85b9 2751 a4bc
000001a0: 650d aabc 25a7 b63d b44e a73c 2ed5 99bc
000001b0: 2dc6 dcbc 82de 273d 6a37 3bbe 50b3 3bbd
000001c0: 6be1 bebd 404d 603e b010 cfbd 64de 98bc
000001d0: 62a0 e9bc c3d4 90bd fa4f bc3d 52ff cabd
000001e0: a719 4abc e75b 3cbe addc 06be f2df 303b
000001f0: 3b58 9bbb 3308 7ebe 2177 73bc e082 363e
00000200: bb29 65be ba6f 11be bd7c 42be 6165 d43e
00000210: f83c 283d 7642 c7bd 6637 283e 226a 383e
00000220: 7d1c 613e a423 b9bc f5fa 10bd f20f 0ebe
00000230: c12d 773d 21e3 71bc bef5 0ebe 429f 04be
00000240: 2966 13bd ed8e 1abd 6e4a 233e 45df a7bd
00000250: 2d33 b43d dce1 223e df8e 213d ec4c bebd
00000260: a625 99bd 0ff3 7d3e 9f9a 08be 184b 593c
00000270: c00c 47bc bc6e 633d 5e81 953c 8ff2 213d
00000280: c9a1 373e d42b 033b d067 42bd 0484 41be
00000290: b4ae 183e 0e65 1e3e 351a 6dbe 40fb 0e3e
000002a0: 272a 62bd ad63 853b d315 debe b650 913d
000002b0: dfe2 733d b1f0 263e 2bdb 51be 17c1 a4be
000002c0: f82b 34bc 5990 0ebe 6376 a33d d884 6cbd
000002d0: 924e 96bb 054b 1b3c 2738 3bbe 754e 453d
000002e0: e3c5 123e 45d9 90be d515 fbba 2277 923c
000002f0: 5e8b c7bd 6ed9 9a3d 8ced cf3d bf39 023c
00000300: d2a0 04be b6cd 33be f16e 893d 9ddb 3a3d
00000310: 119d c43e e06c 7f3e 0984 433e 0699 47be
00000320: 5265 083e 5ce0 4fbe 081e 843e e08e b63c
00000330: 9f9e 443d 2cc2 7aba 813a 80bc 0804 8c3e
00000340: fef5 e13d 8a19 3abe bcfe 65bd 5eb1 33be
00000350: ec81 0b3d 6b4b 193d 1551 043e 985f 81bd
00000360: 5bc2 edbd e1bd 2b3d c81e 4d3e 89b0 48be
00000370: d380 8ebd ba5a e83c e368 9ebc bb4f e83d
00000380: d7de 803d 20ab 173e ccee a2bd 0a7a 903d
00000390: 6897 bb3d a674 a53c 523f 86be 0525 51be
000003a0: b144 8d3d 9f02 8bbe f762 7cbb e550 2d3b
000003b0: 3aef eabd 00a8 5f3c 21f4 15be 65ab febc
000003c0: 988e 1e3e 39ed aa3d 8a44 ad3d efc5 c33d
000003d0: de12 6c3e d85c 9cbe d465 543d 10c4 133d
000003e0: a700 68be a18f 813c ceef 303d 734f 373c
000003f0: 0652 7c3d 867c 9b3d 337c 5abd 619f f0bc
0.0969358 -0.22449651 0.09376627 -0.1255713 0.16867124 -0.29471892 0.013343739 -0.16449915
0.008912048 0.15889387 -0.172518 0.0027625395 0.066746034 -0.04125659 -0.0387305 0.007762514
-0.31735215 0.025083395 0.14380537 -0.18310845 0.049449574 -0.023844624 -0.04722391 0.31407493
-0.089570135 0.102986075 0.010461883 -0.002287248 0.18623246 -0.104227185 -0.07063657 0.113495976
0.07596899 -1.8295435e-05 -0.102987796 -0.086454935 -0.035671186 -0.017542137 0.018493678 -0.008805406
-0.070144124 -0.019690808 -0.17287283 -0.05068655 -0.1355571 -0.14368497 -0.31712037 0.17632546
-0.055278722 0.14654702 0.049140595 -0.018744335 -0.14433517 -0.06586461 -0.0884319 0.0017422664
-0.06824276 0.33614177 0.5092961 -0.06783279 0.022139423 0.035397828 0.3208893 -0.045975983
-0.26238748 -0.058147334 0.0673476 0.18055046 0.052028544 0.0048071435 0.036890704 0.36440468
-0.18938848 0.14488742 -0.1361948 0.09506861 0.119728655 0.11987375 -0.1187954 -0.17520833
0.106662326 -0.051428653 -0.013045481 -0.070872575 0.1525547 -0.06647938 0.12577584 -0.17498723
0.07642357 -0.0067277467 -0.15563399 -0.08161313 0.0062495107 -0.11754593 -0.059346672 0.10421549
0.05740777 0.30064115 -0.032707144 -0.0029099134 -0.1181438 0.32333356 -0.0002545035 -0.020058228
-0.02075834 0.08918599 0.02042327 -0.01877841 -0.026949966 0.040983684 -0.18282858 -0.045825303
-0.09320339 0.21904469 -0.10110605 -0.018660732 -0.02851886 -0.07071831 0.09194942 -0.0991198
-0.012335218 -0.18394433 -0.13170119 0.002698895 -0.0047407425 -0.24807815 -0.0148599455 0.17823362
-0.223792 -0.14202777 -0.18992896 0.41483596 0.04107377 -0.09729473 0.16427383 0.18009236
0.21983524 -0.022600003 -0.03539558 -0.1387327 0.06034637 -0.014763624 -0.1396093 -0.12951377
-0.0359861 -0.03773396 0.15946361 -0.08196882 0.087988235 0.15906471 0.039442893 -0.092920154
-0.07477884 0.24799751 -0.13340233 0.013262533 -0.012149036 0.055525526 0.018250164 0.039537963
0.1793281 0.0020015137 -0.047462285 -0.18898016 0.14910394 0.15468237 -0.23154528 0.13963032
-0.05521598 0.00407072 -0.43376026 0.070954725 0.059542533 0.16302754 -0.20493762 -0.32178566
-0.010996811 -0.13922252 0.07981565 -0.057743877 -0.004587003 0.009478335 -0.18283139 0.048170526
0.143333 -0.28290763 -0.0019156287 0.017879073 -0.09743379 0.07561003 0.1015273 0.007948338
-0.12951973 -0.17558941 0.067106135 0.045619596 0.38401082 0.24943876 0.19093336 -0.19491968
0.133199 -0.2030043 0.25804162 0.022284925 0.048002835 -0.0009565677 -0.015652897 0.27346826
0.110332474 -0.18173805 -0.056151137 -0.17548129 0.03405945 0.03742544 0.12921555 -0.06317061
-0.11609336 0.04192913 0.20031273 -0.19598593 -0.06958165 0.028363574 -0.019337123 0.113433324
0.06292503 0.14811373 -0.07955703 0.07054527 0.09159738 0.020197224 -0.26220185 -0.20424278
0.068978675 -0.27150437 -0.0038511136 0.0026445922 -0.1147141 0.013650894 -0.14643909 -0.031087587
0.15484083 0.08346028 0.084603384 0.09559237 0.23054072 -0.30539584 0.051854923 0.03607565
-0.22656499 0.015815558 0.043197446 0.011188376 0.06160166 0.0759211 -0.0533411 -0.029372873

fc.bias f4 [7]
00000000: 718c 8dbb f8c6 98bd 3abb d8bc db57 813d
00000010: 8282 333c 46c4 8c3c 9a8b e93b
-0.0043197204 -0.07459825 -0.026456464 0.06315585 0.010956408 0.017183434 0.0071272375
