VGDAE_updata/main/club_gae_pubmed.pth (torch, 514151 bytes, 2 tensors)

encoder.linear.weight f4 [256, 500]
000000 92 db 6e bd 1c 10 0d 3b 45 b7 56 3c 29 ff 27 bd
       -0.058314867 0.0021524495 0.013105218 -0.041014824
000010 ce 7b 94 3c 0f 20 51 bd 25 b2 42 3d 41 7f 79 bd
       0.01812544 -0.051055964 0.047533173 -0.060912374
000020 c8 d5 42 bc 13 61 49 bd 47 3b 6c 3b a7 79 94 3d
       -0.01189179 -0.049164843 0.0036046074 0.07249766
000030 7f 84 86 bd ee b6 d2 bc 90 75 46 bd 2c f3 d9 3c
       -0.065682404 -0.025721993 -0.04845196 0.026605211
000040 93 e8 93 bc 93 17 bb bc 34 24 5b bd d1 78 76 bc
       -0.018055236 -0.02283839 -0.053501323 -0.015043453
000050 40 ff 81 bc c7 9d 7f bc b5 61 46 bd 92 c3 92 3c
       -0.015868783 -0.015601582 -0.048433024 0.01791552
000060 3a ef 97 3a 98 cc 1b bd f4 fd 2f be ad ed 51 3d
       0.0011591681 -0.038036913 -0.17186719 0.051252056
000070 6d dc 0d 3c be 79 85 bd 0b 18 3f bd 5b 02 14 3c
       0.008658511 -0.06517361 -0.04665379 0.009033765
000080 42 4a 87 bd 90 19 c5 bd 19 fe e1 3c 07 97 1c 3d
       -0.066059604 -0.09624016 0.027586984 0.03822997
000090 76 6b 8b 3c 26 fe aa bd 40 01 07 3c 4d 08 1d be
       0.017019015 -0.08349256 0.008240044 -0.15335198
0000a0 ba ae c8 3a 7a 55 55 bd d2 cf d4 bc 01 e1 0e bd
       0.0015310862 -0.05208347 -0.025978003 -0.03488255
0000b0 70 05 dc bd 5f 69 75 3d 08 fe f9 3c 55 07 c4 bc
       -0.107432246 0.059914943 0.03051664 -0.023929277
0000c0 0b de c7 3b 83 9c 1f bd 62 7e 09 bd c9 e7 c8 bd
       0.0060994676 -0.03896762 -0.033567794 -0.098098345
0000d0 7b 61 b2 bd b1 c2 86 bd 53 1e 1c 3c eb c2 6e bd
       -0.08709999 -0.06580103 0.009528714 -0.058291357
0000e0 ea 79 03 bd ce a5 87 bd 6d 29 8f bd 3b 22 b3 bd
       -0.03209869 -0.066234216 -0.06990323 -0.08746763
0000f0 e4 df 42 bd f4 aa 42 bd 3e 50 25 3b 23 e5 b7 3c
       -0.0475768 -0.047526315 0.002522483 0.022448128
000100 b9 82 14 bd 42 8e 97 bd 8b b3 17 3d b0 30 fa 3c
       -0.03625748 -0.074001804 0.03703646 0.030540794
000110 9f af 8b bd 25 8e d4 bb e3 19 96 bd a1 e4 80 bd
       -0.068206064 -0.0064866715 -0.07329156 -0.062936075
000120 00 46 81 ba e8 4e da 3c b8 19 e5 bc a2 e5 89 3b
       -0.000986278 0.026648954 -0.027966365 0.0042082826
000130 a2 31 62 bd 10 e6 21 3d f0 d2 9d bd 94 39 5d bd
       -0.055223115 0.039526045 -0.07706249 -0.05400999
000140 10 3d 26 bc d4 be be bd fc 9d e4 3b 76 09 3b bd
       -0.010146394 -0.09313741 0.006976841 -0.04566332
000150 35 1b 61 bd 3f b8 8c 3c 62 28 ef bd 5c 89 ed bc
       -0.054957587 0.0171777 -0.11677624 -0.028996162
000160 08 32 cc bd 41 cc c6 bd ad ea 01 bd d8 be 59 bd
       -0.0997048 -0.09706927 -0.031717945 -0.05316052
000170 cc fc 91 bd 02 89 07 bc 78 73 e8 3c 35 58 11 3c
       -0.07128295 -0.008272411 0.028375372 0.008871128
000180 3a d0 eb 3d a7 3e 53 bd 88 92 b1 3c 89 22 04 3d
       0.115143254 -0.05157342 0.021676317 0.032259498
000190 0a 61 98 bd 72 91 8a bb 23 2a 59 3d 3d 3b 6b 3d
       -0.07440384 -0.004228764 0.0530187 0.05742954
0001a0 dd 86 d8 bc f6 8d 1d 3c 21 ca 1a bd f3 b7 83 3d
       -0.026431495 0.009616366 -0.03779042 0.0643157
0001b0 62 f6 66 bd cf d6 65 bd 7f d4 7e bc 83 42 b2 bc
       -0.056387313 -0.05611306 -0.015553593 -0.02176023
0001c0 d4 2a 56 3c 54 24 2b b9 b8 a3 cc bd af ab 32 3d
       0.013071734 -0.00016321364 -0.099921644 0.04362076
0001d0 02 86 a4 3c 58 30 be bd 2d 3b 81 3d 47 a3 9d bd
       0.020083431 -0.092865646 0.06310115 -0.07697158
0001e0 ad 97 94 bd a1 29 b6 3b e3 36 a6 bd 25 1a a1 bb
       -0.07255492 0.005559162 -0.081159376 -0.0049164467
0001f0 6c f1 8d bd 0d 5a b0 bd 33 94 cc ba d8 4b 50 be
       -0.06930813 -0.08610926 -0.0015608132 -0.20341432
000200 87 a9 01 bd 89 02 3e bd 20 ee 8e bd ab 9d 0f bc
       -0.031655814 -0.046389136 -0.069790125 -0.008765618
000210 e2 80 66 bc 73 b1 15 3c f7 cf 2d bb 0e 72 b1 3d
       -0.014068814 0.0091365455 -0.0026521662 0.08664332
000220 d8 0f a5 bd e4 23 83 3d ca 20 9e 3d 81 b8 86 bd
       -0.080596626 0.0640333 0.07721098 -0.0657816
000230 26 9e 90 bd 93 98 31 bd 21 8f 27 3d 8f 12 3f 3b
       -0.070614144 -0.043358397 0.040907983 0.002915535
000240 bd 1b 20 bd 49 1a 0a 3c 2a 8c fd bc 35 27 b2 3c
       -0.039088953 0.008429118 -0.030950624 0.021747211
000250 48 e7 93 3c fb 8c e2 3c ca bb 3b bc de a1 7d bd
       0.01805462 0.027655115 -0.011458347 -0.061921947
000260 57 6e 14 3d 94 9f 18 3b 35 40 7c bd 11 32 c4 bc
       0.03623804 0.0023288475 -0.06158467 -0.023949655
000270 95 3c 96 3c d7 e3 b7 bc b6 5d 8f 3d 2c 21 6b bd
       0.018339435 -0.02244751 0.07000296 -0.057404682
000280 27 66 17 3d a9 e4 05 be 01 d4 a1 3b e9 93 9d 3d
       0.036962654 -0.13075508 0.004938603 0.07694227
000290 04 11 3d bd 0b b1 cd 3c b3 99 7f bd f3 c0 7d 3d
       -0.046158805 0.025108835 -0.06240244 0.06195159
0002a0 61 7a b1 3d 14 0d 77 bd 2e bd 9e 3d 73 a2 bc 3d
       0.0866592 -0.060315207 0.07750927 0.09210672
0002b0 ff 5a 38 bd 7d 74 69 bb 7b 0c 6f bc dd b7 8d bd
       -0.045008656 -0.003562241 -0.014590378 -0.06919835
0002c0 72 30 d5 bd a9 bc 97 bd ee fd 6c 3d cc e2 61 ba
       -0.10409631 -0.07409031 0.057859354 -0.0008616864
0002d0 b6 9e be b9 b5 87 2d 3d 97 35 bf bd e0 9e 53 3c
       -0.00036357873 0.04236575 -0.09336393 0.012916297
0002e0 0d 72 d4 3a 97 82 7a 3c dd 59 3f 3b c4 df 65 bd
       0.0016208306 0.015289924 0.002919785 -0.056121603
0002f0 fa 24 89 bd 64 47 a4 3d 02 ee a7 ba 93 90 a6 3c
       -0.06696506 0.08021429 -0.0012812021 0.02033261
000300 0c a4 a1 3c cd 02 9c bc 21 70 78 bd 3f 39 cd bc
       0.019731544 -0.019044304 -0.06065381 -0.025051711
000310 bf d9 5b ba 98 39 42 bd 67 bd 8c bd 3f 19 82 bd
       -0.00083866337 -0.047418207 -0.06872063 -0.063524716
000320 e3 74 a4 bd 5f 8b c3 bd 02 7e 1a bd c5 e3 f9 3c
       -0.08030107 -0.09548067 -0.037717827 0.030504117
000330 6f dd 4f 3d d4 d2 c0 bd 2d e6 73 3d 9a 66 3d bd
       0.050748285 -0.09415212 0.059545685 -0.046240427
000340 f1 de 21 bb 4a 5d 76 3c d0 48 8a bb 25 fb a1 bd
       -0.0024699534 0.01503689 -0.0042201057 -0.0790923
000350 cd a3 33 be 84 28 3e be 79 41 ec bc 9c f1 20 be
       -0.17542954 -0.18570143 -0.028839814 -0.15717167
000360 2b b5 87 bd 95 4b 4f 3d 23 52 e0 3b 76 2c 8d bd
       -0.06626352 0.05060919 0.006845729 -0.06893246
000370 aa 5a d0 3c ea 9e 48 bd d8 b1 12 bc 27 83 67 3b
       0.025433857 -0.048979677 -0.008953534 0.0035325976
000380 db 86 5e 3d c0 ed 80 bd 87 6f 3f 3d 76 e8 ed bc
       0.054327827 -0.06295347 0.04673722 -0.02904151
000390 b8 03 ab bd 90 e5 62 3d d5 c3 a3 bd 1f e7 87 bd
       -0.08350319 0.05539471 -0.07996336 -0.0663588
0003a0 0a b6 fd bc d7 03 19 bc 58 4e 94 3c 8c ee 9f 3c
       -0.030970592 -0.009339294 0.018103763 0.019522928
0003b0 98 27 b0 bd df 14 21 3d 5f 5e 99 bd be f7 4f bd
       -0.08601302 0.039326545 -0.07488703 -0.050773375
0003c0 97 49 52 bc 06 26 84 bd 3c a9 db 3c 9b e4 36 bd
       -0.012834928 -0.06452565 0.026814096 -0.04465161
0003d0 17 5e bc bd a1 14 0d bd dc 61 12 bd f7 e3 40 3c
       -0.09197634 -0.0344435 -0.035737857 0.011773101
0003e0 77 25 d6 bc 1c fd 81 3d 9e bf c5 bc 29 74 8d bd
       -0.026140912 0.06347105 -0.024139222 -0.069069214
0003f0 74 bb 39 bd 24 55 4c bd 63 a6 ba 3c bd 44 b7 bd
       -0.045344785 -0.049885884 0.022784417 -0.08948658

encoder.linear.bias f4 [256]
000000 eb 52 94 3c 4b 1c 2d 3c 02 3e 48 bc 02 5f ac 3c
       0.018105945 0.010565828 -0.012221815 0.021041397
000010 72 f9 70 bc 28 84 10 3b 2c cc 05 bc b9 6f a7 bc
       -0.01470791 0.0022051428 -0.008166354 -0.020439016
000020 de c8 b9 3b 88 75 45 ba e5 ce 58 bb 7e e1 ca 3b
       0.005669697 -0.0007532467 -0.0033082303 0.0061914315
000030 21 73 9e bc 27 d7 97 bc e0 7c 6d bc 83 d6 61 bc
       -0.019342007 -0.01853521 -0.014495105 -0.013784054
000040 e6 8d b7 3a 91 b6 22 3c 56 34 90 bc 8d 61 7c 3c
       0.0014004081 0.009931223 -0.01760308 0.015404117
000050 20 53 82 bb be e1 3f 3c 42 d6 96 38 f5 d1 17 bc
       -0.0039771944 0.011711536 7.192466e-05 -0.009266366
000060 b3 db 3c bc 3f 4c 7a bb a8 99 8e 3b 09 b4 38 3c
       -0.01152699 -0.003819242 0.0043518133 0.0112733925
000070 41 d2 05 3b 1e 94 14 3b c7 53 86 3c 1e a4 10 3c
       0.002041951 0.0022671293 0.01639737 0.008828191
000080 f9 9e 14 bc 42 37 5d bc b2 92 0e 3c cd 08 a3 3b
       -0.009071105 -0.013501944 0.008701967 0.0049754144
000090 2d 63 91 bc 10 5c 4f bb 35 ef 9d 3c 6d f6 26 3c
       -0.017747486 -0.0031640567 0.019279102 0.010190588
0000a0 3d 21 05 3c c2 37 2a bc c6 c7 86 bc 5c de b0 bb
       0.0081256 -0.01038927 -0.016452681 -0.005397601
0000b0 46 ec 88 3c fb 3c 85 3c ff 7b a0 ba 36 28 9f 3c
       0.016714226 0.01626443 -0.0012243985 0.019428354
0000c0 fb 84 dd 3b 84 ea 0b 3a 0a 93 9a bc 2a 71 ff ba
       0.0067602373 0.0005337375 -0.018868942 -0.0019488682
0000d0 9d fb 11 3c 29 93 4c bc 42 88 ed 3a dc 89 6c bb
       0.008910087 -0.012486258 0.0018122273 -0.0036092913
0000e0 80 bd cc bb 1e 55 1e 3c a0 dc 93 bc 95 21 25 bb
       -0.006248176 0.009663848 -0.018049538 -0.0025197018
0000f0 e2 74 5d bc 6c 3d 48 3c b2 a9 73 bc fb 81 c3 bb
       -0.013516637 0.012221675 -0.0148720015 -0.0059664226
000100 6a 7a ab 3c 8e 3a e8 3b bd 49 22 3b cb b5 87 3b
       0.020932395 0.0070870584 0.002476319 0.0041415445
000110 ff 8b 6f bb 63 19 15 bc 31 19 90 bc f4 11 68 bc
       -0.003655195 -0.009100291 -0.017590137 -0.014164437
000120 56 dd 99 3c c6 0c 72 bc 50 0e 0a 3b 53 e8 9f bc
       0.018782299 -0.014773553 0.002106566 -0.01951996
000130 f8 5f dd bb bc 49 c5 bb cf e7 9d 3b 45 e5 f8 3b
       -0.006755825 -0.0060207527 0.0048188935 0.0075956904
000140 15 a3 a0 3c 92 75 7e 3c 57 8b 22 bc 61 c6 66 bc
       0.019609014 0.015530961 -0.0099209165 -0.014085383
000150 fb cd 3f 3a fd 49 ba ba b1 90 55 3c fd 6d 80 bb
       0.0007316765 -0.0014212724 0.013034985 -0.0039193616
000160 61 2f 65 bc 8d ca 80 bc 4d 96 07 3c 77 98 82 bc
       -0.013988347 -0.015721584 0.008275581 -0.015941842
000170 69 13 65 bc 2c 67 01 bc a7 30 97 3c 00 79 ee 3a
       -0.0139816785 -0.007898133 0.018455816 0.001819402
000180 fc fa 96 bc e6 42 44 3c 6b 89 08 bb 1b b2 90 bc
       -0.018430226 0.01197884 -0.002083386 -0.017663052
000190 b0 dd ed ba 60 2e f2 ba 28 fb 0b 3b bd 4b 07 3c
       -0.0018147733 -0.0018476956 0.0021359418 0.0082578035
0001a0 a4 8d 99 3c 70 a9 ad 3b 60 53 89 bc 5a d1 8b bc
       0.018744297 0.0052997395 -0.01676339 -0.0170676
0001b0 3d 94 09 bc d8 6f da bb fe c8 83 3b cc 09 5e 3c
       -0.008397159 -0.006666165 0.004021763 0.01355214
0001c0 69 ae 9e 3b a5 d1 90 3b eb 05 68 bc a8 12 68 3b
       0.0048425687 0.004419523 -0.014161567 0.003541151
0001d0 db 92 6a 3a e0 fe 31 bc f1 3e 88 3b 3d f5 38 3c
       0.0008948275 -0.01086399 0.004157894 0.011288938
0001e0 63 03 75 3c aa 9f 0c 3c 1e a5 df ba c5 ed 1f 3a
       0.014954421 0.008582989 -0.0017062759 0.0006100799
0001f0 c8 67 e8 3a e6 b8 77 bb 36 2a d1 ba 23 ac 0a 3c
       0.0017731125 -0.0037799417 -0.0015958014 0.008463892
000200 82 13 75 3c 5b 07 8c 3c f0 40 84 3c 65 97 76 3c
       0.014958264 0.017093351 0.016144246 0.015050744
000210 b6 07 58 3c 81 7e d3 bb b6 b8 51 3a 06 58 d6 ba
       0.013185432 -0.0064542894 0.00080002414 -0.0016353137
000220 3c d3 40 bc b7 1b 8c 3c c5 67 1b 3c d7 f1 36 3a
       -0.011769112 0.01710306 0.00948519 0.0006978786
000230 a3 33 84 3c 7f d1 1b bc a7 a2 7a 3c de 80 5a 3b
       0.016137904 -0.009510397 0.015297568 0.003334097
000240 2d c5 78 3c e2 92 5d 3b 51 7e 46 3c 7f 00 b6 bb
       0.015183729 0.0033809473 0.012115077 -0.0055542584
000250 c3 e9 88 bc 62 79 a6 bb f0 f2 87 bc cc c9 5b bc
       -0.016713029 -0.005080388 -0.016595334 -0.013414811
000260 37 b3 74 bc 5d d9 ac bc 1e 2c 30 bb 9a 7f 3e bb
       -0.014935306 -0.02109974 -0.0026881765 -0.0029067756
000270 e2 d0 39 3b da f2 62 bc 62 25 19 3b 13 79 24 3c
       0.0028353264 -0.013851846 0.002336823 0.010038632
000280 49 d3 af 3a c1 a1 8a bc ca 81 4b b9 20 47 b3 ba
       0.0013414408 -0.016922833 -0.00019407939 -0.0013677813
000290 0d 8b 56 3c 15 ec a4 bc 5d 00 40 3c 23 f4 ab 3a
       0.013094676 -0.020132104 0.011718837 0.0013119023
0002a0 f7 64 3f b6 28 5b a0 39 a1 75 26 3c 88 7e 5a 3c
       -2.8519987e-06 0.00030585495 0.010159881 0.013335831
0002b0 72 41 9c bc b0 0f 5a 3b 6e b7 7c bc 0c 69 8b bb
       -0.019074176 0.003327351 -0.015424592 -0.004254466
0002c0 fa da 13 bb 22 18 84 bb 97 88 95 3b 99 fe bf bb
       -0.002256094 -0.004031197 0.004563402 -0.005859208
0002d0 3e ea dd 3b 31 b7 06 b9 52 f3 b2 3b bc 39 9a 3c
       0.0067723086 -0.0001284748 0.005461135 0.018826358
0002e0 71 d3 f4 3a f6 1c 65 3c 17 3a 10 3b 52 fa 91 bc
       0.0018678737 0.013983956 0.002200728 -0.017819557
0002f0 c9 d6 8a bc 5f d9 a3 3a 31 c3 1f 3b 79 47 b0 38
       -0.01694812 0.0012500695 0.0024377818 8.405647e-05
000300 63 2c d4 3a f6 b0 81 3c d4 00 5c 3b 22 b8 1e ba
       0.0016187545 0.015831452 0.003356983 -0.00060546596
000310 9b ac b2 3b 13 c9 68 ba 78 b0 17 3c 02 16 b0 3b
       0.005452705 -0.000888006 0.009258382 0.0053737173
000320 3f c8 82 3c 21 7d 61 3b d0 93 9d bc b6 09 94 bb
       0.015964625 0.0034406858 -0.019235522 -0.004517759
000330 8c 2e 6a 3c 86 19 16 b9 ba 7e 1f bb b5 54 93 bc
       0.014293324 -0.00014314623 -0.002433701 -0.017984727
000340 70 7b 01 bb 40 5e 4d 3a 23 90 33 bb e7 4b 98 bb
       -0.0019757412 0.0007834174 -0.0027399145 -0.00464772
000350 f8 e1 18 3b 9c f8 40 3c d9 6b d5 3a 0c 02 e8 3a
       0.0023328047 0.011778023 0.0016282751 0.0017700805
000360 df c3 1a bc c5 ad 67 3c 54 5a 73 3c 3c 95 2a bb
       -0.009446113 0.014140551 0.014853079 -0.0026028892
000370 19 47 91 3c 62 9e 18 b9 14 cf 20 bc 9a 99 c6 3a
       0.017734097 -0.00014554852 -0.009814996 0.0015151978
000380 f6 00 aa bc 40 ca 84 3b ea ba 28 3a 70 0a 92 3c
       -0.020752411 0.0040524304 0.0006436544 0.017827243
000390 9a 36 a3 3b 9c 0b 05 3b f7 7f 0a ba 40 b0 86 bc
       0.0049808742 0.002030111 -0.00052833505 -0.016441464
0003a0 fe a0 02 bc 18 c0 7b 3b 7b 93 96 3c d0 7e 74 bb
       -0.007972954 0.0038414057 0.018380871 -0.0037307031
0003b0 19 ac 8d bb 7a 33 41 bb b7 23 c9 3a fd d3 db 3b
       -0.004323494 -0.0029480145 0.0015345727 0.0067086206
0003c0 b7 5a 26 3b 0f b6 b1 bb 7e ea 98 bb cb 9f 81 bc
       0.002538366 -0.0054233144 -0.0046666255 -0.015823266
0003d0 60 30 a0 bb 37 32 8d 3c 80 3e 49 bc 4f 22 b5 bb
       -0.0048885792 0.017235858 -0.012282968 -0.0055277715
0003e0 b5 2f 29 bb 5c e0 5e bb 4c 96 ac bc b6 ff 9a 3c
       -0.002581579 -0.003400824 -0.02106776 0.01892076
0003f0 c8 40 80 3c 09 b3 01 3b 02 35 65 3c d4 1f 87 bc
       0.01565589 0.001979055 0.013989689 -0.016494669
