VGDAE_updata/main/wo_club_cora.pth (torch, 735839 bytes, 4 tensors)

encoder.linear.weight f4 [64, 1433]
00000000: a8c7 2d3c 2886 9dbd da23 e33d 79fe 77bc
00000010: 7800 373d 7392 9cbd 793e 133c f9a1 4a3d
00000020: 7a25 a63c 47df a6bd f125 f2bd 877e c1bd
00000030: 2545 2abe 4cd3 2e3d 6cc4 a1bd 4de8 683d
00000040: 2a9d 2cbe fb00 fb3c 6468 4c3d 78b9 5c3c
00000050: 2e7a e9bd 6aa1 1e3e f4f8 343e 8a92 a7bd
00000060: 7a48 a13d dec7 85bd 77e3 1c3d a0b8 bf3c
00000070: 5a94 3cbd c90e d3bd 7be5 3d3e 5da2 e9bd
00000080: 2950 74bb 57cb 96bc b6be c23d 6e7b 00bd
00000090: 5401 c03d da42 3fbd 2e4e 2fbd 04b0 8b3d
000000a0: f96e 55bc 3c17 c5bd ed22 ef3d fca8 ebbd
000000b0: bdb8 db3d 54e1 d7bb 430e 413e f194 cf3d
000000c0: aa19 38bc eef0 13be 8ab9 0f3e 0cdc 9a3d
000000d0: 27e8 d93c d219 023d a6d9 5b3b 4745 983d
000000e0: 34c4 0abe 800b 19be da9c ccbd f417 13bd
000000f0: f9a3 963d 7201 1dbe 0162 943a f99b 0ebe
00000100: 413a b9bd b8fb 943c 5e35 bdbc eec4 78bd
00000110: f113 903d dbb8 d33b 69cf 4c3e 61bc 8f3d
00000120: 3066 5fbb d90e d43d babc a33d 17af ea3d
00000130: f8e1 d53d 49cf 8b3d 194a 46bc a928 19bd
00000140: bd98 b9bd 7c00 863d 0c60 0cbd 95fd e3bd
00000150: 4ded e5bd fefa e33d 341a a93d 9321 4f3d
00000160: 3119 323d 761f 5bbd 355a 2a3c cddc ef3d
00000170: e441 53bd 62a2 a93d f0a1 203c 3c0b abbd
00000180: c6ae 433e c9dd 613d fcac 9dbd 21bb f83d
00000190: f523 8fbd 9746 f0bd f525 f3bd 7215 cdbd
000001a0: fc04 29bd 0886 9a3d adf2 c03c 80b4 9fbd
000001b0: 1ffd 743d 7bb7 b6bb a349 1d3e e6ab a3bd
000001c0: e3bf 86bd 18cb 4abd 1eaf a1bd 43ad bf3d
000001d0: b775 1bbc 3d42 293e d93f 11be 9e25 4ebc
000001e0: 928e 713b 0b2f e13d b3ef a9bc 168a 24be
000001f0: dadd 253d ff22 c2bd 2514 033d 7416 b23c
00000200: fd39 203e 63eb 00be f35c fb3c f221 c4bd
00000210: 2493 323d 65da 64bd ac06 aabd 5acd a7bd
00000220: 07c5 bb3d f756 6d3d ebef b13b 87f1 11bc
00000230: 4f6a a9bd 05f9 e439 92ea 433d 518d 03be
00000240: 3ec8 96bd c8d8 4f3d 995a 013d 9830 75bc
00000250: 35cd b33d 2785 11bd ceda b03d 0ed8 ea3d
00000260: a9a7 403d 3e5d 033d 567e 23be 7d44 2b3c
00000270: 24bb 193e 5575 6e3d a777 f8bc d340 5b3c
00000280: e0ca 0c3e f404 593d 3205 2ebe 36fa 3e3d
00000290: 9871 c2bd 7aa8 833d e7d1 e23d 1f8f 543d
000002a0: 4626 9b3c ef02 04be 324e 9cbd 97a7 76bd
000002b0: cc7e d1bd b55d 81bd 312d febb c6d8 763d
000002c0: 7b0d bd3d 2720 cbbd 69fc 1fbd 9a3e 5d3d
000002d0: 4268 d43d cc2f d43c ea8a 4b3e 42b2 963d
000002e0: 3f5c 16be 1ed9 3c3d 6326 253e 9347 ecbc
000002f0: 2ac2 1d3e 37f3 073b d05f fcbb d387 083e
00000300: 1ef5 a1bc 53af 363c 7e84 8739 d9fa 8c3d
00000310: 3fb3 05bd 7ce7 27bc 75c3 cbbd b188 8bbd
00000320: 3be2 c3bc 7803 71bd 8f97 6f3d f9f7 173e
00000330: 7f28 103c 07b5 f43d 76b4 fc3c 89df 26be
00000340: 17f2 0dbe 4336 93bc 4a33 c1bd 7916 f2bb
00000350: 5d5f 713d d3b6 d0bd f307 353d b123 a03c
00000360: 6dbc 29bd 2016 ba3d b3ea 17be 6ecc 0b3c
00000370: 0593 0f3d e40e 7a3d 2252 bd3d 3e66 993d
00000380: 40d7 efbc bf05 493d 7c89 8a3d cd6f cabd
00000390: a5de d03d f5ed bcbd 58fa 9c3d 9a54 cbbc
000003a0: da76 963c 6c2a b5bc 2006 acbd 81cd 833d
000003b0: ccd7 6ebd a578 4f3d b584 0a3e 1173 bc3d
000003c0: 001c 693d e6bc 1fbe fb7b 4d3d bf16 0dbe
000003d0: ec2a c33d 7dff af3d 356e c7bc 2c0e d0bc
000003e0: 6744 60bd fdf5 d2bd dc86 533d 4fa1 8a3c
000003f0: b37d 12be 1b33 fcbb f079 10be 0586 bebb
0.010606684 -0.07691604 0.110908225 -0.015136355 0.04467818 -0.076451205 0.008987063 0.049470875
0.020281542 -0.081480555 -0.11823643 -0.09447961 -0.16627939 0.042681977 -0.078987926 0.056862164
-0.16856828 0.030640116 0.049904242 0.013471954 -0.11400257 0.15491262 0.17673093 -0.08182247
0.07875152 -0.06532262 0.038302865 0.023403466 -0.046039917 -0.103055544 0.18544571 -0.114079215
-0.0037279224 -0.018407507 0.095090315 -0.03136771 0.09375253 -0.046694614 -0.042799167 0.06820682
-0.013026946 -0.09623572 0.116765834 -0.115068406 0.107285954 -0.0065881405 0.18853097 0.1013583
-0.011236588 -0.14447376 0.14035621 0.07561502 0.026599957 0.031762905 0.0033546477 0.074350886
-0.13551408 -0.14945793 -0.099908546 -0.035911515 0.07355494 -0.15332583 0.0011320711 -0.13926686
-0.09044314 0.018186435 -0.023096737 -0.06073468 0.070350535 0.0064612455 0.20000996 0.07018352
-0.0034088008 0.103543945 0.07994981 0.11459177 0.10443491 0.06826646 -0.012102627 -0.037392292
-0.09062336 0.06543061 -0.034271285 -0.11132351 -0.11226902 0.11131857 0.08256951 0.05056913
0.043481056 -0.0534968 0.010397484 0.11712036 -0.05157651 0.08282925 0.009804234 -0.08351752
0.1910964 0.05514315 -0.0769901 0.12145067 -0.0698928 -0.11732214 -0.11872474 -0.10013856
-0.04126452 0.07545096 0.023553217 -0.077980995 0.059811708 -0.005576072 0.15360121 -0.079917714
-0.06579568 -0.04951009 -0.07894729 0.09359219 -0.009488515 0.16529174 -0.14184512 -0.012582211
0.003685866 0.10995301 -0.02074418 -0.160683 0.040494777 -0.09479331 0.032001633 0.021739222
0.15647121 -0.12589793 0.03068397 -0.09576787 0.043597355 -0.05587234 -0.08302054 -0.081934646
0.09168439 0.057944264 0.005430212 -0.008907682 -0.0827223 0.00043673083 0.047831126 -0.12846877
-0.07362412 0.050743848 0.03158054 -0.014965199 0.087793745 -0.035527375 0.08635484 0.114669904
0.047034893 0.032071345 -0.15966162 0.010453341 0.15012795 0.058217365 -0.030330492 0.0133821545
0.13749266 0.05298324 -0.1699417 0.04662534 -0.094943225 0.06428619 0.11075192 0.051894303
0.018939149 -0.12891744 -0.07632102 -0.06021842 -0.10229263 -0.06316701 -0.007756852 0.060265325
0.09231087 -0.09918242 -0.039059076 0.05401478 0.10371448 0.025901698 0.1987721 0.07358219
-0.14683627 0.046105497 0.16127925 -0.028842723 0.15406099 0.0020744333 -0.0077018514 0.13333063
-0.019770201 0.011150199 0.0002584792 0.06883783 -0.032641646 -0.010248061 -0.0994939 -0.06813181
-0.023911586 -0.0588412 0.058494147 0.14840688 0.0087987175 0.11948591 0.03084777 -0.1629621
-0.13861881 -0.01797021 -0.09433611 -0.007387933 0.058928836 -0.10191121 0.044197034 0.019548269
-0.041439462 0.09086251 -0.14835624 0.008532627 0.035052318 0.061049357 0.09244181 0.07490204
-0.029277444 0.049077746 0.06764504 -0.098846056 0.10198716 -0.09225074 0.07664937 -0.024820615
0.01836722 -0.022114955 -0.08399606 0.06435681 -0.05831127 0.050652165 0.13527186 0.09201635
0.05691147 -0.15599403 0.050167065 -0.13778208 0.09529671 0.085936524 -0.024344543 -0.025397383
-0.054752734 -0.10300825 0.051642284 0.016922621 -0.14305763 -0.007696522 -0.14109015 -0.005814316

encoder.linear.bias f4 [64]
00000000: a602 173b 7c3c caba ce71 8d3b 66ad eabb
00000010: 200f fabb 0110 193b b40f 123c 0795 a1bb
00000020: 5724 acba 1f69 7f3a 21ba b03b 8a33 8cbb
00000030: 802b 3abb 4690 7cbb c70d 81ba 50c9 c6ba
00000040: c34d 39bb f9c3 b83b 1654 c4bb ce28 33bb
00000050: b631 0e3c 05bd 323c 4fdd b73b 045d e1b9
00000060: 7475 223b 2a46 80bb e440 b3bb e9be 2d3c
00000070: 1a67 91ba 852e a7bb 3dd4 9e3a da52 b4ba
00000080: 32b7 c5bb 10be b8bb 7163 a53b 62cf 8a3b
00000090: 942d 94ba fdd4 91b9 a178 15bb 429d 583b
000000a0: 5b3c 0b3b 0324 c53b 3c97 163b 14ee 503b
000000b0: 850a dbba 9f9c c93a b307 363c cb5c 013c
000000c0: 3958 023c d17a 27bb ec77 a939 ff2e a33b
000000d0: 0da8 b4bb 6485 173b 3d31 7cbb 739b 6d3b
000000e0: cc9e 22bc 0543 0a3c 3cd6 e63a 3608 d9bb
000000f0: ee35 27bc 3925 b53b 295a 643b 3c51 e1bb
0.002304235 -0.0015429403 0.004316545 -0.007161784 -0.0076311976 0.0023355486 0.008914877 -0.0049310955
-0.0013133389 0.0009743142 0.005393282 -0.004278605 -0.0028407276 -0.0038538142 -0.0009846025 -0.0015166197
-0.002827511 0.005638596 -0.005991469 -0.0027337554 0.008678844 0.010909324 0.005611099 -0.00042984646
0.0024789246 -0.003914614 -0.005470382 0.010604599 -0.0011093349 -0.005101981 0.0012117695 -0.0013757602
-0.0060338015 -0.0056378916 0.0050472547 0.0042361477 -0.0011305087 -0.00027815244 -0.0022807496 0.0033052717
0.0021245691 0.006016256 0.0022978326 0.0031880187 -0.0016711509 0.001538176 0.011110234 0.007895659
0.007955604 -0.0025555382 0.0003232354 0.0049799676 -0.0055131973 0.0023120278 -0.0038481497 0.0036255985
-0.009925555 0.00843883 0.0017611454 -0.0066232933 -0.010205729 0.005528119 0.0034843779 -0.006876139

encoder.linear_.weight f4 [64, 1433]
00000000: abdd 0bbe b1cf 87be adaf c7be 503b 9cbe
00000010: d5ee e7be 73c8 3cbe 3ddd 0fbe 6081 54be
00000020: 2501 d6bd 2daf d4bd 58d8 1ebe 5ccb 39be
00000030: b60b 81be d86f 76be 09ce 06be ae3b 87bd
00000040: d842 11be 672e 40be 7324 12be d4c3 f1be
00000050: 53c3 f43c 92af 3fbe d207 93bc 00b0 75be
00000060: 1364 c5bd 2d6c afbe 69fd 92be 3aaa 4dbe
00000070: aee8 d2bd b162 4cbe c065 35be bdd1 a2bd
00000080: c033 c5bd cb52 15bd ef3f 1abe 8ce0 e8bd
00000090: daaf 09be 80cd b8bd 8cb7 c0be 4961 b3be
000000a0: ef2c 78be b0f7 acbe d653 bbbe d7e6 0fbe
000000b0: 202a b8be 36bf b3bd d4fb 24be a34d 81be
000000c0: 825c c4be 0776 80be 780a 53be 3d5a 43be
000000d0: d986 a1be 1ddf 48be ce68 95be bcdb 1ebe
000000e0: 51c1 51be 8e79 5ebe 7cd7 a4be 18c8 9abe
000000f0: d968 0cbe 858b a6be 76b2 9bbe 88ce c4be
00000100: e12e 9abe 7776 bfbe 880f 80be eebd 93be
00000110: b757 49be 8bcc 65be 4f9b 80be 0c12 c8bd
00000120: 0c4f 3bbe 62aa 01be 7b54 c7bd 63c0 f0bd
00000130: fd10 4ebd cfa4 4cbe 6bb9 d4be 6602 71be
00000140: f71f 7ebe d219 bdbe 8f90 88be c8e2 3dbe
00000150: 8b95 45be 1b6d 9fbe 1308 75be bf26 8ebe
00000160: 05cc 9abe b781 aabe 2ed0 25be d6cc 65be
00000170: 6557 a8be 3918 bbbe 9ad2 6ebe 2108 45be
00000180: e125 60be 020f bbbe 350c abbe 374b b2be
00000190: 6605 b6bd c7b9 26be 42e3 12be 9092 81be
000001a0: bfac 44be 70c6 97bd 6177 273d 4f6a 7fbe
000001b0: 3ed7 bdbd 8382 50be 743e 83bd b703 26be
000001c0: 54a3 7dbe 83ac 75bd e940 0dbe c616 ffbd
000001d0: 100e 05be 3998 1fbd feda 53be 5d44 58bc
000001e0: 3beb 88be a3b6 c0be d8fe 63be 906c 81be
000001f0: 2454 81be fcde b7be 72f8 91be 5305 1cbe
00000200: 39c9 b0be 482a 1ebe d584 b9be ffa5 cdbe
00000210: 1e76 eebe aaef 8ebe 8554 2bbe b35c b7be
00000220: a708 a6be ba21 2fbd e66a 5cbe b30c 34be
00000230: 61a6 bcbe 83bc 36be 9038 53be 8794 50be
00000240: cb5e 11be 8b07 32be b361 13be 7c31 82be
00000250: e2be a5bd 4c17 94be 381b 0bbe 1f9f 8fbe
00000260: c1be 6bbe 4cd3 6bbe 2a44 97be ba4c 1bbe
00000270: 4f35 4abe a115 bdbe 8a15 febd be9f 29be
00000280: abc2 49be 3f11 13be e8fc 6abe b53f f7bd
00000290: edcb 31be 5915 d1bd 985d 81be deeb 03be
000002a0: 55f1 8abe a22b 5dbe c439 1fbe 63ac 7cbe
000002b0: 56d5 98be 36d0 a5be 4fe9 5fbe 35a9 52be
000002c0: 594f b2be aa97 6bbe 46ce 62be a2e4 b7be
000002d0: b253 eabd f6b8 a1bd 53fd 8ebe 923e c6bd
000002e0: 663e 1abe 4124 1cbd adc9 96be 35e6 c6be
000002f0: 23f6 77be d8e6 98bc 4e82 44be 7554 58be
00000300: dec4 bfbe 2be4 5ebe 31df 93be ef51 39be
00000310: b828 38be cb9d 3cbe ee09 2bbe ceea c8bd
00000320: dcdb 5abe 8809 94be 0d69 84be 566d b8be
00000330: d6ea 0fbe 0137 d2be ac9f 73be 801f 03be
00000340: c13d a3be ff5b 86be 038d 4dbe acc6 c8be
00000350: 91c5 2cbe ac19 83be 77d9 9bbd 8a67 b8bd
00000360: 3e84 abbe 6c3b c7be b7a3 06be 52fa f4bd
00000370: 78af a5bd da23 0bbe 0169 69be 18b2 2c3b
00000380: 2374 47be 0d24 98be 5ee6 4ebe d790 b7bd
00000390: 39da aebe bdce 4cbe 1f38 62be 2bc9 8abe
000003a0: 3519 1bbd 8ec2 63be 5489 94be 9a7c 76be
000003b0: e774 83be 496e 79be d43f c6be a03a d4bd
000003c0: d0b1 02be 60ad 31bd e6d9 e5bd e7e0 7ebe
000003d0: 1610 2fbe 01d3 77bd 055e 41be 64bb a4be
000003e0: 484e 66be bec1 3ebe 3f98 c4be e5b2 e2bd
000003f0: ba09 88be 5e62 5dbd 12a0 7fbe 7985 a9be
-0.13658778 -0.26525643 -0.39001217 -0.30514002 -0.45299402 -0.1843584 -0.1404924 -0.20752478
-0.10449437 -0.10384975 -0.15512216 -0.18143982 -0.25204247 -0.24066103 -0.13164534 -0.0660318
-0.14185655 -0.18767701 -0.14271717 -0.47219718 0.029878294 -0.18719319 -0.017948065 -0.2399292
-0.09638228 -0.3426222 -0.28708962 -0.20084468 -0.102982864 -0.19959523 -0.17714596 -0.07950161
-0.09629011 -0.03645591 -0.15063451 -0.11370954 -0.13445988 -0.09023571 -0.37640035 -0.3503516
-0.24235891 -0.3378272 -0.365874 -0.14052902 -0.3596964 -0.08776705 -0.1611169 -0.25254545
-0.38351828 -0.25090048 -0.20609462 -0.19077392 -0.31548193 -0.19616361 -0.29181522 -0.1551351
-0.204839 -0.21726057 -0.32195652 -0.30230784 -0.13711871 -0.3252832 -0.30409592 -0.3843882
-0.3011389 -0.3739507 -0.2501185 -0.28855842 -0.19662367 -0.22441308 -0.2511849 -0.09769067
-0.18291873 -0.12662652 -0.0973291 -0.11755445 -0.05030917 -0.19984744 -0.41547713 -0.23536071
-0.24816881 -0.36933762 -0.2667279 -0.18543541 -0.19295327 -0.31137928 -0.23928861 -0.27763936
-0.3023378 -0.3330209 -0.16192695 -0.2244142 -0.32879177 -0.36541918 -0.23322526 -0.19241382
-0.2188945 -0.36534888 -0.3340775 -0.3482301 -0.088877484 -0.16281806 -0.14344504 -0.2530713
-0.19206522 -0.07410896 0.040885333 -0.24942897 -0.0926957 -0.20362286 -0.06408396 -0.16212355
-0.24769336 -0.059978973 -0.13794293 -0.124555156 -0.12993646 -0.03896353 -0.20689008 -0.013199893
-0.26741967 -0.3763934 -0.22265184 -0.2527814 -0.25259507 -0.3591231 -0.2850986 -0.15236406
-0.3452852 -0.15445817 -0.36234155 -0.40165707 -0.4657449 -0.27917224 -0.1673146 -0.3581291
-0.32428476 -0.042756774 -0.21525154 -0.1758297 -0.36845687 -0.17845349 -0.20627046 -0.20369159
-0.14196317 -0.1738569 -0.14392738 -0.2542838 -0.08093049 -0.28924024 -0.13584602 -0.28051087
-0.23021986 -0.23029822 -0.29544193 -0.15165988 -0.19746898 -0.36930564 -0.12406452 -0.16564843
-0.19703166 -0.14362048 -0.22948039 -0.12072698 -0.17362948 -0.1020915 -0.2526672 -0.12882945
-0.27137247 -0.21598676 -0.1554938 -0.24675135 -0.29850262 -0.32385415 -0.21866344 -0.2057236
-0.34826162 -0.23007074 -0.22149 -0.3591662 -0.11441745 -0.078966066 -0.27927646 -0.09679903
-0.15062866 -0.038120512 -0.2945074 -0.3884751 -0.24214987 -0.018664762 -0.19190332 -0.21125968
-0.37454885 -0.21766727 -0.2888122 -0.18097661 -0.17984283 -0.18419568 -0.16703007 -0.098104104
-0.21372932 -0.28913522 -0.25861397 -0.36020917 -0.14054427 -0.4105759 -0.23791379 -0.12804985
-0.31883052 -0.26242062 -0.20073323 -0.39214075 -0.1687224 -0.25605524 -0.076098375 -0.090041235
-0.3349933 -0.38912523 -0.1314839 -0.11961807 -0.08090109 -0.13587895 -0.22793962 0.002635127
-0.19477896 -0.29715005 -0.20205066 -0.08963173 -0.34150866 -0.2000074 -0.22091721 -0.27106604
-0.037865836 -0.22242185 -0.29011023 -0.24070969 -0.25675127 -0.24358477 -0.38720572 -0.10362744
-0.12763143 -0.043378234 -0.112232015 -0.24890481 -0.1709598 -0.060503963 -0.18883522 -0.32174218
-0.224908 -0.18628594 -0.38397405 -0.11069278 -0.2656992 -0.05404889 -0.24963406 -0.33109644

encoder.linear_.bias f4 [64]
00000000: 12b5 f9be 49cd ecbe ca59 f0be 154b 02bf
00000010: ab13 f3be 87a4 f1be 84cd f4be 4b45 01bf
00000020: 9465 06bf eec5 f5be f285 06bf 32bf f0be
00000030: b36a 01bf f084 ebbe cee6 f8be 122f 00bf
00000040: 6938 edbe edc9 f3be a08a f9be 4eda f4be
00000050: 1a4e e6be 5bba 01bf d4c1 00bf 063c edbe
00000060: cc6d 03bf 7358 f8be b5a1 f5be 821a efbe
00000070: f185 fdbe c062 fbbe 26a7 fcbe 1f09 fcbe
00000080: 3956 01bf 127e fabe 6c8b fabe 9bcc 00bf
00000090: da03 edbe 139b f0be dd44 f0be 2ad4 02bf
000000a0: 0050 efbe 36c7 eebe 517a ebbe e9cb eebe
000000b0: eb2b 00bf 7fc0 00bf 1ade ebbe 2c76 f9be
000000c0: 757c fabe e7ab 04bf 21c6 efbe d9b9 fcbe
000000d0: 9d00 02bf 3ab3 edbe 9c07 01bf f138 f2be
000000e0: 550a febe 50c9 fbbe 4704 f7be a682 febe
000000f0: 31c9 01bf 8f51 fdbe 24f3 f9be c9bc f1be
-0.48770958 -0.4625037 -0.46943504 -0.50895816 -0.47475943 -0.47195837 -0.47813046 -0.5049636
-0.52498746 -0.4800257 -0.52548134 -0.4702087 -0.50553435 -0.4599986 -0.4861359 -0.50071824
-0.463321 -0.47614995 -0.48738575 -0.47822803 -0.44981462 -0.5067498 -0.5029576 -0.46334857
-0.5133941 -0.4850498 -0.47974935 -0.4669991 -0.49516252 -0.49098778 -0.49346274 -0.4922571
-0.5052219 -0.4892431 -0.48934495 -0.50312203 -0.46292 -0.46993312 -0.4692754 -0.51104987
-0.46740723 -0.4663636 -0.45991758 -0.46639946 -0.50067014 -0.50293726 -0.46067888 -0.4872297
-0.48923078 -0.518248 -0.46830848 -0.4936054 -0.50782186 -0.46425802 -0.50402236 -0.47309068
-0.49617258 -0.49177027 -0.4824545 -0.49709052 -0.5069762 -0.49476287 -0.48818314 -0.47214344
