VGDAE_tnnls/feat_hecheng/VGAE/syn_GAE.pth (torch, 828567 bytes, 6 tensors)

encoder.conv1.bias f4 [80]
0.19455431 0.19755232 0.19144063 -0.061959766 0.19134016 0.19738692 -0.059581965 -0.060039327
0.19013545 0.1943426 0.19017023 0.19757217 -0.061890073 0.19212197 -0.059656218 0.18971631
0.122738115 -0.06009583 0.19590697 0.186936 -0.06031926 0.19501422 -0.059501305 0.19559869
-0.059705257 0.1954647 -0.060472794 -0.06047157 -0.11446573 0.17772722 -0.10828274 -0.059638582
0.1749567 -0.06212047 0.20193234 -0.059778247 0.16943215 -0.05989604 0.19510227 0.19782938
-0.06002545 0.19638458 0.19584236 -0.059640203 -0.059995394 -0.05979573 0.1899651 -0.058116227
0.19252452 0.19364253 -0.060185216 0.19933254 -0.059738804 -0.060591474 -0.06132697 0.19441564
-0.061815847 0.19634831 0.11933661 -0.059694916 0.19668017 0.19686185 -0.06684085 0.19301379
0.17711227 -0.059749544 0.19106789 -0.060172357 -0.059938118 0.20110138 0.19482936 0.19533385
-0.059792556 0.19607553 -0.06011082 -0.06076028 0.1973127 0.18963666 -0.06008275 0.19644299
00000000: 3f39 473e 284b 4a3e 0309 443e 86c9 7dbd
00000010: adee 433e cc1f 4a3e 380c 74bd cceb 75bd
00000020: deb2 423e bf01 473e fcbb 423e 5c50 4a3e
00000030: 7280 7dbd 9fbb 443e 145a 74bd fe44 423e
00000040: 1f5e fb3d 0c27 76bd d69b 483e 276c 3f3e
00000050: 5411 77bd cfb1 473e a4b7 73bd 064b 483e
00000060: 808d 74bd e627 483e 52b2 77bd 09b1 77bd
00000070: 026d eabd 20fe 353e 57c3 ddbd 9647 74bd
00000080: d927 333e 0972 7ebd 5ac7 4e3e 09da 74bd
00000090: 9f7f 2d3e 8d55 75bd e4c8 473e c993 4a3e
000000a0: 3fdd 75bd 0a19 493e e68a 483e 4949 74bd
000000b0: bbbd 75bd 5eec 74bd 3686 423e 480b 6ebd
000000c0: 2625 453e 3a4a 463e c684 76bd d41d 4c3e
000000d0: adb0 74bd c42e 78bd fd31 7bbd e514 473e
000000e0: 9d32 7dbd 880f 493e c166 f43d a882 74bd
000000f0: 8766 493e 2796 493e dbe3 88bd 68a5 453e
00000100: eb5c 353e f0bb 74bd 4da7 433e 4a77 76bd
00000110: ac81 75bd 85ed 4d3e 5981 473e 9905 483e
00000120: 0ae9 74bd 06c8 483e c336 76bd c5df 78bd
00000130: 570c 4a3e 1d30 423e 5419 76bd 5a28 493e

encoder.conv1.lin.weight f4 [80, 2500]
0.12219869 0.10842702 0.11462721 0.18912071 0.12881589 0.09451852 0.07064299 0.0501492
0.18237677 0.11376879 0.08972976 0.16876595 0.11602727 0.15146957 0.091141574 0.15033267
0.14897025 0.16733912 0.14546788 0.025020942 0.12573822 0.09161867 0.048222285 0.19257297
0.11788997 0.041843012 0.1681707 0.13645971 0.09172498 0.16781919 0.079011016 0.087296344
0.02690233 0.14874701 0.12161884 0.18471761 0.040967274 0.15609564 0.17545901 0.18565506
0.17644127 0.013679648 0.13012184 0.11737879 0.09221518 0.012011423 0.14437184 0.15731664
0.13549463 0.18504144 0.0776281 0.1350908 0.17521179 0.114888854 0.053457793 0.07081184
0.09588113 0.17223418 0.11981289 0.15351339 0.18661635 0.09788312 0.09406623 0.14487788
0.100015216 0.09136361 0.16980724 0.089829065 0.065959245 0.19889894 0.13817155 0.10757635
0.10833261 0.11356119 0.13551624 0.1190322 0.09955014 0.18147643 0.104531854 0.13957377
0.1259512 0.13298549 0.034520123 0.12085627 0.12969555 0.08084954 0.15645438 0.13312903
0.06701784 0.13249128 0.08068753 0.10428912 0.16988482 0.14135937 0.046122823 0.044401802
0.12577716 0.0797621 0.06398851 0.09169885 0.10343621 0.1580899 0.14282337 0.021920983
0.121377565 0.010102632 0.16761407 0.13857873 0.049758334 0.108493485 0.12334375 0.14681445
0.12565528 0.12811282 0.016391082 0.12712017 0.13341428 0.09896473 0.14584826 0.15862137
0.12568972 0.11172447 0.08256046 0.11811114 0.17950037 0.103993565 0.042893548 0.17238773
0.17279522 0.117552795 0.1582084 0.110818155 0.14622654 0.16283628 0.10143072 0.17713086
0.16287716 0.19810747 0.16788638 0.026960045 0.16971442 0.0848643 0.14856322 0.15499358
0.100749314 0.13873258 0.055427264 0.14446767 0.18115655 0.15393119 0.14838499 0.112770975
0.094850965 0.17557465 0.10355316 0.09165315 0.15998869 0.10590996 0.1365532 0.06789135
0.1660307 0.17015971 0.15745458 0.15377404 0.17531936 0.08751794 0.09383783 0.16144064
0.09257498 0.13539778 0.13291451 0.16063118 0.15935455 0.06885835 0.11775261 0.15918913
0.011903971 0.13921644 0.16385274 0.13328592 0.093420535 0.10013134 0.115189284 0.14391941
0.16555609 0.10741526 0.12489626 0.07846157 0.110307075 0.13062447 0.08489032 0.18684565
0.09344639 0.11284818 0.16134983 0.15664533 0.1067627 0.0705111 0.14338589 0.11358108
0.107522964 0.09929478 0.10185366 -0.015615511 0.11120918 0.096644156 0.077324785 0.08997752
0.1556074 0.17328519 0.16634081 0.04597003 0.10277437 0.08370817 0.17977887 0.102635354
0.10396334 0.1704454 0.1534587 0.12852255 0.13821986 0.030605564 0.14601767 0.16469885
0.1431422 0.100376 0.11217979 0.17942214 0.075511195 0.07692275 0.188682 0.021369278
0.09283933 0.17301512 0.15122883 0.058640484 0.16739662 0.15397497 0.094122306 0.154537
0.15090014 0.1745417 0.15762292 0.15214756 0.1614544 0.12108417 0.10777574 0.1590879
0.10785024 0.07767527 0.115852304 0.09949568 0.1277143 0.087433256 0.10385836 0.0719356
00000000: 4f43 fa3d fc0e de3d acc1 ea3d dca8 413e
00000010: 50e8 033e ed92 c13d 46ad 903d 3f69 4d3d
00000020: fac0 3a3e 9dff e83d 3dc4 b73d fbd0 2c3e
00000030: b59f ed3d d71a 1b3e 6fa8 ba3d cff0 193e
00000040: a88b 183e f25a 2b3e 88f5 143e b8f8 cc3c
00000050: 85c1 003e 92a2 bb3d bb84 453d d931 453e
00000060: 4c70 f13d 9463 2b3d f134 2c3e 18bc 0b3e
00000070: 4eda bb3d cbd8 2b3e 87d0 a13d 6dc8 b23d
00000080: 4662 dc3c 2351 183e 4c13 f93d 9d26 3d3e
00000090: 4dcd 273d 89d7 1f3e 87ab 333e 5c1c 3e3e
000000a0: 05ad 343e 9a20 603c a93e 053e 4b64 f03d
000000b0: 50db bc3d 8fcb 443c 36d6 133e 9d17 213e
000000c0: 1bbf 0a3e 817b 3d3e 7bfb 9e3d 3e55 0a3e
000000d0: b86a 333e d94a eb3d 8ff6 5a3d cc05 913d
000000e0: 535d c43d 285e 303e 7660 f53d 9d32 1d3e
000000f0: 5b18 3f3e f276 c83d cca5 c03d de5a 143e
00000100: c7d4 cc3d d81c bb3d f3e1 2d3e 4df8 b73d
00000110: a415 873d 2aac 4b3e d87c 0d3e fd50 dc3d
00000120: 7ddd dd3d c592 e83d c5c4 0a3e 27c7 f33d
00000130: f2e0 cb3d f5d4 393e cc14 d63d 6dec 0e3e
00000140: 5af9 003e 592d 083e f964 0d3d 7e83 f73d
00000150: e9ce 043e 7294 a53d 9435 203e fa52 083e
00000160: a640 893d cbab 073e 813f a53d 8995 d53d
00000170: 49f6 2d3e 83c0 103e 49eb 3c3d aade 353d
00000180: bacb 003e 505a a33d 680c 833d 9bcc bb3d
00000190: 5dd6 d33d 52e2 213e 4a40 123e a293 b33c
000001a0: cd94 f83d 8385 253c 06a3 2b3e 95e7 0d3e
000001b0: 65cf 4b3d d531 de3d a69b fc3d 8756 163e
000001c0: c7ab 003e 0230 033e 9746 863c ca2b 023e
000001d0: c19d 083e 05ae ca3d 3f59 153e a46d 223e
000001e0: ceb4 003e cdcf e43d 7515 a93d 41e4 f13d
000001f0: f2ce 373e 94fa d43d 25b1 2f3d 6986 303e
00000200: 3bf1 303e 85bf f03d 6201 223e a1f4 e23d
00000210: 69bc 153e 8ebe 263e e9ba cf3d cb61 353e
00000220: 45c9 263e afdc 4a3e 68ea 2b3e 50db dc3c
00000230: 9ec9 2d3e 56cd ad3d f520 183e a3b6 1e3e
00000240: a855 ce3d ea0f 0e3e b307 633d 55ef 133e
00000250: 1a81 393e 23a0 1d3e 3cf2 173e 78f4 e63d
00000260: 3941 c23d d7c9 333e ae13 d43d a6b4 bb3d
00000270: 13d4 233e 52e7 d83d 9ad4 0b3e 9f0a 8b3d
00000280: f403 2a3e 593e 2e3e c63b 213e f176 1d3e
00000290: eb86 333e 9b3c b33d 0c2e c03d b250 253e
000002a0: f397 bd3d b7a5 0a3e be1a 083e 807c 243e
000002b0: d72d 233e 9b05 8d3d 4828 f13d 7a02 233e
000002c0: e008 433c c18e 0e3e 03c9 273e 1b7c 083e
000002d0: 4453 bf3d a911 cd3d 5ce8 eb3d 9c5f 133e
000002e0: 8987 293e 88fc db3d 9cc9 ff3d 76b0 a03d
000002f0: ade8 e13d 6cc2 053e fada ad3d 7754 3f3e
00000300: d260 bf3d f21c e73d e438 253e a267 203e
00000310: 67a6 da3d 2068 903d c0d3 123e 339d e83d
00000320: 0035 dc3d 105b cb3d a798 d03d 33d8 7fbc
00000330: a3c1 e33d 5fed c53d 755c 9e3d 2246 b83d
00000340: 8c57 1f3e ac71 313e 3f55 2a3e 124b 3c3d
00000350: 5e7b d23d 306f ab3d f417 383e 7c32 d23d
00000360: bbea d43d 3d89 2e3e 4724 1d3e 6a9b 033e
00000370: 8289 0d3e 85b8 fa3c a885 153e d1a6 283e
00000380: de93 123e ef91 cd3d 85be e53d 70ba 373e
00000390: 9da5 9a3d ad89 9d3d db35 413e a00e af3c
000003a0: 8c22 be3d e02a 313e bbdb 1a3e 0131 703d
000003b0: 056a 2b3e 9dab 1d3e 32c3 c03d f33e 1e3e
000003c0: 9185 1a3e 0fbb 323e e767 213e 92cc 1b3e
000003d0: 4d54 253e fafa f73d 87b9 dc3d f0e7 223e
000003e0: 96e0 dc3d 3614 9f3d f943 ed3d 64c4 cb3d
000003f0: 8ac7 023e 3510 b33d b1b3 d43d f952 933d

encoder.conv_mu.bias f4 [40]
-0.03536506 0.02703245 -0.0027343524 -0.023380239 0.029030826 -0.014683428 0.007349248 0.046259753
0.013887236 0.02664764 0.010529907 -0.008280978 -0.043616243 -0.034596954 0.020972542 -0.029440932
-0.0949673 -0.03274373 0.05330703 0.0073223095 -0.019631533 -0.02514223 0.063551426 0.058153197
0.0777544 0.049128667 -0.035147134 -0.013059247 -0.02081876 -0.0013505381 0.05489274 0.051427737
-0.008461885 -0.05006534 -0.045611467 0.013717607 0.0031502321 -0.008755098 -0.0261529 0.0307112
00000000: f4da 10bd 2873 dd3c d232 33bb ea87 bfbc
00000010: 0ed2 ed3c c392 70bc f6d1 f03b de7a 3d3d
00000020: 4a87 633c 274c da3c a285 2c3c f0ac 07bc
00000030: f2a6 32bd 89b5 0dbd 9cce ab3c 1c2e f1bc
00000040: 377e c2bd 4a1e 06bd 7958 5a3d fcef ef3b
00000050: 4fd2 a0bc 14f7 cdbc 4027 823d 0c32 6e3d
00000060: b33d 9f3d 243b 493d 71f6 0fbd 74f6 55bc
00000070: 1b8c aabc 8a04 b1ba 36d7 603d e4a5 523d
00000080: b8a3 0abc 5011 4dbd 17d3 3abd d0bf 603c
00000090: 2074 4e3b 8b71 0fbc 9b3e d6bc 0e96 fb3c

encoder.conv_mu.lin.weight f4 [40, 80]
0.1454525 0.13705954 -0.14168288 0.20360766 0.08159663 -0.05708929 -0.12999943 0.1826281
-0.04931689 -0.007416309 -0.24315092 0.052705765 0.0063011986 -0.034232743 0.09396144 0.039151914
0.3517681 -0.14822496 0.09995383 0.113543734 -0.08342858 0.04120573 -0.23780507 0.039639387
-0.00023676452 -0.1583196 0.14715664 0.15968363 -0.14975834 -0.23300794 -0.23571703 0.12456873
-0.32141855 0.00465079 0.02143834 -0.018888619 -0.32486695 -0.2708203 0.06684349 0.11121118
-0.14029256 -0.22151527 0.057038307 -0.19562227 -0.071032 0.018817442 -0.087416835 -0.19755898
0.07319223 0.0992075 0.16592002 -0.16265742 0.027758569 0.022257674 -0.16712536 -0.05425461
-0.19632013 0.011412657 0.23887715 0.06680167 0.15437953 0.10642004 -0.16344707 -0.08188705
0.34363705 -0.198516 0.04130881 0.10114866 -0.07249402 0.25506777 0.14491968 -0.12325661
-0.104930215 -0.021393972 -0.17466491 0.047622167 -0.03129705 -0.22419661 -0.010328467 0.07956037
0.089637585 0.16500464 0.07255055 -0.04579005 -0.23268872 -0.16565858 -0.12788224 -0.048018243
0.16347577 -0.08696578 0.15595159 0.17275497 0.08105557 -0.07178111 -0.017331913 -0.03666136
-0.26378343 -0.019243661 0.19482665 -0.23963878 0.20665763 0.09559499 0.027702553 -0.15158401
-0.12817536 0.04523449 0.08913914 0.24453248 -0.016492229 0.2968694 0.0066328407 -0.012861242
0.30839938 0.12419291 -0.05359345 0.20067096 0.1491531 0.23128963 -0.172547 0.12920186
0.2713186 -0.06903113 0.16013174 0.23110588 -0.030024715 0.055864967 0.011367008 0.07721966
-0.13137966 -0.17423055 0.026295707 -0.1534178 -0.08875647 0.05494679 -0.060895387 0.13899425
0.17019473 -0.12561582 -0.012314305 0.031556457 0.09867123 -0.048179694 0.1511591 0.17851794
-0.12951207 0.18876925 0.052513503 0.095653534 0.17691883 0.076143704 0.014986824 0.097508185
-0.027579425 -0.21669245 0.21344264 -0.10536431 -0.038419604 -0.16542804 -0.13035856 -0.13393469
0.23156787 -0.057940498 0.21188927 0.10344335 0.011861022 -0.19993249 0.07104913 0.027652787
0.0003787997 -0.018397331 0.034636598 0.048401095 -0.14979379 -0.17984375 0.19466281 0.20116527
0.09458911 -0.046335984 0.18212397 -0.14067288 -0.096976645 -0.009197747 0.053915627 -0.1568595
0.04409537 -0.14269435 -0.0342101 -0.17419897 0.2875804 -0.26977998 0.17800015 -0.07167093
-0.39969704 -0.2360226 0.10922517 -0.03476428 0.14751996 -0.20518363 0.08044663 -0.054560024
-0.0046455744 0.18298729 0.10110832 0.01382599 0.1077839 -0.03772385 0.07958028 -0.08660737
-0.023297926 -0.07383854 0.021787114 -0.119247094 -0.12747894 -0.08356521 -0.16499656 0.16068868
-0.017412758 0.07723209 0.2464755 -0.07889664 0.21838275 0.034946147 0.267913 -0.1578661
-0.28041527 0.14931752 0.10810006 -0.18432362 -0.19316147 -0.26290646 -0.20899506 0.24894676
0.08711419 0.031930458 0.12629192 -0.089293376 -0.15801372 -0.02167938 0.18590675 -0.119640596
-0.08301355 0.16351852 -0.0047385516 -0.0702634 0.04219741 -0.19172917 -0.1882743 -0.30147028
0.12282003 -0.052128684 0.102239564 -0.11569578 0.12966731 0.0759707 0.27109364 0.17793883
00000000: 80f1 143e 5659 0c3e 5115 11be 877e 503e
00000010: 221c a73d 76d6 69bd 921e 05be dc02 3b3e
00000020: 8200 4abd 8204 f3bb 8efc 78be 00e2 573d
00000030: 497a ce3b a237 0cbd db6e c03d c25d 203d
00000040: f31a b43e 49c8 17be 98b4 cc3d 9e89 e83d
00000050: 9adc aabd 57c7 283d 2c83 73be e95c 223d
00000060: fe43 78b9 891e 22be 3bb0 163e 1b84 233e
00000070: 405a 19be a299 6ebe ce5f 71be e41d ff3d
00000080: f990 a4be a765 983b 759f af3c 4ebc 9abc
00000090: f654 a6be f5a8 8abe 3de5 883d b0c2 e33d
000000a0: daa8 0fbe e6d4 62be 00a1 693d 3451 48be
000000b0: 3a79 91bd 0927 9a3c 9907 b3bd e74c 4abe
000000c0: cfe5 953d 4d2d cb3d f0e6 293e ab8f 26be
000000d0: f065 e33c ba55 b63c e922 2bbe 153a 5ebd
000000e0: 2508 49be 27fc 3a3c 369c 743e 50cf 883d
000000f0: ab15 1e3e c0f2 d93d ab5e 27be 66b4 a7bd
00000100: 32f1 af3e c747 4bbe 6d33 293d 0727 cf3d
00000110: bf77 94bd 3e98 823e d365 143e f66d fcbd
00000120: a7e5 d6bd 6942 afbc 5cdb 32be 760f 433d
00000130: 5631 00bd cc93 65be bb38 29bc 8cf0 a23d
00000140: e993 b73d faf6 283e 6295 943d 598e 3bbd
00000150: f445 6ebe 67a2 29be 90f3 02be c7ae 44bd
00000160: 3166 273e 1d1b b2bd c6b1 1f3e aee6 303e
00000170: 7600 a63d f901 93bd a8fb 8dbc 392a 16bd
00000180: 9f0e 87be e2a4 9dbc a380 473e de63 75be
00000190: 0f9e 533e 4ec7 c33d 77f0 e23c d738 1bbe
000001a0: 6740 03be cd47 393d 958e b63d b966 7a3e
000001b0: b61a 87bc 44ff 973e 4d58 d93b f5b7 52bc
000001c0: 86e6 9d3e da58 fe3d ce84 5bbd b07c 4d3e
000001d0: 97bb 183e 30d7 6c3e 29b0 30be 7e4d 043e
000001e0: 46ea 8a3e 3160 8dbd 93f9 233e 05a7 6c3e
000001f0: 64f6 f5bc aad2 643d b03c 3a3c 5725 9e3d
00000200: 6488 06be 7e69 32be 186a d73c 8e19 1dbe
00000210: f4c5 b5bd e30f 613d 716d 79bd 8254 0e3e
00000220: 8747 2e3e 6fa1 00be f0c1 49bc 5841 013d
00000230: 2414 ca3d 1258 45bd 73c9 1a3e 68cd 363e
00000240: d09e 04be ba4c 413e 6618 573d 00e6 c33d
00000250: 362a 353e 3bf1 9b3d 4c8b 753c 5fb2 c73d
00000260: 3fee e1bc a0e4 5dbe b590 5a3e 3ec9 d7bd
00000270: e05d 1dbd f865 29be b77c 05be 2d26 09be
00000280: 2120 6d3e 0453 6dbd 80f9 583e 1bda d33d
00000290: bb54 423c 1abb 4cbe 3582 913d 1988 e23c
000002a0: a399 c639 00b6 96bc 1bdf 0d3d 3a40 463d
000002b0: 8b63 19be f628 38be b055 473e 45fe 4d3e
000002c0: efb7 c13d cdca 3dbd b57e 3a3e 8d0c 10be
000002d0: b19b c6bd 26b2 16bc a2d6 5c3d c79f 20be
000002e0: 599d 343d 781e 12be e41f 0cbd 3761 32be
000002f0: bd3d 933e 9a20 8abe ac45 363e 35c8 92bd
00000300: 17a5 ccbe e9af 71be 72b1 df3d fd64 0ebd
00000310: 790f 173e a81b 52be 34c1 a43d 557a 5fbd
00000320: e739 98bb 0561 3b3e e111 cf3d 6886 623c
00000330: cebd dc3d 5384 1abd fcfa a23d 345f b1bd
00000340: 4bdb bebc a938 97bd e47a b23c d237 f4bd
00000350: d789 02be 3d24 abbd dcf4 28be 938b 243e
00000360: 33a5 8ebc dc2b 9e3d 1364 7c3e 9094 a1bd
00000370: ba9f 5f3e b123 0f3d e52b 893e a7a7 21be
00000380: 9792 8fbe b1e6 183e 9063 dd3d 55bf 3cbe
00000390: 1fcc 45be ad9b 86be cd02 56be e6eb 7e3e
000003a0: ed68 b23d 83c9 023d ab52 013e 72df b6bd
000003b0: 59ce 21be f598 b1bc 575e 3e3e 2106 f5bd
000003c0: 0203 aabd 6671 273e da45 9bbb 42e6 8fbd
000003d0: 31d7 2c3d a754 44be faca 40be 505a 9abe
000003e0: 1189 fb3d e384 55bd fa62 d13d e9f1 ecbd
000003f0: 82c7 043e 8796 9b3d c9cc 8a3e 9935 363e

encoder.conv_logstd.bias f4 [40]
-0.17924155 -0.17067838 -0.16171317 -0.17511502 -0.17433989 -0.17752658 -0.20833237 -0.1702122
-0.16783547 -0.17184526 -0.16680151 -0.17741893 -0.17490256 -0.16260476 -0.16747223 -0.1823661
-0.15321684 -0.17300434 -0.1775602 -0.16042194 -0.18003379 -0.14912139 -0.16795011 -0.16793793
-0.14865436 -0.16967961 -0.16372111 -0.1681052 -0.15396804 -0.15709905 -0.17149791 -0.15892318
-0.18550745 -0.16786075 -0.1826821 -0.1799729 -0.18911636 -0.16489588 -0.15336397 -0.18042791
00000000: 198b 37be 50c6 2ebe 2398 25be 5a51 33be
00000010: 2886 32be 87c9 35be 1555 55be 1b4c 2ebe
00000020: 10dd 2bbe 34f8 2fbe 04ce 2abe 4fad 35be
00000030: a819 33be dd81 26be d77d 2bbe 2ebe 3abe
00000040: e0e4 1cbe 0d28 31be 57d2 35be a645 24be
00000050: c75a 38be 47b3 18be 1dfb 2bbe ecf7 2bbe
00000060: d938 18be 7ec0 2dbe 82a6 27be c523 2cbe
00000070: cca9 1dbe 93de 20be 269d 2fbe c2bc 22be
00000080: aaf5 3dbe b0e3 2bbe 0411 3bbe d14a 38be
00000090: b8a7 41be 77da 28be 720b 1dbe 18c2 38be

encoder.conv_logstd.lin.weight f4 [40, 80]
-0.28164676 -0.39618444 -0.046000283 -0.23782626 -0.13168389 -0.25645283 -0.2497559 -0.07383634
-0.3914386 -0.41137034 -0.25680557 -0.37317055 0.0039719567 -0.14923136 0.13755994 -0.11792597
-0.060560454 -0.19310075 -0.1165022 -0.22871107 0.097306445 -0.2746742 0.10996183 -0.2880599
-0.19095014 -0.33762985 -0.049560964 0.023321927 0.13913515 -0.38073513 0.14950079 0.14950958
-0.20417348 -0.1630015 -0.20654276 0.1226091 -0.02014087 0.14624737 -0.36251727 -0.38835424
0.048091374 -0.28483903 0.0024713853 -0.2609252 0.13246225 0.13570619 -0.0064732987 -0.0058653215
0.018959088 -0.05145043 -0.18865494 -0.38434303 -0.052229393 -0.08628781 0.050429266 -0.014105307
-0.1290884 -0.073999256 -0.159522 -0.16181299 -0.13265078 -0.39915177 -0.10126083 -0.014170123
-0.25414753 -0.023493208 -0.16652746 0.029501015 -0.19342627 -0.11659808 -0.1322477 -0.18781802
-0.0038069468 0.02164089 0.060012717 -0.07030565 -0.18655798 -0.25600836 -0.12596484 -0.2847834
-0.40609348 -0.09838363 -0.28183287 0.08547214 -0.20353872 -0.31111544 0.1546406 -0.22671483
-0.18593559 -0.38313687 -0.18428834 -0.17471632 -0.20159754 -0.13369389 -0.041680068 -0.35651544
-0.34305376 -0.0046391 -0.20023784 -0.36588657 -0.18883885 -0.2555392 0.04910349 -0.39632124
-0.053870752 -0.23541081 0.12744085 -0.05703432 -0.04899442 -0.063485235 -0.07475329 0.12889338
-0.12715293 -0.07607521 -0.25228846 -0.1315559 -0.068344735 0.10111381 -0.08740289 -0.29998237
0.071642146 -0.23111731 -0.27878428 0.16266768 -0.03558154 -0.16544318 -0.31319377 -0.052930556
-0.11040023 -0.06611864 -0.02697303 -0.004849856 0.040734172 0.0096457405 -0.21589538 -0.21985073
0.15251029 -0.17918986 -0.116316795 -0.24980502 -0.0070987875 0.0071761855 0.07730072 -0.0455411
-0.19487473 -0.12050238 -0.14499374 0.08055491 0.07107637 -0.036435217 -0.250839 -0.29069766
-0.11029808 -0.034258258 -0.1136944 -0.043329455 -0.36626795 -0.38203603 -0.11514542 -0.14138177
-0.2136085 -0.35139504 -0.016577613 0.13591316 -0.39710554 -0.40144792 0.026084764 0.10587692
-0.06911851 -0.05179289 -0.19981723 -0.23669533 -0.14890556 -0.06639155 0.052287836 -0.34101096
0.061953425 0.12582216 -0.013056375 -0.2544996 0.03447203 -0.3940633 -0.2504059 -0.10709538
-0.20171806 -0.25036636 0.068653636 0.06738792 -0.016220411 -0.13081302 0.15891397 0.13719986
-0.40692687 0.016806075 -0.2991698 -0.025795678 -0.2999894 -0.2441704 0.03573776 -0.09010915
0.054242697 -0.033639994 -0.33102065 0.1097597 -0.11697079 0.11879915 -0.27825198 0.110814534
-0.20693478 -0.29354665 -0.15532704 -0.32445797 -0.24068624 -0.18782195 -0.0016690693 -0.2480507
-0.27447787 -0.12144272 0.0831531 -0.033231292 -0.12245481 -0.16507018 0.14600061 -0.37820485
-0.368035 -0.094984636 -0.25066674 -0.043641884 -0.18762167 -0.24335605 -0.31659096 -0.2821622
0.022013228 -0.18019852 -0.20396456 0.06455065 -0.19523856 -0.36334246 -0.04836616 -0.021717578
-0.15817092 -0.11703482 -0.2672734 -0.22872704 -0.08807221 -0.07399309 -0.26754728 -0.08363391
-0.055641767 -0.20693702 -0.30192825 -0.41656464 0.13102736 -0.33935183 -0.061214797 -0.22327965
00000000: 0134 90be b0d8 cabe cb6a 3cbd ba88 73be
00000010: 24d8 06be c94d 83be 03c0 7fbe 8237 97bd
00000020: a46a c8be 229f d2be 057c 83be 3610 bfbe
00000030: 3027 823b 1bd0 18be 83dc 0c3e 2c83 f1bd
00000040: 3d0e 78bd 34bc 45be b598 eebd 3c33 6abe
00000050: 9a48 c73d 19a2 8cbe ab33 e13d 967c 93be
00000060: 6f88 43be d2dd acbe 7000 4bbd a00d bf3c
00000070: 7279 0e3e b7ef c2be bc16 193e 0a19 193e
00000080: da12 51be dde9 26be f27f 53be 7b1a fb3d
00000090: 77fe a4bc dfc1 153e dd9b b9be 5ed6 c6be
000000a0: 76fb 443d 6cd6 91be f7f6 213b fd97 85be
000000b0: 2fa4 073e 90f6 0a3e f71d d4bb e231 c0bb
000000c0: 1750 9b3c b0bd 52bd c32e 41be 9cc8 c4be
000000d0: 7dee 55bd aab7 b0bd eb8e 4e3d f219 67bc
000000e0: c02f 04be ec8c 97bd bc59 23be 4eb2 25be
000000f0: 9bd5 07be 9f5d ccbe d761 cfbd ce29 68bc
00000100: a01f 82be d474 c0bc 2d86 2abe 1dac f13c
00000110: 8911 46be f9ca eebd f16b 07be 5e53 40be
00000120: f87d 79bb 3c48 b13c e5cf 753d 69fc 8fbd
00000130: 0e09 3fbe 8713 83be edfc 00be 21cf 91be
00000140: 7ceb cfbe 5b7d c9bd 664c 90be 040c af3d
00000150: 746c 50be 864a 9fbe 1b5a 1e3e ef27 68be
00000160: e665 3ebe 842a c4be 15b6 3cbe d6e8 32be
00000170: 966f 4ebe 0de7 08be b8b8 2abd 3189 b6be
00000180: bea4 afbe 9703 98bb 260b 4dbe 7c55 bbbe
00000190: f95e 41be 09d6 82be be20 493d 9eea cabe
000001a0: 94a7 5cbd 880f 71be db7f 023e d29c 69bd
000001b0: 5fae 48bd 8c04 82bd 4118 99bd a0fc 033e
000001c0: 6134 02be 52cd 9bbd f42b 81be 97b6 06be
000001d0: 53f8 8bbd c214 cf3d 4900 b3bd 4a97 99be
000001e0: 1eb9 923d 04aa 6cbe d0bc 8ebe 5b92 263e
000001f0: f3bd 11bd f069 29be ef5a a0be b6cd 58bd
00000200: 8419 e2bd 3669 87bd 8bf6 dcbc 8aeb 9ebb
00000210: e0d8 263d 2b09 1e3c ae13 5dbe 8d20 61be
00000220: a82b 1c3e 8c7d 37be 8037 eebd e3cc 7fbe
00000230: f29c e8bb 3526 eb3b d74f 9e3d 4e89 3abd
00000240: 3e8d 47be f4c9 f6bd 3d79 14be f9f9 a43d
00000250: 7d90 913d 183d 15bd f86d 80be 53d6 94be
00000260: f6e3 e1bd 6352 0cbd 9cd8 e8bd 3a7a 31bd
00000270: 7987 bbbe 3a9a c3be 5dd1 ebbd 62c6 10be
00000280: 30bc 5abe 0dea b3be c6cd 87bc d22c 0b3e
00000290: 6b51 cbbe 958a cdbe b7af d53c 00d6 d83d
000002a0: 018e 8dbd c824 54bd e39c 4cbe 4360 72be
000002b0: b37a 18be 4bf8 87bd c52b 563d fd98 aebe
000002c0: e0c2 7d3d 86d7 003e 68ea 55bc c64d 82be
000002d0: 8b32 0d3d aac2 c9be 3435 80be d354 dbbd
000002e0: 2e8f 4ebe 0530 80be 479a 8c3d ae02 8a3d
000002f0: abe0 84bc d9f3 05be 58ba 223e 1f7e 0c3e
00000300: b858 d0be e5ac 893c c92c 99be 7551 d3bc
00000310: 3698 99be ce07 7abe c261 123d 258b b8bd
00000320: 972d 5e3d 17ca 09bd 8a7b a9be b2c9 e03d
00000330: 628e efbd f84c f33d 0b77 8ebe bbf2 e23d
00000340: b6e6 53be bf4b 96be 0d0e 1fbe 5b1f a6be
00000350: 7476 76be 6654 40be acc4 daba 0101 7ebe
00000360: 5d88 8cbe f6b6 f8bd 2c4c aa3d 891d 08bd
00000370: 96c9 fabd 2808 29be 2f81 153e 11a4 c1be
00000380: 156f bcbe 4e87 c2bd 6457 80be d5c1 32bd
00000390: e51f 40be 5432 79be 3618 a2be 9077 90be
000003a0: 1655 b43c f685 38be 16dc 50be 2233 843d
000003b0: 9eec 47be 0608 babe 981b 46bd 10e9 b1bc
000003c0: 8ff7 21be f4af efbd 0fd8 88be 6c37 6abe
000003d0: 345f b4bd b089 97bd f5fb 88be 4148 abbd
000003e0: 9fe8 63bd 4ce7 53be 5796 9abe f647 d5be
000003f0: 092c 063e 86bf adbe 5ebc 7abd 6ca3 64be
