VGDAE_tnnls/feat_hecheng/VGAE/syn_GAE.pth (torch, 828567 bytes, 6 tensors)

encoder.conv1.bias f4 [80]
00000000: dcfe 2b3e 8ae2 2c3e 8b60 253e ee2f 2f3e
00000010: e170 2a3e efa8 77bd 9d72 76bd 7de8 76bd
00000020: 385d 82bd 8d9d 1e3e 4389 77bd 3bb7 76bd
00000030: 710c 253e 15a9 75bd 6e2b 213e 55c0 77bd
00000040: 994d 283e 7eaf 1c3e 25c1 303e 41ed 293e
00000050: 6876 ca3c a563 263e 5ca1 633d f61b 213e
00000060: bdb4 1d3e 069c 283e db4a 77bd 5c15 243e
00000070: 4491 77bd f86c 76bd 3a03 293e 5ecc 2c3e
00000080: 28bc 81bd b634 77bd 99d2 2f3e 21c3 74bd
00000090: 65e4 76bd dfaa 76bd 5b42 283e 2f1d 273e
000000a0: e1cb 77bd 36a2 76bd a404 76bd 17fb 2b3e
000000b0: 03f7 c23c 26cb 243e a553 233e 0ea5 76bd
000000c0: 38fd 2c3e 959d 77bd e97d 263e 2252 273e
000000d0: 1016 223e 8372 253e 025f 283e 215b 313e
000000e0: f281 cb3d 49eb 913d 6343 a4bd 821c 253e
000000f0: 7178 293e 7645 313e 10ff 75bd ff6d 263e
00000100: 37d4 2b3e c141 2d3e 3a6d 2b3e b344 293e
00000110: 1899 76bd a8c6 773d 2ae2 2c3e 6a34 243e
00000120: 41be 223e e4fb 2d3e 6dbf 283e d7b4 203e
00000130: 54b8 263e 9df8 75bd 2406 273e cb03 2a3e
0.1679644 0.16883293 0.1615011 0.17108127 0.16644622 -0.060463842 -0.060167897 -0.06028031
-0.06365436 0.15489788 -0.060433637 -0.060233336 0.16118027 -0.059975702 0.15739223 -0.060486156
0.16435851 0.1530132 0.17261179 0.16594411 0.024714664 0.16248949 0.055573806 0.15733323
0.15400977 0.16465768 -0.060374122 0.16023773 -0.06044127 -0.060162514 0.16505137 0.16874835
-0.06334716 -0.060353003 0.1717018 -0.059756402 -0.060276408 -0.06022155 0.16431563 0.16319726
-0.06049717 -0.06021329 -0.06006302 0.16795002 0.023799425 0.1609312 0.15949877 -0.060216002
0.1689347 -0.060453016 0.16258968 0.16339925 0.15828729 0.16156964 0.16442493 0.17319919
0.099368945 0.07124955 -0.080206655 0.16124156 0.16549851 0.17311653 -0.0600577 0.16252898
0.16780172 0.16919614 0.16740885 0.16530113 -0.060204595 0.060492188 0.1688315 0.1603562
0.15892889 0.1699062 0.16479273 0.15693985 0.16281253 -0.06005155 0.16310936 0.1660301

encoder.conv1.lin.weight f4 [80, 2500]
00000000: bce8 233e e55b 983d 4571 bd3d 2ea9 fc3d
00000010: 9045 113e bad2 d53d ef6c 0e3c 03ea 1b3e
00000020: 0953 d93d 07e3 093e 8b90 683d 7c4a 183e
00000030: ab01 0f3e a415 9d3d 97d5 c03d bcfd 8f3d
00000040: 3df9 053e 3e59 f73d c76c 9a3d 7e2d fc3d
00000050: 8338 8a3d d073 9c3d 7941 a63d 9e6c fa3d
00000060: 180a bd3d a1e1 c33d b3ec 213e fbba da3d
00000070: 11f8 103e fd14 0a3e fdfd c63d 209a bc3d
00000080: 2756 3f3d aeb8 e43d 7037 a63d 1a9b 013e
00000090: 27e9 fd3d 028c c33d d7f4 ef3d f673 9a3d
000000a0: 5a74 e63d e3ac 163e 6565 853d cb27 8c3d
000000b0: 0b5c bb3d 102d 023e 6d33 b03d 354b 1c3e
000000c0: 43cf e13d 9b54 0d3e db2d 8b3d 20e8 0d3e
000000d0: f363 fa3d c7cc 943d 8a6a c43d f217 0e3e
000000e0: 3b26 163e f5f5 733d b122 133e 77c2 083e
000000f0: 05a2 ab3d 1071 573d 179e 043e 3e1f 993d
00000100: 8a49 1d3e 5560 a53d 3922 b43d fca7 4b3d
00000110: 6011 f73d a58b 0b3e c99d ad3d 1f45 da3d
00000120: cb0f be3d 728f d33d 4c7b bb3d d7dc 933d
00000130: 9d5f f23d 0eb0 573d 2ff6 0a3e 558f aa3d
00000140: 2bb1 843d 173e 753d b688 993d 0b5b 113e
00000150: 8c86 163e e023 923d 4c90 e03d 57c8 f03d
00000160: 6173 203e a7a6 f33d 3f16 c13d 6dd2 823d
00000170: 9a8a 833d 992b f93d 9e29 193e 4672 173e
00000180: a4ad de3d 84b4 943d 4edd c03d 4abf c73d
00000190: 981f 933d daf8 9f3d eb24 af3d aff1 933d
000001a0: 53ba 023e 915b 073e 78eb 053e 8205 d43d
000001b0: 8c4c be3d e1b8 f63d 7f94 c03d 14d7 f13d
000001c0: 052d c13d 9363 b53d efc1 713d 8769 8e3d
000001d0: 5237 a43d c700 9b3d fc24 483d d53e be3d
000001e0: 7fd7 703d 86c9 8e3d 5220 8f3d e88b 863d
000001f0: ea72 983d 21e9 983c 248e 0e3e 3e94 ef3d
00000200: edb7 7d3d 35ac d83d c08f 7a3d c76e 863d
00000210: ae21 fd3d 3931 a43d e7c5 bf3d 6d02 943d
00000220: 0f55 003e fdea fc3d 66a0 c43d cdc8 c33d
00000230: 946c d93d 3537 2e3e 7012 b83d 461d 1e3d
00000240: 73e1 213e 4a34 103e fe03 de3d d9ad fb3d
00000250: 3b42 803d 69e8 a23d 498a a33d 5981 bf3d
00000260: 51fb d73d 8970 c53d 24e7 923d 3f9f 1b3e
00000270: e770 a93d 3076 b93d 1c15 e63d df29 a63d
00000280: 6e28 0c3e 3196 c83d 8e52 813d 5a71 d33d
00000290: def9 133e 53a3 ac3d 7f34 803d 0262 973d
000002a0: 543a d73d 1bd3 d23d 3989 9f3d a65f 0e3e
000002b0: ebae 893d 59cb d43d 41fb dc3d c49e d33d
000002c0: 3395 c93d 2809 cd3d 8724 fc3d 0dbc a63d
000002d0: 748a 8a3d 4dea 8e3d c914 8b3d 14bc b03d
000002e0: 68d9 8b3d 21bc d93d 77d7 853d a757 bb3d
000002f0: be3d 033e 4352 c73d 3649 063e 18c9 a63d
00000300: f186 e33d 5549 6b3d fa93 c13d 5514 083e
00000310: e8cc 0e3e ea18 eb3d d46f d63d 34a1 f63d
00000320: 31a6 063e b430 e33d 2835 043e 6c8e ec3d
00000330: 367a 893d c053 b53d a756 083e 2e2a d83d
00000340: 176a 993d f51d ef3d 4ae8 f13d 444c 403d
00000350: 802e 9d3d bcea 033c 950c b93d 4316 f43d
00000360: a08a d03d 33fd b83d e49d bb3d 0d81 e73d
00000370: ab21 b53d de85 be3d 1c7e 073e dc84 dc3d
00000380: 982f e83d 2515 153e e5f4 123e dac6 ef3d
00000390: 2f7c cd3d 4ff6 d43d ceb4 1c3e 3914 493d
000003a0: 6655 9c3d ee15 963d 4036 1a3e 74c4 723d
000003b0: 303f 063e 7b6a ea3d 75c7 1e3e 52b9 e23d
000003c0: 3685 993d a5d0 4b3d a70b a33d 1282 8a3d
000003d0: 4105 403d 37b4 cf3d c4f5 bb3d a15f b73d
000003e0: c5ba 033e c85f 163e 7950 de3d db57 b43d
000003f0: 4b10 173e 23ec 1e3e 4dc3 033e f360 223d
0.1600675 0.074394025 0.0925012 0.12336956 0.14186692 0.104405835 0.008692964 0.15225987
0.10611541 0.1346551 0.056778472 0.14872164 0.1396548 0.07670143 0.09415739 0.07030818
0.13083358 0.120775685 0.07540279 0.123133644 0.0674906 0.07639277 0.08117957 0.12227748
0.09230441 0.0956452 0.1581295 0.10680195 0.1415713 0.13484569 0.09716413 0.092090845
0.04671302 0.11168037 0.081160426 0.12656823 0.12397986 0.09548189 0.11716621 0.07541649
0.11252661 0.14714389 0.0651348 0.068435274 0.09148415 0.12712502 0.08603559 0.15263064
0.1102586 0.13801806 0.067958556 0.1385808 0.12226095 0.07265621 0.09590633 0.13876322
0.14663021 0.059560735 0.14368702 0.13355432 0.08380512 0.05259806 0.12950931 0.07476662
0.15360084 0.080750145 0.0879559 0.04972075 0.12063861 0.13627489 0.08477361 0.10657715
0.09280356 0.103300944 0.091543764 0.07219856 0.11834643 0.052658133 0.13570474 0.0832812
0.064791046 0.059873667 0.07496779 0.14194886 0.14699763 0.07135749 0.109650224 0.11756962
0.15669014 0.11897021 0.09428071 0.06387792 0.064229205 0.12166519 0.14957282 0.14789686
0.10872963 0.07260993 0.094172105 0.09753282 0.071837604 0.078111365 0.085519634 0.07223832
0.1276639 0.13218524 0.13078105 0.10352613 0.09291944 0.120469816 0.094033234 0.11808601
0.09432415 0.08856883 0.05902284 0.069537215 0.08018364 0.07568508 0.048863396 0.09289328
0.058799263 0.06972031 0.069885865 0.06569654 0.07443793 0.018665852 0.1392141 0.11698197
0.061942983 0.10579721 0.061172247 0.06564098 0.123599395 0.08017201 0.09363919 0.07227025
0.12532447 0.12349508 0.09600906 0.09559784 0.10616413 0.17013247 0.08987892 0.038602136
0.15808658 0.14082447 0.10840605 0.12289018 0.062626325 0.07954485 0.0798536 0.09350843
0.10545982 0.09640605 0.07172993 0.15197466 0.082734875 0.090557456 0.11234495 0.08113455
0.13687298 0.09794272 0.06314574 0.103243545 0.14450786 0.08429589 0.06260013 0.073917404
0.10509172 0.102941714 0.07789845 0.13903674 0.06722816 0.10390348 0.107901104 0.103330165
0.098429106 0.10011512 0.123116545 0.081413366 0.06764689 0.06978283 0.06791074 0.08629623
0.06828576 0.10631586 0.06535237 0.09147578 0.12816522 0.09732487 0.13113865 0.08143824
0.111097224 0.05744298 0.094520524 0.13289006 0.13945353 0.11479361 0.10470548 0.12042466
0.13149334 0.11093274 0.12910903 0.11550602 0.06712763 0.08853865 0.13314305 0.1055492
0.07490938 0.11675636 0.11811884 0.046947733 0.07674885 0.0080515705 0.09035603 0.119183086
0.101826906 0.09032669 0.091609746 0.11303911 0.08844312 0.09302877 0.132317 0.107675284
0.11337203 0.14558847 0.14351232 0.1170785 0.10033452 0.10398542 0.15303347 0.04909155
0.07633476 0.073284015 0.15059757 0.059269384 0.13110042 0.11446091 0.15505774 0.11070503
0.07496111 0.049759526 0.07961207 0.0676309 0.04688001 0.10141795 0.091777354 0.08953787
0.12864216 0.14684975 0.10855193 0.088058196 0.14752309 0.15519767 0.1286747 0.03964324

encoder.conv_mu.bias f4 [40]
00000000: c985 28bd c2eb 853d fcbb f4bc 6ed3 a3bc
00000010: cd93 ae3d 6ac1 f63c 1848 b4bc 43e8 c9bb
00000020: bfb2 403b 6890 1abd d644 32bd d9c0 02bd
00000030: cf66 d93d 62dc 39bd fb6d 473c 4365 523d
00000040: 06ce ae3c 255b b5bc b0ac 123d adc8 9b3c
00000050: 942c 4d3c 0358 56bd c0fc c5bc 3526 3ebd
00000060: 13a2 b63b 2d4f 5b3d e767 3f3d e933 d33b
00000070: c6e1 63bd c114 51bd 4021 3d3c cac2 d93c
00000080: 6698 efbc f886 8abc e2ca 12bb 1f66 0fbd
00000090: abc0 233c 5cc4 5ebd 35c6 b8bc f867 093c
-0.041143212 0.06539108 -0.029874794 -0.019998278 0.085242845 0.030121524 -0.022007033 -0.006161721
0.0029403416 -0.037735373 -0.04352268 -0.031922195 0.10615312 -0.04537619 0.0121722175 0.051366102
0.021338474 -0.022138188 0.03580922 0.019016588 0.012522835 -0.05233003 -0.024168372 -0.046423156
0.00557352 0.053542305 0.04672995 0.006445397 -0.055635236 -0.051045183 0.011543572 0.02658214
-0.029247474 -0.016910061 -0.002239876 -0.0350095 0.009994666 -0.05438648 -0.02255545 0.0083866045

encoder.conv_mu.lin.weight f4 [40, 80]
00000000: 7200 2d3e 000e b13d cacd 16be 2673 a23d
00000010: ab2f 3c3e 503f 13be aa48 82bd 987b babc
00000020: b7f1 033e 2986 063e c6ca 1d3b fb02 04be
00000030: 0971 59be f9df f63d 6bdc 3a3e 13e0 e43d
00000040: 1edd ab3c ac58 01be ab99 09bd b06a 8a3c
00000050: f0bf febd 7a9e ae3c fea8 6d3d c935 a6bd
00000060: 989e 3d3e 73e4 e0bd 42d1 8cbd 8ff3 073d
00000070: 1f5f 58be 8a9e 89bd 617a 0ebe c5e1 4a3e
00000080: d080 963d cc70 c83d cd3d 1f3d 5e38 c3bd
00000090: 1384 60be dd55 793d c34b 463e 48bf 75bd
000000a0: 6f08 fabd 0835 213e 62e3 a43d 7e60 44bd
000000b0: 026c 033e c173 fabd bf48 3f3e df0b e8bd
000000c0: ebce 3e3e e194 663e bc88 38be f840 a9bd
000000d0: 0154 42bd 4597 2dbd 3a75 c5bd dfae adbd
000000e0: 5f70 203d 673f 163e cf9c 063d 191a 22be
000000f0: a9e4 03be 154b 123e f88e c03d 1578 cdbc
00000100: 4108 313c 1c29 c63d 8e2a c33d e280 61be
00000110: d154 4fbd afd4 52bd be42 4dbd c365 15be
00000120: 6a3e d73c 710c 95bc 584a 27bd 1c37 f8bb
00000130: d56e b23d 064b 073d 773e 83ba 05d9 ac3c
00000140: 3ad9 d8bb 04c3 6abc 81c3 243e 822d 313e
00000150: aa28 20be eb6c afbc 6efe c6bd 926b a53d
00000160: bb64 0f3d 9ff0 683e 1f77 8ebe f062 4abd
00000170: 1a2a 5c3e 0c3e 79bd d185 123e e4e4 7d3c
00000180: f4f1 263c ba30 653d 6e20 4dbe 07ad 083e
00000190: 95f1 28be 63fd 19be baa7 90be 1453 a73b
000001a0: 614e 023e d115 98bd 6f9e 3a3d 189f e3bd
000001b0: 47b0 c93d 4fec d03d 8d53 863d 7495 97bd
000001c0: 414a 13be 3ccd 99bd 1db2 bdbd 54cf 32bd
000001d0: fad1 c13d e648 00bd 1bbb 07be 4413 1a3e
000001e0: 2fcf ac3d 21d1 6c3e c2e8 ab3d a3fe 06be
000001f0: 98bc 9fbc 59a8 1ebe cbfa 2cbd d58e b33d
00000200: 9a72 3bbe 8daa 6f3d 8081 4e3e 934f 5d3d
00000210: 1f37 09be 52c9 39bd ef5e 82bc df08 213e
00000220: 9b86 c53d ca62 51be 968d 0d3e b885 22be
00000230: 055f 2d3e 3f8b 5cbd e1fe 3f3e 7ea4 203e
00000240: 04cf e73c 3abe acbd 1508 9f3d 949a 7abd
00000250: 9caf 553e 706b 89be f582 8fbe 663b fabd
00000260: 0d90 503e fc63 24bd ebeb 8b3b b4fe 373e
00000270: f426 bebc d060 15be d543 aebd 4e96 063e
00000280: 4a84 d8bc e8c0 cd3d be14 0d3e 0307 3c3d
00000290: de7e 8bbd c245 7a3d 2177 8b3e 70e4 e7bc
000002a0: cc3a 5b3e 56f6 ef3d c3c4 203d b70c 9ebd
000002b0: 7505 f73d c027 d4bb ee89 203e 52b5 0bbe
000002c0: 7a85 08bd 63bb cfbd 9b8c 08be 6748 36be
000002d0: 6951 083e b6f1 893c e11b 8cbe ca97 5abe
000002e0: 1ea0 f4bd cc53 1fbd cef9 453e f46b 233e
000002f0: 2759 713e d47e 6abe c586 27bd 8f56 b3bd
00000300: f59c 8c3e 48ce 593e 1e32 95bd db25 563e
00000310: 0812 563e 56c5 b83c 631d 41be 80d7 843d
00000320: 3bd9 cfbd 1f99 9abd 3936 f3bd 2b85 2a3e
00000330: 3292 9ebe 372f 2abe cdf7 19bc e13d 133b
00000340: acc7 a73d e7bc 463c d27a 253d adf8 0abe
00000350: a30b 043e 75d8 913c 77c8 263e 510c 6b3d
00000360: 80a8 553e 9046 3bbe f5cc 293e 02f7 1dbe
00000370: 53e2 923d 79c7 29be baa2 0b3e 342e 653c
00000380: 3815 d93c 8fe7 0c3e 200e 243d bf83 82bd
00000390: 5947 a63d 5c15 11be 2b8f 0fbe e674 213e
000003a0: 4ce2 093e 7d35 35be 6496 1d3e 7256 02be
000003b0: 5fc4 613e 50cd 283e 87b6 033e f630 923d
000003c0: c93f 2e3e dd4f 83be 611f e73c 4e2e f9bd
000003d0: 64a1 db3d cd0f 28bd 8a81 77bd 174b 4a3e
000003e0: 94ae 853e 23cb 2f3e 2713 0a3e 1cc3 e43d
000003f0: aa08 84be 5d12 383e 3b40 a4bd bc59 833e
0.16894701 0.086452484 -0.1472694 0.07932119 0.18377559 -0.1437962 -0.06361516 -0.022764012
0.12885176 0.13137116 0.0024077161 -0.12891762 -0.21234526 0.12054438 0.18248145 0.11175551
0.02097946 -0.12631482 -0.033593815 0.016896576 -0.12438953 0.021315802 0.05802249 -0.081157275
0.1851753 -0.10981073 -0.0687585 0.03319126 -0.21130036 -0.06719692 -0.13913871 0.19812687
0.07348788 0.09787139 0.038877297 -0.095322356 -0.21925382 0.0608729 0.19364838 -0.059996873
-0.1220864 0.15742886 0.08051182 -0.047943585 0.1283417 -0.122291096 0.18680094 -0.11330389
0.1863362 0.2251773 -0.1802091 -0.08264345 -0.047443394 -0.04238059 -0.096415 -0.0848062
0.039169665 0.14672624 0.032864388 -0.15830268 -0.12880196 0.14286454 0.09402269 -0.025081674
0.010805191 0.0967581 0.09529601 -0.22021821 -0.050617997 -0.051472362 -0.05011248 -0.145896
0.026274879 -0.01819441 -0.040842384 -0.007574929 0.08712546 0.033030532 -0.0010013123 0.021099577
-0.0066176923 -0.014328722 0.16090204 0.17302516 -0.15640512 -0.02141424 -0.09716497 0.08077158
0.035008173 0.2274804 -0.27825257 -0.04941076 0.21500435 -0.060850188 0.1430886 0.015496466
0.010189522 0.055954672 -0.20031902 0.13347255 -0.16498406 -0.15038066 -0.28252965 0.005106339
0.12725212 -0.07426036 0.04556125 -0.11114329 0.09848075 0.10201322 0.06558905 -0.07401553
-0.14383794 -0.075098485 -0.09262488 -0.043654755 0.09463878 -0.03131952 -0.13254969 0.15046412
0.08437955 0.23126651 0.083940044 -0.13183074 -0.019499108 -0.15493907 -0.042231362 0.087674774
-0.18305436 0.05851226 0.20166588 0.054030966 -0.13399933 -0.04535801 -0.015914408 0.1572604
0.096448146 -0.20447841 0.13823542 -0.15871322 0.16930778 -0.053843733 0.18749572 0.15687749
0.028296955 -0.0843472 0.077652134 -0.061182573 0.20867771 -0.2683978 -0.280296 -0.122183606
0.20367451 -0.040134415 0.004270067 0.17968255 -0.023211934 -0.14587712 -0.08509032 0.13143274
-0.026430268 0.100465596 0.13777444 0.045905124 -0.06811307 0.061101682 0.27239326 -0.02830717
0.21409148 0.11716907 0.039250147 -0.07717269 0.12061588 -0.006474465 0.15677616 -0.13643387
-0.03333042 -0.10143163 -0.13334887 -0.17801057 0.13312306 0.01683889 -0.2736502 -0.21346965
-0.119446024 -0.038898274 0.19333574 0.1595915 0.23569165 -0.22899944 -0.04090001 -0.08756744
0.274635 0.21270096 -0.0728495 0.20912878 0.20905316 0.022555035 -0.18858866 0.06486416
-0.10148855 -0.07548737 -0.118755765 0.16652362 -0.30970913 -0.16619574 -0.009397459 0.0022467303
0.08192381 0.012129999 0.040400334 -0.13571425 0.12895064 0.01780341 0.16287409 0.057384793
0.20865059 -0.18288636 0.16582091 -0.15426257 0.07172074 -0.16579999 0.13636294 0.013988066
0.026499376 0.13760208 0.040052533 -0.06372785 0.08119077 -0.14168304 -0.14019458 0.1576725
0.13465232 -0.17696185 0.153894 -0.12728289 0.22047566 0.1648457 0.12862597 0.07138245
0.1701652 -0.25646868 0.028213205 -0.12167035 0.10724142 -0.041030694 -0.060426272 0.19755207
0.26109755 0.17167334 0.13483869 0.11170027 -0.2578786 0.17975755 -0.080200635 0.256544

encoder.conv_logstd.bias f4 [40]
00000000: 64e2 2cbe 7dca 22be 7147 2dbe 061b 16be
00000010: bc91 36be e06e 1dbe 5c91 2dbe 3421 15be
00000020: 5d46 2ebe abcb 23be fc20 1fbe 5ca1 28be
00000030: 51bd 30be 4295 28be d0c3 1abe 2a99 25be
00000040: 6322 36be 4cab 20be 3e67 2bbe f6ca 34be
00000050: 83e0 2fbe 40a2 20be 98ae 23be 788f 0cbe
00000060: f7b6 32be 2570 1fbe f3f5 21be 35fb 13be
00000070: 68db 1ebe fce8 11be c062 18be cb7d 1fbe
00000080: 1772 1fbe 9de7 27be 0d61 22be 4184 32be
00000090: 94df 22be 6a6d 1bbe b8b7 1fbe 0b3a 11be
-0.16883236 -0.15897556 -0.16921784 -0.14658746 -0.17829031 -0.15374327 -0.16949981 -0.14563447
-0.17019029 -0.15995662 -0.15539926 -0.16467804 -0.17259718 -0.16463187 -0.15113759 -0.16171709
-0.17786555 -0.15690345 -0.16738603 -0.17655548 -0.17175488 -0.15686893 -0.15984571 -0.13726604
-0.17452608 -0.15570123 -0.15816478 -0.14451297 -0.15513384 -0.14249033 -0.1488142 -0.1557533
-0.15570866 -0.16396947 -0.15857334 -0.17433263 -0.15905601 -0.15178457 -0.15597427 -0.14182298

encoder.conv_logstd.lin.weight f4 [40, 80]
00000000: 7985 b4be d16b cabe 82d4 b8bd fb84 45be
00000010: 8422 2abe 060f f73d c04d a3bd 4951 bebd
00000020: 63b4 dbbd 9521 39be 4c15 153e 5bcd b43d
00000030: b470 aabb 9e7d 7d3c 6f4b 14be 0745 30be
00000040: 8dc1 babd f53b fdbd 3c74 90be 8368 eabd
00000050: d3b2 d63e 90b4 c3be ae6f 6fbe 30dc e6bd
00000060: 88b8 c3be 5298 56be d1a8 42bd 9b03 a8be
00000070: a0a4 fe3d 3bec 54bd 5263 c6be fd46 23be
00000080: 1f0d b83d ae31 ddbb c1ef 61be 5b9f 3dbd
00000090: 523c 143e 9156 f13d d1b2 18bd ed3d 12bd
000000a0: 7007 bc39 3508 203e c499 12be 46c0 1cbe
000000b0: 0f5e 963d 9497 c9bd 20cf cf3b 212b 623c
000000c0: ea4b 04be 6550 00be 70e9 afbd 3e1d 063d
000000d0: f51f 75be 9d97 cd3b c79f aebd 2f57 a1be
000000e0: d990 edbd ddb4 afbe 2de3 31be 58ac a5be
000000f0: 7d0d 04bd a489 bebe f367 0ebe 86a9 9bbd
00000100: 36fa 64be d791 c9be 1d8b 94be ae28 47be
00000110: 58c6 923c 3561 acbe 7576 3b3e fe5d cdbd
00000120: ef51 cfbd 9576 443d 1d45 babe ca95 49be
00000130: 35c6 4ab9 ab37 1f3e 0235 91bd f997 2f3c
00000140: cf93 3ebe c92b 78be 69ee 48be 7b83 abbe
00000150: 79cc f2bc 6475 eabd 399c 8bbd 000c a03d
00000160: ec14 913b 699e 49be 3de4 fbbd 0812 0abe
00000170: 9d7f 69be 7b83 8fbe eb9b 64bc 0857 093e
00000180: f097 48be a877 683d 168c a7be 2d03 3ebe
00000190: da78 3b3f 8f9d ddbd 05a6 efbd 4483 24be
000001a0: 17df a7be 75d8 ffbd 2af1 c1bb b80a babd
000001b0: 41ce 78be 86ab 01be 34a1 99be a5fc 2c3d
000001c0: ae77 a9bd 90a3 b53d 9bc0 1abd 5263 65be
000001d0: f988 60be ea99 b2bd ca3b 9abe 209f 58be
000001e0: 45af 13be 085a 0d3e 7474 5abe a5f4 3cbd
000001f0: 3d6b a33d 291d 77be 7f40 68be 1216 3abe
00000200: 7f67 8e3c 685f af3d 1977 b6be 8ee5 04be
00000210: 4974 acbe 4aa8 f3bd 1f80 56be c7ee 9bbe
00000220: 0bbf 9bbe 8d70 82be 1e0c 063d 1042 43be
00000230: 9164 48be c28f 7ebe de07 f33d d576 9cbe
00000240: f53f 6dbd 4847 0ebd db8c 11be 19d5 90be
00000250: 8528 dabd 6182 44be 19bd 993e 4053 10bc
00000260: f527 b1be acc9 a3be b47a 5ebe d37d 63be
00000270: 72cd 303d 08e9 8abe 84b3 9fbe 6739 8e3c
00000280: b13c 79be 685c b2be 58a3 163d 257f 83be
00000290: dda3 123d 5685 0c3d f002 173e 82e7 60be
000002a0: a765 2dbd 20c3 23bd 5f86 a83d 6ba0 ecbc
000002b0: 2164 a8be b07f bebc da89 67be a35b b7bb
000002c0: a7d5 073d ca8b a73c 7885 d0bb a6c0 17be
000002d0: 4f1b af3e 0788 6cbe 930e 88bd cfcd f03c
000002e0: 624f 87be e523 c1be bff9 39be 9ea1 0ebe
000002f0: 0044 8abe 2699 7ebe cef7 95be e5db 96be
00000300: 1459 463d ed82 1c3e f4a0 c4bd e435 25be
00000310: 5627 2f3c d970 c13d ad40 c8be 9a94 2e3d
00000320: 7caf 7dbe 71da 34be bd34 15be ade7 0ebe
00000330: a144 4dbd 3578 92be 08ee 9dbc 03de 06bd
00000340: 3f06 0a3d 7952 25be 34d4 383d 0508 86bd
00000350: 1eb5 c8bd e8e1 11be a224 b0bd 9848 c8be
00000360: f7b3 5dbe 2bbd 57be 2cb5 c9bd 40e8 f7bd
00000370: cf7c e8bd 13e8 c4be c6bd 8abe 05b0 96bc
00000380: e6a6 88bd aac5 c0be 6205 92be 9213 b3be
00000390: 598e c5bd 6c75 aabe e480 c13e a146 90be
000003a0: 5fb8 68be b432 9dbe fcba a2be b7e1 b1be
000003b0: fb1f a1bd 7254 853a 6b0e 86be bc05 11be
000003c0: 916b 40be 4334 963d a4e3 1abe 8587 e0bc
000003d0: 663f 5d3d eb6b 093e 7642 9f3d f839 44bd
000003e0: 7860 73be df22 49be 2f6e 8fbe 04a0 ef3c
000003f0: a80a 9fbe efe8 5b3c 2ca0 40be cbdb 86be
-0.35258082 -0.39535382 -0.09024908 -0.1928901 -0.16614729 0.12063412 -0.07973814 -0.09292848
-0.107277654 -0.18079217 0.14558905 0.08828231 -0.0052014235 0.015471844 -0.144819 -0.17213832
-0.09118948 -0.123649515 -0.2821368 -0.11445715 0.41933307 -0.38223696 -0.23382446 -0.11272466
-0.38226724 -0.20956543 -0.047524277 -0.3281525 0.124337435 -0.0519831 -0.3874765 -0.15945049
0.08986878 -0.006750307 -0.22064115 -0.04629455 0.14476135 0.11784089 -0.037279908 -0.03570359
0.00035863696 0.1562813 -0.1431647 -0.15307721 0.07342159 -0.09843364 0.00634183 0.013804228
-0.12919584 -0.12530668 -0.085894465 0.03274273 -0.23937972 0.006274177 -0.08526569 -0.31511828
-0.11599893 -0.34317675 -0.17371817 -0.3235805 -0.032239426 -0.37214386 -0.13906841 -0.076006934
-0.22361073 -0.3936908 -0.29012385 -0.19449112 0.017916843 -0.33667913 0.18306907 -0.10027693
-0.101230495 0.04796465 -0.36380854 -0.19686046 -0.00019338059 0.1554858 -0.070901886 0.010717385
-0.18611072 -0.24235453 -0.19622196 -0.3349875 -0.029638516 -0.11448172 -0.068169065 0.07814789
0.004427543 -0.19689335 -0.12299392 -0.13483441 -0.22802587 -0.2803 -0.013953189 0.13412106
-0.1958921 0.056754738 -0.32724065 -0.18555899 0.7323128 -0.108210675 -0.117015876 -0.16065699
-0.32787392 -0.12492458 -0.0059186416 -0.09084076 -0.2429743 -0.12663087 -0.300058 0.042233128
-0.0827478 0.08869088 -0.03778134 -0.22401169 -0.21927251 -0.08720763 -0.3012374 -0.21154451
-0.14422329 0.13803875 -0.21333486 -0.04613175 0.079794385 -0.24132217 -0.22680853 -0.18172482
0.017383335 0.08563119 -0.3563774 -0.12978193 -0.3368247 -0.11897333 -0.20947312 -0.3045561
-0.30419192 -0.25476494 0.0327264 -0.1906817 -0.19569613 -0.24859527 0.11866735 -0.30559412
-0.057922322 -0.034735948 -0.14213888 -0.2828758 -0.1065226 -0.1919036 0.30027083 -0.008808911
-0.34600797 -0.319898 -0.21726495 -0.22215967 0.043164678 -0.27130914 -0.31191647 0.017361356
-0.24339558 -0.34836125 0.03677687 -0.2568294 0.035800803 0.034306847 0.14747214 -0.21963313
-0.04233327 -0.039981008 0.08228754 -0.028885087 -0.32888892 -0.023254246 -0.2261118 -0.0055956407
0.03316274 0.020452399 -0.006363567 -0.14819583 0.34200522 -0.23098765 -0.06643405 0.029395012
-0.26427752 -0.37722698 -0.18161677 -0.1392884 -0.27005005 -0.24863109 -0.29290622 -0.2946464
0.048424795 0.15284319 -0.09601012 -0.16133839 0.010690531 0.09445352 -0.39111844 0.042622186
-0.24773973 -0.17661454 -0.145709 -0.13955565 -0.050114278 -0.28607336 -0.019278541 -0.03292657
0.033697363 -0.16144742 0.045124248 -0.06544498 -0.0980017 -0.14246333 -0.08600737 -0.39117885
-0.21650682 -0.21068256 -0.09849009 -0.12104845 -0.1135193 -0.3845831 -0.2709791 -0.01839448
-0.06672458 -0.37650806 -0.28519732 -0.34975868 -0.09646291 -0.3329271 0.37793648 -0.28178886
-0.22726582 -0.30702746 -0.31783283 -0.3474252 -0.07867428 0.0010172261 -0.26182875 -0.14162344
-0.18791033 0.07334187 -0.151259 -0.02740837 0.05401554 0.13420074 0.07776348 -0.047906846
-0.23767269 -0.19642209 -0.2801375 0.029251106 -0.31062818 0.013422235 -0.188111 -0.26339564
