VGDAE_tnnls/VGDAE/feat/cora_feat.pth (torch, 144551 bytes, 2 tensors)

encoder.linear.weight f4 [25, 1433]
000000 19 b9 c5 3d 26 60 04 3d d6 01 36 3d c9 31 ef bc
       0.09654445 0.032318257 0.044435345 -0.029198544
000010 d9 3c 7c 3c df 5b 91 bd 14 0f 8e bd b7 d0 32 bc
       0.015395367 -0.07097601 -0.0693647 -0.010914019
000020 bb 2e cc bd cb d6 44 3e 84 99 b0 3b 53 39 94 bd
       -0.09969851 0.19222562 0.0053893942 -0.07237496
000030 51 c9 13 3d 49 b8 42 3b 41 f3 00 3e 99 83 7b bd
       0.036080662 0.0029711893 0.12592794 -0.0614048
000040 e9 f9 78 bd 83 3c 68 bd 65 0f ad bd 2f 27 a6 bd
       -0.060785208 -0.056698333 -0.08450202 -0.081129424
000050 f2 9d d5 bd 82 7c c8 bc f9 30 86 3d 79 c7 41 bd
       -0.10430516 -0.024473432 0.065523095 -0.047309373
000060 54 48 cb bd 5c a7 2b bd a3 12 55 bd ec 65 80 bc
       -0.09925905 -0.041907653 -0.052019726 -0.0156736
000070 72 65 06 3e cd 18 5a 3e 9e 77 96 3b 9b f0 1b bd
       0.13124636 0.21298523 0.004591896 -0.038071256
000080 d3 36 2b bd cd 92 a0 bc 85 ae 09 3b f6 1e e7 3d
       -0.04180033 -0.01960125 0.0021008563 0.11285202
000090 f6 32 e4 3d e8 4d 53 3e 40 4d 4a 3d d0 9e e0 3b
       0.111425325 0.20635188 0.049390078 0.0068548694
0000a0 64 f4 c7 3c 82 44 74 bc 57 a4 82 bc 31 49 9a b9
       0.024408527 -0.014908912 -0.015947504 -0.000294277
0000b0 b4 a6 41 bd 76 d1 12 3e 1a a7 e5 bd 05 85 a4 3d
       -0.04727812 0.14337716 -0.11213513 0.08033184
0000c0 6d 79 04 bc a1 80 f0 bc 74 c1 8f bd 80 5a 83 bd
       -0.008085591 -0.02935821 -0.0701932 -0.06413746
0000d0 f7 a4 d6 bb bc d5 f9 3d 36 73 47 bd 6c 25 91 bc
       -0.006550427 0.1219897 -0.048693858 -0.01771804
0000e0 13 7b bc 3d 75 02 94 3d 4d 82 30 bd 1b b5 da 3d
       0.09203162 0.07227031 -0.043093015 0.106790744
0000f0 f2 cb 35 bd c3 30 43 bd c8 14 93 3c f2 70 8a bd
       -0.04438395 -0.047653925 0.017954245 -0.06759824
000100 b9 d6 05 bd 28 59 90 3c ea 79 08 bd 49 97 1b bd
       -0.03267548 0.017620638 -0.03331939 -0.037986074
000110 8c d8 ab bd f1 7c 47 bd e6 ac b0 3d 3f 16 03 3d
       -0.083909124 -0.048703138 0.08626728 0.032003637
000120 f6 f8 a1 bb 62 1c 27 bc 9f 7a 9c bd d9 91 ae bc
       -0.0049430085 -0.010199638 -0.076405756 -0.02130978
000130 0f ad 07 bd f4 17 0c 3e b8 7e 93 3c 80 1f 94 3d
       -0.033124026 0.13681012 0.01800476 0.07232571
000140 2a cd 7c 3d 77 fb cc bd fe 09 e2 bc 48 28 8e bd
       0.061719097 -0.100089006 -0.027592655 -0.06941277
000150 57 f4 9a bd 7f 18 88 bc 29 9a 5a bd c2 d6 32 bd
       -0.075661354 -0.016613243 -0.053369675 -0.04366184
000160 8d 5d a0 bd ff 5e 78 bd 87 81 8c bd 62 d0 26 bd
       -0.078303434 -0.06063747 -0.06860643 -0.040726073
000170 da 7d a2 3d 6d 60 82 3d 48 18 c5 3d 57 73 af 3c
       0.079341605 0.06366048 0.09623772 0.021417303
000180 a3 69 56 bd b7 75 9a 3d 8d 9f 9f bc 32 01 10 bd
       -0.052346837 0.075419836 -0.01948526 -0.03515739
000190 1e 74 bb bd ac ef 11 be 37 e9 a3 bd 12 08 d4 bd
       -0.09153007 -0.14251584 -0.080034666 -0.10353102
0001a0 84 a0 4b bd a1 48 02 3e 7c ab 81 bd 7e 78 0c be
       -0.049713627 0.12723018 -0.06331536 -0.13717839
0001b0 7c 11 76 bd 93 a6 e5 bd b2 2e 98 3d c8 a8 09 3d
       -0.06007527 -0.11213412 0.074307814 0.033608228
0001c0 1a 66 b1 3d 14 bd dd 3c 3f e3 ce bd 06 59 8b bd
       0.086620525 0.027067699 -0.101019375 -0.06804089
0001d0 ae ec 19 be 55 4f 01 be f6 4e 69 3d 6f 68 5b 3e
       -0.15031692 -0.12627919 0.05696007 0.21426557
0001e0 21 b1 89 3d 36 5a 62 3d 3c 04 80 3c 63 9b e0 bc
       0.06723238 0.055261813 0.01562702 -0.027417844
0001f0 9b 63 f8 3d 7c 2b d8 3c 13 89 c7 3b 03 59 7f bd
       0.12128373 0.026387922 0.0060893386 -0.062340748
000200 da de 54 bd e5 33 a9 bd c1 4a 55 bd c6 05 d0 bd
       -0.05197034 -0.08261851 -0.052073244 -0.10157351
000210 1a 47 63 bb 28 78 0e bd bd 31 58 bd e2 78 80 3c
       -0.003467983 -0.03478256 -0.05278181 0.015682641
000220 c4 a7 df bc 97 cf 06 bd 3d 5e 80 bd 5b b9 81 3d
       -0.027301677 -0.032912817 -0.062679745 0.06334182
000230 df 74 78 bc 1f 5b 0b 3e 50 48 e7 3d 25 c1 09 be
       -0.015164583 0.13608979 0.112930894 -0.13452585
000240 32 54 01 3e 66 82 bf 3d 0c c3 b7 3d 21 e3 10 3e
       0.12629774 0.093510434 0.08972749 0.14149143
000250 38 e7 48 bd 31 7d 95 3c 48 a9 04 3e 83 6b 80 bd
       -0.049048632 0.018248172 0.129552 -0.06270506
000260 f2 c6 54 3d e7 23 02 3b 85 9a 37 3e 54 a2 fc bd
       0.05194754 0.0019857825 0.17930038 -0.12335649
000270 bb 8b bd 3d 7a 90 ca bd e3 db c4 3b 5a 12 56 3d
       0.09255167 -0.09890838 0.006007658 0.052263595
000280 36 59 a9 3d 2b b7 c0 bb dd ed 07 3c 26 81 91 bd
       0.08268969 -0.0058812103 0.008296457 -0.07104711
000290 3e e5 8a bd 54 b6 81 bd 29 19 a9 3d b4 14 01 bc
       -0.06782006 -0.063336045 0.08256752 -0.007878471
0002a0 43 f1 93 3d 9c 52 b4 bd d8 df 7a bc 8f cd 06 bd
       0.072237514 -0.08804819 -0.015312158 -0.03291088
0002b0 4f 00 97 bd 74 c6 36 3c 0b e1 10 bd a2 30 04 bd
       -0.07373106 0.011155713 -0.035370868 -0.032272942
0002c0 0f 8a 20 bd 50 bf a7 3c 78 52 4f bc 9f 45 fa 3b
       -0.039194163 0.020476967 -0.012653939 0.007637694
0002d0 67 ad 75 bd a0 e8 73 3d 9b a7 a3 3d 8e 6b 63 bd
       -0.059979822 0.05954802 0.079909526 -0.055522494
0002e0 61 10 7e bd 75 d3 d5 3c 27 89 94 3c 5c b7 00 bd
       -0.06202734 0.026101807 0.018131806 -0.031424865
0002f0 31 28 fb bc 05 40 10 3e 51 00 65 3c 96 04 f6 bc
       -0.030658813 0.14086922 0.013977126 -0.030031484
000300 e7 61 48 3c 04 37 02 be 1a 5d 4e 3d d8 40 21 bd
       0.012230373 -0.127163 0.050381757 -0.03936848
000310 41 d6 f7 bc 89 9f ca 3d 76 35 8d bd d1 a8 14 bd
       -0.030253531 0.0989371 -0.068949625 -0.03629381
000320 2e 63 c8 3d 07 5f 1b 3e 81 c6 ca bd f5 f2 20 bd
       0.09784542 0.15172969 -0.09901143 -0.039294202
000330 51 d2 49 bd 7f 90 c6 3d 67 8a 82 3d eb 4c 46 bd
       -0.04927284 0.09695529 0.063740544 -0.0484132
000340 cb cd 18 3d 35 3b ee 3d dd ea ed 3b a0 f2 16 bd
       0.037305634 0.116323866 0.007260664 -0.03685248
000350 59 dc e8 3d 5a dd ce bc 27 3a 9b 3a c0 87 bd bb
       0.11370153 -0.025252033 0.0011842892 -0.005784005
000360 6a b2 d3 bc 8c d8 fb 3d dc 77 19 3d 7d a9 9a 3d
       -0.02584191 0.122971624 0.037467822 0.075518586
000370 35 39 a7 3d 8d 1c bc bc be ba 62 3d a9 ed 02 3d
       0.08165208 -0.022962833 0.055353872 0.03196493
000380 8d e4 b0 bd 5a c4 4b bd 78 53 e0 bb bb ba 80 bd
       -0.086373426 -0.049747802 -0.0068458878 -0.06285616
000390 88 23 15 3d b3 16 28 3e 84 59 28 3c 98 d7 33 bd
       0.03641084 0.16414909 0.010275248 -0.043906778
0003a0 48 ee 3e bd b7 56 6a 3c 6d 42 32 bd e1 e4 52 bd
       -0.04661396 0.014302901 -0.04352038 -0.051487807
0003b0 a8 65 cf 3c aa 55 42 3b c3 37 a7 3d 6c 31 f4 bd
       0.025317028 0.002965311 0.081649326 -0.11923489
0003c0 e7 e6 1a 3d 01 9e 17 bd 75 dd 43 3d e2 72 e0 bc
       0.037817862 -0.03701592 0.04781862 -0.02739853
0003d0 fb e0 10 3e 0a 68 af 3d 14 4d c0 bc a0 08 65 bb
       0.14148323 0.08564766 -0.023474254 -0.0034947768
0003e0 36 30 b2 bc 9b c7 0b 3d 59 de 40 3b 46 dc b7 bb
       -0.021751504 0.034125905 0.0029429405 -0.0056109754
0003f0 56 97 f1 bd 26 ed 08 3d 30 58 2b 3d 86 5d cf 3d
       -0.11796443 0.033429287 0.04183215 0.1012526

encoder.linear.bias f4 [25]
000000 2c 65 15 3c b2 95 d7 ba d5 01 c9 bb 52 a1 0a 3c
       0.00911836 -0.0016447811 -0.0061342516 0.008461313
000010 1e ab 82 3b e8 7b 6d ba 5a f5 02 3b f7 4d cd bb
       0.003987684 -0.0009059296 0.0019982667 -0.0062653976
000020 e4 40 32 bc bb 3e 9d bb 49 b1 00 3c 73 71 95 bb
       -0.010879729 -0.004798738 0.007854768 -0.0045606433
000030 b1 14 8d 3b cd da 4f 3c e6 e2 ae 39 35 36 37 3c
       0.004305445 0.0126864435 0.0003335692 0.011182358
000040 9d f7 17 3c a5 91 d7 ba 4e aa 5c bb 00 53 85 3b
       0.009275344 -0.0016446604 -0.0033670845 0.0040687323
000050 b5 9e 3d bc 60 1c cf 3b 60 0c 12 3c 05 cf b0 bb
       -0.011573483 0.0063205212 0.008914083 -0.0053957724
000060 f3 53 19 3b
       0.0023395985
