VGDAE_tnnls/feat_hecheng/DGAE/syn_data.pth (torch, 801951 bytes, 4 tensors)

encoder.linear.weight f4 [40, 2500]
00000000: a5de 4ac0 c45d fbbe 5da5 97c0 0730 ccc0
00000010: ae42 113f 4bd7 59c0 bed8 0bc1 2720 abc0
00000020: 1483 49c0 60e7 213f 8b99 fd3f a893 82c0
00000030: e7f7 b2c0 4a54 2cc0 f9ad 7540 0e7d c5bf
00000040: 3a4b 8cc0 fc1a aa40 387d 8640 e7d9 9c3d
00000050: f50e d2c0 7976 b1c0 f8a7 b3bf 5193 6e40
00000060: ac0e 1bc0 69bd 9540 c36a 27c0 edce acc0
00000070: 5ebe ecc0 5bc3 00c1 3cd5 09bf e37e 463e
00000080: e076 19c1 d2ad 97c0 184b c63f d6aa 143f
00000090: 16fa 50c0 0aa6 c4c0 f70d 73c0 1b98 2840
000000a0: 9394 1840 e7cd a3bf 3a5a 24c1 7034 8fc0
000000b0: 901d 07c0 ff1f 95bf b51a 9cbf b120 8e3f
000000c0: 1daa f33f 24b5 3fc1 fc8f e13f 0812 9abd
000000d0: bbf2 be3f 3e86 39bf ee72 0cc1 58ab acbf
000000e0: 32a7 f9c0 1126 8bbf 8328 abc0 b01a cbc0
000000f0: a0aa c53f 55dc b740 573e 8cc0 8f53 3abe
00000100: 57dc ecbf 4702 f9c0 c718 33bf 1df7 62c0
00000110: 6e6c aac0 998c 9840 f00b 9ac0 1f23 3dc0
00000120: 6c88 f23f e936 c3c0 0735 9340 dc69 4940
00000130: 551f 04c1 e173 ea3f f0fb 9ac0 ba81 f5be
00000140: f023 89c0 74f0 87c0 d2bd 0fc1 8d5d afc0
00000150: 9148 043e 1040 d140 970e 143f a079 b240
00000160: 5df1 26bf 3dc9 5dbf 8fe4 9cc0 2917 00bf
00000170: 0ddc c03f ced0 2640 c35c 3ec0 b52f 8640
00000180: 00ff 16bf 677d 6dc0 c38d c5c0 4b3c a1bf
00000190: bc82 f8c0 2d94 5a40 14c9 a7c0 5610 a43f
000001a0: b828 ecc0 331a 88c0 881f ccbe bfd4 3fc0
000001b0: 5ec2 d1be 9c27 9040 6e61 15c1 bf7f 0bc1
000001c0: e1dc 80c0 fae7 a6c0 a9fb c0c0 6f50 17c0
000001d0: 65ff 07c1 da2f 3fc0 0667 b740 67b7 d9c0
000001e0: 37e3 24bf 5365 f3c0 976d dd3f 4124 4abf
000001f0: a95e adbf 5cf7 3a40 e44f 193d e0b0 8e40
00000200: a53f 0fc1 5862 eec0 e8b0 3040 2045 3c40
00000210: 626b cdc0 a800 12bf 37c3 9240 df68 76be
00000220: b81f 3cc0 89bf a3c0 0a73 d640 3b21 89c0
00000230: b2da 05c0 fa4c 27bf d8fc 22c0 8080 2240
00000240: 3ebd 943f 4c15 d0c0 0571 11c0 aa30 0440
00000250: d000 3b40 dad2 94bf b487 f5bf 8697 6cc0
00000260: a989 d3c0 1d70 d040 525a 8e40 6242 83c0
00000270: 9c2e 843f 94c3 07bf c366 7a3e 52b5 c33d
00000280: 8762 bdc0 e551 7440 57dc d9bf 7c14 d33d
00000290: bd90 46c0 ac24 00c0 237c 11c0 31db 60c0
000002a0: 37d8 16c1 5e5c 1ec1 5ec8 5dc0 a818 6dc0
000002b0: 3b72 37c0 669e 3440 29ee 093f a28e 8ec0
000002c0: fddb 7fc0 8811 cb3f 6806 9640 cea4 3340
000002d0: 19ee 21c0 256a ed3e 372a d23f 26a3 83c0
000002e0: 6ba7 a4c0 8282 cac0 400b 78c0 4ea0 debe
000002f0: 34ea 0540 6ff0 f6bf dd9c 06c0 d770 20c1
00000300: 871e 81c0 ba8d 3cbf 860e 0b41 fe3b bc40
00000310: f510 edc0 5e69 4c3f ffeb e7c0 79d0 9240
00000320: d4b6 60c0 bb49 8c40 4588 1a3d f062 a4c0
00000330: fb39 ed40 94be 5a40 86ac c8bf 44fb ab40
00000340: cf49 0ec0 c7d5 eb40 8c93 68c0 8e2f 5840
00000350: bef4 6240 adf5 c2c0 40e0 b83e 258d 52c0
00000360: 2021 1d40 15de 0e40 a7b1 c8c0 1fe2 e73f
00000370: b601 41be 77fb 1fbf cf2f e0c0 2b80 60c1
00000380: ec89 f4c0 c7b0 e940 e6ce 84c0 0170 663f
00000390: 9e3b e6c0 e3b7 d140 45b9 303f a06a a0c0
000003a0: a410 b7c0 9055 86be 1a48 a3bf a016 b740
000003b0: 47c1 073f 43ba 5740 9e86 b9c0 a698 7d40
000003c0: 076b ce40 2ef6 1bbf fd7e f3c0 3144 643f
000003d0: dcbc cabb f723 d3c0 5910 9dbf 4ac3 663f
000003e0: 49d6 643e dde2 45c1 4a95 1c41 f0e7 64c0
000003f0: 25ca 0940 034c f3c0 47a0 d53e 1a71 2f41
-3.1698391 -0.49094975 -4.738936 -6.3808627 0.5674237 -3.4037654 -8.740416 -5.347675
-3.1486254 0.63243675 1.9812483 -4.0805244 -5.5927615 -2.6926446 3.8387434 -1.5428789
-4.384183 5.315794 4.2027855 0.07658749 -6.564326 -5.545712 -1.4035635 3.7277415
-2.4227705 4.6793714 -2.6158912 -5.4002595 -7.398238 -8.047694 -0.53840995 0.19384341
-9.591522 -4.7399683 1.5491667 0.58073175 -3.265264 -6.1452684 -3.7977273 2.6342838
2.3840683 -1.2797211 -10.272028 -4.475151 -2.1111794 -1.165039 -1.219565 1.1103727
1.903629 -11.981724 1.7622066 -0.075229704 1.4917825 -0.7247046 -8.778059 -1.348979
-7.8016596 -1.0870992 -5.3486953 -6.3470078 1.5442696 5.745646 -4.38261 -0.18195938
-1.8504742 -7.781528 -0.6995968 -3.5463326 -5.325736 4.767163 -4.813957 -2.9552686
1.8947883 -6.100453 4.600223 3.1470861 -8.257649 1.8316613 -4.843254 -0.47950536
-4.285637 -4.248102 -8.983843 -5.48017 0.12918307 6.53907 0.5783476 5.577347
-0.6521204 -0.8663519 -4.9029 -0.5003534 1.5067154 2.6064944 -2.9744117 4.1933236
-0.5898285 -3.710779 -6.173555 -1.2596525 -7.765959 3.415294 -5.2432957 1.2817485
-7.3799706 -4.253198 -0.39867806 -2.99736 -0.40968603 4.504835 -9.336287 -8.718688
-4.0269628 -5.2158175 -6.03072 -2.3642843 -8.499852 -2.9872956 5.731326 -6.803638
-0.644092 -7.6061187 1.7299069 -0.7896157 -1.3544513 2.9213476 0.037429705 4.459091
-8.953038 -7.449505 2.7607975 2.941719 -6.4193583 -0.5703225 4.58633 -0.24063443
-2.939436 -5.1171308 6.701543 -4.2853065 -2.091473 -0.6535183 -2.5466824 2.539093
1.1620252 -6.5025997 -2.2725232 2.0654702 2.9219246 -1.1626847 -1.9182038 -3.6967483
-6.610554 6.5136857 4.4485254 -4.1018534 1.0326724 -0.53032804 0.24453263 0.095560685
-5.9182773 3.8174984 -1.7020367 0.103066415 -3.1025841 -2.0022383 -2.2732017 -3.5133784
-9.427787 -9.897551 -3.4653544 -3.70463 -2.866347 2.8221679 0.5387903 -4.454911
-3.997802 1.5864725 4.688282 2.8069339 -2.5301573 0.46370044 1.6419133 -4.1136656
-5.145437 -6.328431 -3.8756866 -0.43481678 2.0924196 -1.9292125 -2.1033242 -10.027549
-4.0349765 -0.7365376 8.691046 5.8823233 -7.40832 0.7984828 -7.247558 4.5879483
-3.511159 4.3840003 0.037727613 -5.1370773 7.4133277 3.417882 -1.567765 5.374422
-2.223255 7.369846 -3.6340055 3.3779025 3.5461879 -6.0924897 0.3610859 -3.2898648
2.4551468 2.2323048 -6.271686 1.8115882 -0.18848309 -0.6249308 -7.005836 -14.031291
-7.641836 7.3028293 -4.150256 0.90014654 -7.1947775 6.553697 0.690327 -5.0130157
-5.7207813 -0.26237154 -1.2756379 5.721512 0.5302929 3.3707435 -5.797683 3.962442
6.450565 -0.60922515 -7.6092515 0.8916655 -0.0061870646 -6.5981402 -1.2270614 0.9014174
0.22347368 -12.367887 9.786448 -3.5766563 2.152963 -7.603029 0.41723844 10.965113

encoder.linear.bias f4 [40]
00000000: c93a 2140 ada8 f6bf 2d10 103f 4f04 33c0
00000010: d669 b63e 2303 e8bf de08 9cc0 afd9 54bf
00000020: 4c87 523e 0299 87bd 4f91 bcbd c967 413f
00000030: b4d8 483e dc8c 973e d6bd 6a3e 601a a9bf
00000040: b54c 783e 11ec 553e 26bc 62be 0bcf 4cbf
00000050: 5e69 2a3f 7358 a0be 3a39 fdbe c67b 703b
00000060: 8243 1e3e dcad fbbd 91ea 033e 2a80 cb3e
00000070: 34d0 0c3e 0e04 393e 80a2 123e 0e84 a9bc
00000080: 4948 983b 190b 983d 7a7a b3bc 9d36 8ebd
00000090: 51aa 753d 56fd 7a3d dcab 80bc 7f13 2b3c
2.519213 -1.9270226 0.5627468 -2.797138 0.3562762 -1.8125957 -4.8760824 -0.8314466
0.20559424 -0.06620981 -0.09207403 0.7554899 0.19613916 0.29599655 0.22923979 -1.3211174
0.24248011 0.20890833 -0.22142085 -0.8000342 0.6656703 -0.3131748 -0.49457723 0.0036694868
0.1545544 -0.122890204 0.12882449 0.3974622 0.13751298 0.18067953 0.14319801 -0.020692851
0.004647289 0.07423992 -0.021908987 -0.069440104 0.05997688 0.061276756 -0.015706949 0.01044166

encoder.linear_.weight f4 [40, 2500]
00000000: aa10 d9bd 17a8 843d 53fa a5bf ed10 95bf
00000010: 9dc2 5ebe 7ae0 193f fe3e 04bf a891 bdba
00000020: 32f4 1dbf 8c5f 81bf 9c79 d2bf 6f6b 38bf
00000030: a383 5dbe 58ab a13e e553 d23e 8638 033f
00000040: d3fd 4bbf 3ec3 6cbf 7b4b e7be 25c4 1dbf
00000050: 2688 8cbf 2ba7 323e 17e9 e0be 0e31 acbf
00000060: 30bf 8abf a696 29bf d105 08bf 92f9 4b3f
00000070: 6d17 a7be 868c 203f 787f bbbc 2734 bfbe
00000080: e192 6bbf 85fe f73b b6a3 02be af96 92be
00000090: 357d d93c f7c7 cb3c 162e 9bbf 9dee 4abd
000000a0: 19c3 50bf 8157 bcbf 93ae 8abe db73 0ebf
000000b0: 5a78 efbe 93db 93bf a240 17bf 67bb 8e3e
000000c0: 5e85 bb3e 12da 8f3f 556f 363f 74cd 5b3e
000000d0: 521b c4be 4217 9d3f 13fd b4bf ed2e 82bf
000000e0: cbc1 10bf 9103 9abe 27ea a5be c7ec 403f
000000f0: 6c9b 70be 3bf7 1d3d 9a78 1bbf 526c 47bf
00000100: 4ada 4bbc cc46 efbe f7f7 a5bf 7d2b 66bf
00000110: 32e7 7fbf 00fc 113e 1cde be3e 4937 063f
00000120: 5fd1 41be 2e21 80be 3dd0 10be f5dd 6cbe
00000130: a98b debd 3fed 10bf 1902 79bf 2d17 96bf
00000140: c41c 00bf a523 0fbf 8a72 073e 33e6 3abe
00000150: 2153 74be b8eb 35bf 7fc4 08bf 35d0 7bbf
00000160: c9e7 b0bf bf2d 48be 1e6b f7be 661b 003f
00000170: 2d74 4abf 6a6a 6fbf fbfb 843f 672a 86bd
00000180: 854a 5f3e 75e8 ef3e 5818 25bf 68c8 29bf
00000190: 5aca 263e 5503 fcbe e846 87bf 87c9 22bf
000001a0: 1b4f f2bb 5fda 24bf cf53 6a3d 41b0 01bf
000001b0: ae28 27bf 7c83 c6be 8c15 0e3e b1c4 38bf
000001c0: d08e e7be 4395 8c3f 720d a8bf 41ea 10be
000001d0: ad82 a0be 1d4a 6d3c 4691 2bbf 9389 563f
000001e0: 01b1 083f 1d48 88bf 43af 19bf 850b 843f
000001f0: f3f8 a3bf 06c8 1abf 17f4 b5bd c22e 37be
00000200: fc96 96be 72f3 1b3f c334 80bf c9b4 35be
00000210: 9ba8 8abe c33b 783f faab 8cbd 8383 7b3e
00000220: 3cd2 8cbf 9c81 d5bf 7e2c ccbf 294a 93bf
00000230: 320a a9be 8520 493e f1ce 30bf 536c 95bf
00000240: 30ca 173c c565 be3d c7f0 a1bf a92b 04c0
00000250: 295f 713d 56b2 92bf 96b8 06bf ad5e f6bd
00000260: f90b d7be 28ef 623e ec85 76be 265b ac3c
00000270: 45b3 bebf b081 0cc0 39d1 493e b6fb 003f
00000280: 6877 c3bf a49c 1e3f 360a 1ebe be1f c43d
00000290: 57b5 bfbf 2a81 abbf 770c 3fbf aed8 00bf
000002a0: 83a9 3fbf 5fd2 cfbd a129 453f aee2 fbbd
000002b0: c4a2 cfbc 6507 b43e b8fc f73e 0459 e4be
000002c0: b665 5cbf f657 3ebc 76b1 7cbe ceac 1abf
000002d0: 7375 70bf 8517 64bd ae57 883e 98d5 2bbf
000002e0: e6d8 083f b148 95bf d343 4e3f 2de3 e5be
000002f0: 1fef 47bf 5c3d 90be e362 5dbf 231b 8d3f
00000300: b04a d2be c2b2 40bf 1838 02c0 696b a7bf
00000310: 96eb 20bf eda3 37bf cf46 a83f 8d73 d0bd
00000320: 4196 febd 9c6d 81bf fb6e 063f 0e04 69bf
00000330: 6e4f 83bf 1b71 e53e 0288 f8bd 69cb d3be
00000340: b672 85bf a53d a33f 0f7e cb3e 2384 b8be
00000350: 766e 8ebe a8b6 efbe af40 603a 483d 8c3f
00000360: cf48 86bd 8a6f 89be 87ec 5bbf f41d 9bbf
00000370: 67ef 423f 31d1 f53d 6a26 e3be 4743 05bf
00000380: 629a 24be bc2a 05bf 2c52 91be 24d6 403d
00000390: e93a c4be 45eb 2dbf 3739 333f a7ab b2be
000003a0: 1fe0 53bf 6783 e2bf e652 9bbe a7f8 27be
000003b0: 905a 12bf 0c70 94bf ad17 07bf ace8 fabe
000003c0: 962b 49bf 0cb5 fabe 601e 71bf 3a79 543a
000003d0: 004d 6b3f c9de c43c 8861 24bf 9bb1 143d
000003e0: af67 efbd 10fb d1be 03aa 2f3e e597 38be
000003f0: dd61 17c0 b17a a4bf 9c39 713e a10a 93bf
-0.105988815 0.06477373 -1.2967018 -1.164579 -0.21753927 0.6010815 -0.5165862 -0.0014462965
-0.6170074 -1.0107284 -1.6443362 -0.7203893 -0.21632247 0.31576037 0.4107963 0.5125812
-0.7968418 -0.92485416 -0.45174775 -0.6162742 -1.0979049 0.17446582 -0.43927833 -1.345247
-1.0839596 -0.66245496 -0.53133875 0.7967769 -0.3263506 0.6271442 -0.02288793 -0.37344477
-0.92020994 0.007568183 -0.12757763 -0.28630587 0.026548961 0.024875624 -1.2123439 -0.049543966
-0.81547695 -1.4714204 -0.27086315 -0.5564553 -0.46771508 -1.1551384 -0.59082997 0.27877352
0.3662519 1.1238425 0.7126363 0.21465093 -0.38302094 1.2272723 -1.4139732 -1.0170571
-0.56545705 -0.30080846 -0.32405207 0.75361294 -0.23496789 0.038565855 -0.607309 -0.7789966
-0.012442181 -0.467337 -1.2966298 -0.8991011 -0.9996215 0.14256287 0.3727883 0.5242811
-0.18927525 -0.25025314 -0.14141937 -0.23131545 -0.10866482 -0.5661201 -0.97268826 -1.1725823
-0.5004389 -0.55913764 0.13227287 -0.18251877 -0.23859836 -0.71062803 -0.5342483 -0.98364574
-1.3820735 -0.19548701 -0.4832391 0.50041807 -0.7908352 -0.9352175 1.0389398 -0.06551056
0.2180577 0.46857038 -0.6449027 -0.6632142 0.16288128 -0.49221292 -1.0568514 -0.63588756
-0.007394684 -0.6439571 0.057208832 -0.5065957 -0.6529645 -0.3877219 0.13875407 -0.7217513
-0.45226145 1.0983051 -1.3129103 -0.14151861 -0.31349698 0.014483002 -0.67018545 0.8380367
0.53395087 -1.0647007 -0.60033053 1.0316015 -1.2810348 -0.6046146 -0.08884447 -0.1788893
-0.29412067 0.60918343 -1.0016102 -0.17744745 -0.2708176 0.9696619 -0.068687394 0.24561886
-1.1001658 -1.6680179 -1.5951078 -1.1507007 -0.3301559 0.19641311 -0.6906577 -1.1673683
0.009264514 0.09296755 -1.2651604 -2.0651648 0.058928642 -1.1460674 -0.52625406 -0.12029777
-0.42001322 0.22161543 -0.24074525 0.021039557 -1.4898459 -2.1954155 0.19708718 0.5038408
-1.5270815 0.61957765 -0.15433583 0.09576367 -1.4977216 -1.3398793 -0.74628395 -0.50330627
-0.7486803 -0.10147547 0.77016646 -0.12299095 -0.025346167 0.35161892 0.48434997 -0.44599164
-0.860927 -0.011617651 -0.24677071 -0.6041993 -0.93929213 -0.055686492 0.26629394 -0.67122793
0.5345596 -1.1662809 0.8057224 -0.44899884 -0.78099245 -0.28171813 -0.86479014 1.1023906
-0.41072607 -0.7527276 -2.0346737 -1.3079654 -0.62859476 -0.71734506 1.3146609 -0.101782896
-0.124310024 -1.0111575 0.5251309 -0.9102181 -1.0258615 0.44812855 -0.121353164 -0.41366127
-1.0425632 1.2753187 0.39744613 -0.36038312 -0.2781865 -0.46819043 0.00085545605 1.0956202
-0.06556856 -0.2684291 -0.8590779 -1.2118516 0.7614655 0.12002791 -0.44365245 -0.5205578
-0.16074517 -0.5201833 -0.28383005 0.04707922 -0.38326195 -0.6793712 0.7000918 -0.34896585
-0.82763857 -1.7696351 -0.30336684 -0.16403447 -0.5716944 -1.1596694 -0.527705 -0.4900564
-0.7858213 -0.48966253 -0.94186974 0.00081052224 0.9191437 0.024032013 -0.6421132 0.03630219
-0.11689698 -0.41011858 0.17154698 -0.18026693 -2.365348 -1.2849942 0.23557132 -1.1487619

encoder.linear_.bias f4 [40]
00000000: 8df5 8ec0 d0b2 a1c0 2b26 40c0 a26d 24c0
00000010: 48d7 90c0 672a 59c0 88e6 5cc0 84d4 88c0
00000020: 3b63 7cc0 e764 81c0 8229 91c0 34d1 c3c0
00000030: 9431 81c0 2171 b2c0 cbfa 21c0 8439 b8c0
00000040: 5323 febf 07ef 82c0 078d 2ec0 3c8c bbc0
00000050: 5fd7 7dc0 6840 e8bf 4e18 79c0 e163 99c0
00000060: 7627 1dc0 782d 26c0 fb84 9dc0 1ab0 5cc0
00000070: a6f3 8ac0 d831 7ac0 3b39 75c0 63f6 71c0
00000080: 0f6f 4dc0 c633 53c0 54ca 4fc0 1f3c 66c0
00000090: 79a3 5fc0 6dd0 4ec0 df58 4ac0 3556 51c0
-4.4674745 -5.0530777 -3.0023296 -2.5691915 -4.5262794 -3.393213 -3.4515705 -4.275942
-3.9435565 -4.043567 -4.536317 -6.1192875 -4.037302 -5.5763097 -2.5309322 -5.757021
-1.985453 -4.091678 -2.7273576 -5.8608685 -3.9662702 -1.8144655 -3.8921084 -4.7934422
-2.4555335 -2.5965252 -4.922483 -3.4482484 -4.3422422 -3.9092922 -3.831618 -3.7806633
-3.2099035 -3.300035 -3.2467241 -3.5974195 -3.4943526 -3.2314713 -3.1616743 -3.2708867
