VGDAE_tnnls/feat_hecheng/DGAE/syn_data.pth (torch, 801951 bytes, 4 tensors)

encoder.linear.weight f4 [40, 2500]
000000 87 51 68 3d 9b dc 00 be 5e 9b a1 3d ce 42 13 3d
       0.056718376 -0.12584154 0.07890962 0.03595238
000010 28 5c 91 bc 0c 1b e6 bd 27 f8 e6 3c f3 2f 5a 3d
       -0.017744139 -0.112356275 0.0281945 0.053268384
000020 11 7d eb bd a0 b7 a5 bb 33 d3 e0 3d 1f 80 08 be
       -0.11498464 -0.00505729 0.10977783 -0.13330124
000030 0f c3 18 bd 07 d4 25 3e 6c 76 02 3d 5a d1 4d bd
       -0.037295397 0.16194163 0.031851217 -0.05024848
000040 4f 80 7a bd 9b e6 e8 3d f5 34 15 3e 39 ed 29 3d
       -0.06115752 0.113721095 0.14570983 0.041486
000050 30 e0 ff bc 99 8d ae 3d 92 5a 0c bd 36 00 cc bd
       -0.03123483 0.08523101 -0.034266062 -0.09960978
000060 2e 42 8b bc 3f 62 6a bd fe 29 0b bd 26 d5 bd 3d
       -0.01699933 -0.0572226 -0.033975594 0.092691705
000070 65 12 c6 3c a1 03 14 3d ef af df bd b6 69 76 3b
       0.024178693 0.036136273 -0.109222285 0.003759963
000080 6a 2c c2 bb 23 f2 59 bd cd c1 f4 bd f3 64 8a bd
       -0.0059257047 -0.053209435 -0.11951027 -0.06757536
000090 06 a3 ef bd dd c2 de 3d 0b 1a 2c bc 6c 1b c6 3d
       -0.11701016 0.10877011 -0.010504256 0.09673199
0000a0 7b 91 75 3c de fe 4f 3d ff b2 c3 3d f8 62 93 bd
       0.0149882985 0.05078017 0.09555625 -0.07196611
0000b0 39 f0 5a 3d 3e 90 1b be 8a 3f e1 3d bc 8b 27 3d
       0.05345175 -0.15191743 0.10998447 0.040904745
0000c0 7b b0 5a bd 29 3e f1 3d 87 1b 1f be ba cc fd 3d
       -0.05339096 0.11779434 -0.15537845 0.12392564
0000d0 19 13 78 bd 95 1b 39 3d 4d e5 b9 bc a4 e5 d8 3d
       -0.060565088 0.04519232 -0.022692347 0.105906755
0000e0 8e 35 1f 3e 28 f3 e4 bd 73 66 3c 3e bb 9b 97 3d
       0.15547773 -0.11179191 0.18398456 0.0740275
0000f0 13 a8 a3 bd ed 4c 0e be fb 6f 91 3c b2 26 e1 3d
       -0.07991042 -0.13896532 0.017753592 0.10993709
000100 6e fe db 3c ab c0 07 3d 95 d1 d2 bc 28 28 44 3d
       0.02685472 0.033142727 -0.025734702 0.04788986
000110 51 5d 5e 3d 79 c1 a7 3d bd 66 e2 3c 7c 7b 93 3d
       0.054288212 0.08191199 0.02763688 0.07201287
000120 1b 12 b0 bc be 70 ae 3d 10 f2 9e 3b e5 d8 59 3d
       -0.021493008 0.085175976 0.0048506334 0.053185362
000130 47 68 c4 bb 2b 39 11 3c 8f 70 77 bc 5d e5 1f 3e
       -0.005993876 0.008863728 -0.01510252 0.15614839
000140 b8 0a 71 3d c3 84 f8 bd 41 88 63 bd 5d 09 e1 bd
       0.058848113 -0.12134697 -0.055549864 -0.10988114
000150 9a e2 d4 3d 32 15 42 bd 94 2b 9e bc a8 0f 9a 3d
       0.10394783 -0.047383495 -0.019307889 0.075225174
000160 af e9 bf bd b4 ff b9 3c 80 4e e5 3d 12 e6 1d 3d
       -0.093707435 0.022704937 0.11196613 0.03854949
000170 ff 62 d3 3d 53 56 25 3e 46 a7 f8 bc 3d c9 ad 3d
       0.103216164 0.16146211 -0.0303532 0.08485649
000180 75 ac 35 3e 9e 01 6a bd 1c 5a c1 3d 45 82 03 bd
       0.17741568 -0.05713045 0.09441015 -0.032106657
000190 3e 11 4e 3c 9a 42 a4 3d 3a 12 6c 3b dd 6a 79 3d
       0.012577353 0.08020516 0.0036021606 0.06089293
0001a0 c3 c5 eb bd bb 97 03 bd b1 e9 db bc 7c 2e f6 3d
       -0.115123294 -0.032127123 -0.026844831 0.12020585
0001b0 2c 7a c2 bb 55 3f ee bd 39 b7 3e bc 26 b4 f0 bd
       -0.005934974 -0.116331734 -0.011640363 -0.117531106
0001c0 62 03 95 3d 9a 33 11 3e d3 05 dc bd 04 2c f1 3d
       0.07276036 0.1417984 -0.107432984 0.117759734
0001d0 06 44 da 3d ac 65 dc bd 47 01 5a 3d 9c 9d 09 3e
       0.10657506 -0.1076158 0.053223874 0.1343903
0001e0 ff af 05 3e ce c1 07 3d 31 de d9 3d 57 e2 1d bd
       0.13055418 0.03314381 0.10638083 -0.038545933
0001f0 fe 1b 0c 3e fe 0c 19 3e 04 18 2f be 48 c8 cb bd
       0.13682553 0.14946362 -0.17099005 -0.0995031
000200 4f 78 e2 bd 14 14 10 3c bb cb 1f 3d 0f 3a d6 3d
       -0.11058103 0.0087938495 0.039012652 0.104602925
000210 26 c6 c2 3d 59 c7 eb bd c2 90 08 3e ee 27 06 3e
       0.0951045 -0.11512632 0.1333647 0.1310117
000220 7e be 24 bd 3f 9c 12 3e 40 31 9f 3d 56 af 8e bc
       -0.04022073 0.14317416 0.077730656 -0.017417591
000230 63 b2 75 3d b7 08 be bd d5 00 00 be e8 08 06 3e
       0.059984576 -0.09279006 -0.12500317 0.13089335
000240 09 98 e8 3d 53 ed a7 bc a3 2b 01 bd f2 ea 5c 3c
       0.113571234 -0.020498907 -0.031535756 0.01348375
000250 22 c5 b6 3d 82 34 bc bd 5d d4 44 bc 0e a5 e7 bc
       0.08924319 -0.091897026 -0.012013522 -0.028276946
000260 aa d6 47 3d 88 93 fa bd 64 f5 ee 3d bb 98 c0 3d
       0.048788704 -0.122351706 0.11667898 0.09404131
000270 bf 6f f0 3d 72 0b 73 3d df 39 5c bd a2 7a 95 3d
       0.11740064 0.059337087 -0.053766128 0.07298781
000280 96 6c aa 3c 2f 6f fe 3d 73 a0 4b 3d 57 b8 2f bd
       0.020803731 0.1242355 0.049713563 -0.04290041
000290 6c fc e9 3d 21 34 be 3d 16 8c 5a bc d2 52 70 bd
       0.11425099 0.092872865 -0.013339063 -0.058672734
0002a0 8b 97 43 3d 06 1f c8 3c df a3 50 bd 5b 2c 9d ba
       0.047751945 0.024428856 -0.05093753 -0.0011991368
0002b0 f5 ee 04 3e 1d 95 03 3c a8 39 98 3d 48 1f 5f bd
       0.1298178 0.008031157 0.07432872 -0.05447319
0002c0 d6 77 bd 3c e9 50 26 3e 01 0e 17 3e cf 88 be 3d
       0.023128431 0.16241802 0.14751436 0.09303438
0002d0 63 77 fe 3c 9e d2 74 bd 54 05 a1 3d 82 b7 10 3e
       0.031062787 -0.059771173 0.078623444 0.14132503
0002e0 66 64 de 3d d3 26 00 be 23 f7 28 bc d0 f9 0e bb
       0.10858993 -0.1251481 -0.010312828 -0.002181638
0002f0 52 1f d0 3c b8 18 90 bc 39 19 03 be 45 dc a8 3c
       0.02540556 -0.017589912 -0.1280259 0.020612845
000300 11 ae 2c 3d 52 c1 b1 bd cf ea b0 3d b1 98 e4 bc
       0.04215819 -0.08679451 0.08638536 -0.02790484
000310 be 82 47 bd 44 e6 db 3d 48 66 8d 3d d8 d1 bd bc
       -0.04870867 0.10737279 0.06904274 -0.02317135
000320 c6 2a e6 bd 6c ac 46 bc 13 11 58 bd 51 28 d5 bd
       -0.11238627 -0.0121260695 -0.05275066 -0.1040808
000330 cf e9 ad 3d db 5a 07 3d fa 77 04 be df 20 bf 3d
       0.08491861 0.03304563 -0.12936392 0.093324415
000340 09 b8 c8 bd 10 55 f8 bd 09 c9 d4 3c bd 13 ea bd
       -0.09800727 -0.121255994 0.025974767 -0.11429546
000350 1c d8 90 3c 83 d7 04 3d be 5c a4 3d 8d fb 1a bd
       0.017681174 0.03243209 0.08025502 -0.037837554
000360 da 11 2c bc d4 25 99 3d 1f 02 25 bd 0b 9b b7 bd
       -0.010502303 0.07477918 -0.040285226 -0.08965119
000370 fb f6 ed bd a2 e8 97 bd 2d 91 fe 3d 7b 3c 55 bd
       -0.116193734 -0.07417418 0.12430034 -0.05205963
000380 b0 24 fd bc 46 e1 d7 bd 8f 68 fc bd 0e f6 06 be
       -0.030901283 -0.105410144 -0.123246305 -0.131798
000390 34 12 ca bd b6 d4 b0 bd 33 38 ab 3d b8 fa 1f bc
       -0.09866753 -0.086343214 0.083603285 -0.009764366
0003a0 09 35 9a 3d 8c 60 b3 3d d2 9b 3b 3e 82 b8 51 bd
       0.07529647 0.08758649 0.1832116 -0.05120135
0003b0 92 16 93 bc 44 dc 35 3d 06 f6 f8 bc 1c ed 7a 3d
       -0.017955098 0.044399515 -0.03039075 0.06126128
0003c0 38 38 27 3d 36 18 4e 3d 52 a1 30 3d 30 d7 e2 bd
       0.0408251 0.050316058 0.043122597 -0.110762
0003d0 40 1c 57 bd ae 52 f2 bd c7 f3 00 be bc c6 27 bd
       -0.052517176 -0.11832176 -0.12592994 -0.040961012
0003e0 e7 01 7c bd e2 ee 08 3d 14 1d b2 bd 4a 61 a9 3d
       -0.06152525 0.03343094 -0.086969525 0.082705095
0003f0 00 a5 bc 3d 82 dd 13 bd 7b c4 11 3e 83 e5 5e bd
       0.09211159 -0.03609992 0.14235108 -0.0544181

encoder.linear.bias f4 [40]
000000 19 17 2c 3c e7 51 18 bc bd 29 a2 bc dc a0 1a bb
       0.010503554 -0.009296871 -0.019795293 -0.0023594415
000010 e6 6d cb b9 b8 a2 68 3b 16 ae 0b 3c 41 f2 5b bb
       -0.00038801058 0.0035497379 0.008525392 -0.0033561143
000020 f4 3f 7c b9 97 07 38 bb f6 d2 31 3b 99 04 49 bc
       -0.00024056417 -0.0028080696 0.00271338 -0.012269163
000030 53 89 15 3c e7 4d 6d bb 70 65 e8 b9 95 33 11 bc
       0.009126979 -0.0036209763 -0.00044326065 -0.008862396
000040 15 f3 2c bc 14 ee e1 3b 08 53 16 bb 61 d1 a1 ba
       -0.010556002 0.006894836 -0.0022937674 -0.0012345725
000050 a7 10 8f bb 4e b6 33 bc d2 f4 92 bc 96 6c 2a bb
       -0.004365999 -0.010968758 -0.017939005 -0.0026004664
000060 d8 ef 66 bb 3b 22 6a bb fd ad 65 3b 8c 53 01 3c
       -0.0035238173 -0.003572597 0.0035046332 0.007893454
000070 74 ff ff ba 46 3e 39 3c f6 af 07 bc 63 12 71 bb
       -0.0019531087 0.011306351 -0.008281698 -0.003678464
000080 26 c7 83 3a 8c 28 b7 3b c2 29 c3 bb 31 25 39 bc
       0.0010053858 0.0055895504 -0.0059559057 -0.011300371
000090 94 4e 9c 3b c0 53 8e bc ae 0c 8e 3b d6 6b 50 bb
       0.0047701094 -0.01737392 0.0043350076 -0.0031802556

encoder.linear_.weight f4 [40, 2500]
000000 d1 f7 f2 bd 12 b7 6f be a9 02 37 be b0 52 6d be
       -0.118636735 -0.2340968 -0.17872109 -0.23176074
000010 bc e3 07 be 04 51 6f be 16 36 45 be c5 69 ad bd
       -0.13270468 -0.23370749 -0.19258913 -0.084674396
000020 a0 6b 87 be 4c 55 56 be f9 b7 7e be a0 d0 48 be
       -0.264493 -0.20930976 -0.24874867 -0.19610834
000030 e4 07 0a be 39 6a 56 be 62 24 20 be d3 7e 83 be
       -0.13479573 -0.20938958 -0.15638879 -0.25682697
000040 b6 f9 18 be 77 8b e9 bd df 79 0e be 40 b6 91 be
       -0.14939007 -0.11403554 -0.13913678 -0.28459358
000050 16 d3 10 be c2 2c 84 be 39 4b 49 bd 91 80 b2 bd
       -0.14143023 -0.25815398 -0.049144004 -0.08715928
000060 58 51 26 be ad 56 91 be 2b 2f bf bd 1e b4 80 be
       -0.16241968 -0.2838644 -0.093351685 -0.25137419
000070 80 0b 85 be 73 55 11 be 3a 40 9d be 96 3a 6e be
       -0.25985336 -0.14192753 -0.30713063 -0.23264536
000080 c7 f1 1d be b3 06 6e be 7a 66 50 be c0 66 92 be
       -0.15424262 -0.23244743 -0.20351592 -0.28594017
000090 3b 66 17 be fe 93 0b be f3 03 27 be 6d 96 79 be
       -0.14785092 -0.13630673 -0.163101 -0.24373789
0000a0 f4 96 90 be 0f e3 4b bd b0 a1 54 be 0f 87 3b be
       -0.28240168 -0.049777087 -0.20764804 -0.1831324
0000b0 d0 5d 20 be f6 5b 16 be a0 8b 5e be 97 fd 82 be
       -0.15660787 -0.14683518 -0.2173295 -0.255841
0000c0 15 29 0b be cc 69 5a be f8 77 60 be 59 da 42 be
       -0.1358989 -0.21329421 -0.21920764 -0.19028606
0000d0 65 03 81 be ea 4d 79 be f3 39 31 be 73 b8 33 be
       -0.25197902 -0.24346128 -0.17307262 -0.1755083
0000e0 26 7e 7e be 94 e2 7f be 12 9e 65 be 06 16 c7 bd
       -0.2485281 -0.24988776 -0.2242358 -0.097209975
0000f0 b0 7a 50 be a4 35 01 be a9 18 7d bd f5 51 74 bd
       -0.20359302 -0.12618119 -0.061791096 -0.059648473
000100 54 46 3f be 7f cc 33 be 06 a2 2d be d8 62 a0 be
       -0.18679172 -0.17558478 -0.16956338 -0.31325412
000110 a9 be 89 be 3a d3 6b be 7a 16 14 be b8 99 4c be
       -0.26903275 -0.23029795 -0.14461699 -0.19980514
000120 24 9f 8d be 54 93 6c be 40 df 71 be 44 57 46 be
       -0.27660477 -0.23103076 -0.2362032 -0.19369227
000130 f0 b5 4d be 83 9a 2e be 30 56 78 be 10 f1 1b be
       -0.20088935 -0.17051129 -0.24251628 -0.15228677
000140 a4 ee 27 be b2 27 47 be ea e3 e9 bd 66 1c 44 be
       -0.16399628 -0.19448736 -0.11420424 -0.19151458
000150 e8 3d 7c be 05 49 a1 bd cd e1 6d be 94 1c 5d be
       -0.2463299 -0.078752555 -0.23230667 -0.21592933
000160 2b b5 47 be 7c c7 54 be 61 7a 8f be af 4e 39 be
       -0.19502704 -0.20779222 -0.28023055 -0.18096422
000170 f4 bb eb bd 54 c0 d5 bd 96 31 5d be 6b 8f b9 bd
       -0.115104586 -0.10437074 -0.21600947 -0.09060558
000180 c3 b7 4d be b5 32 82 be f1 a1 15 bd f2 13 d0 bd
       -0.20089631 -0.2542931 -0.036531392 -0.10160054
000190 f4 47 8b be d6 2c 38 be b1 ec 28 be 32 e2 df bd
       -0.27203333 -0.17985854 -0.1649654 -0.10931815
0001a0 0f 66 41 be 59 55 dd bd d6 25 89 be d7 40 23 be
       -0.18886589 -0.108072944 -0.2678668 -0.15942703
0001b0 12 ca 54 be 5f 0d 17 be 78 48 63 be 89 f4 a9 bd
       -0.20780209 -0.14751194 -0.22195613 -0.082985945
0001c0 92 ca 3b be bd 2b 94 be a0 41 5e be 11 d6 81 be
       -0.18338993 -0.2893962 -0.21704721 -0.25358632
0001d0 98 8a 49 be 30 fe 65 be b9 10 23 be 78 2e 8c be
       -0.19681776 -0.22460246 -0.15924348 -0.27379203
0001e0 19 bd 40 be 05 95 37 be de 17 60 be 16 a7 4d be
       -0.18822135 -0.1792794 -0.21884105 -0.2008327
0001f0 15 0f 42 be ee 44 3d be dd 35 4c be e3 b2 4c be
       -0.18951066 -0.18483326 -0.19942422 -0.19990115
000200 b8 d6 62 be d3 01 53 be 92 b6 1b be 53 ea 2c be
       -0.22152221 -0.20606165 -0.15206364 -0.16886263
000210 e7 6a 2d bd cf 1b 56 be 04 64 7a be ce 1e 54 be
       -0.04233828 -0.20909046 -0.24452215 -0.20714876
000220 ff 93 0d be e0 2e 27 be 1f 7c 03 be a5 f0 1e be
       -0.13825987 -0.16326475 -0.12840317 -0.15521486
000230 bb 2b 58 be a3 f2 1c be f6 70 9f be 88 8a 4b be
       -0.21110432 -0.15326934 -0.3114087 -0.19877064
000240 0f 4a 56 be 4e 6c 76 be ee ad 12 be 53 14 34 bd
       -0.20926689 -0.24064752 -0.14324161 -0.043964695
000250 1d d9 53 be 9d ef 2f be cf 51 5a be 7e b9 2d be
       -0.20688291 -0.17181249 -0.2132027 -0.16965291
000260 ce 1e 5b be 19 43 71 be 73 47 fd bd e4 b2 1e be
       -0.2139847 -0.23560752 -0.123671435 -0.15497929
000270 70 d2 30 be 55 77 35 be 71 e8 ab be e5 c1 27 be
       -0.17267776 -0.17721303 -0.33575776 -0.16382559
000280 4b 5d ec bd e4 4e 88 be ad 03 74 be 7b 5a 28 be
       -0.11541232 -0.2662269 -0.23829527 -0.16440766
000290 fc e0 f4 bd 57 91 1d be f9 dd 9b be 83 66 52 be
       -0.11956975 -0.15387474 -0.3044279 -0.20546918
0002a0 f6 05 ba bd c6 f7 6f be 44 03 4d be 0c b3 59 be
       -0.09083168 -0.23434362 -0.20020777 -0.21259707
0002b0 a5 5f 2a be ee ed 5f be e1 59 79 be fc 23 5e be
       -0.16638048 -0.21868107 -0.24350692 -0.21693414
0002c0 a9 1c 75 be 1c 97 66 be a2 4c 70 be 7b 75 3b be
       -0.23936714 -0.22518581 -0.23466733 -0.18306534
0002d0 7d c7 06 be c1 8e 0a be 05 8f 95 bc a7 89 ef bd
       -0.13162036 -0.13531019 -0.018256674 -0.11696177
0002e0 a1 e1 67 be 56 90 2b be c7 c5 92 be a9 4f 01 be
       -0.22644664 -0.16754279 -0.28666517 -0.12628044
0002f0 ba 25 01 be c8 d4 2f be 1f b1 60 be 8b ed 99 be
       -0.12612048 -0.17171013 -0.21942566 -0.30064043
000300 1e ba 46 be d8 90 28 bd 31 61 8e bc bb 53 16 bd
       -0.19406936 -0.04115376 -0.017380329 -0.036700945
000310 2a 11 8f be 56 b5 4e be f0 e1 02 be fb 03 5d be
       -0.27942783 -0.20186362 -0.12781501 -0.2158355
000320 4e c2 83 be ae 8a 83 be af b8 b6 be 71 11 24 be
       -0.2573418 -0.25691742 -0.35687777 -0.16022278
000330 12 5d 50 be 5f cb 2b be 80 80 4f be d9 fe 03 be
       -0.20348004 -0.16776799 -0.20263863 -0.12890185
000340 e7 ef 7b be 38 e7 93 be 49 22 89 be 08 a2 3a be
       -0.24603234 -0.28887343 -0.2678397 -0.18225873
000350 8e cb ef bd df 21 7b bd 3f 42 26 be 1e f2 28 be
       -0.11708747 -0.0613116 -0.16236208 -0.1649861
000360 61 e2 07 be 54 f6 8b be dc 40 67 be 39 e6 83 be
       -0.1326995 -0.2733637 -0.22583336 -0.25761583
000370 92 40 68 be 47 1f f5 bd a6 c4 3c be 93 4a 40 be
       -0.22680882 -0.11968856 -0.1843439 -0.18778448
000380 75 de 79 be 5e 37 82 bd bb d0 39 be e4 fd 54 be
       -0.24401267 -0.06358217 -0.1814603 -0.20799977
000390 0c 4f 5c be 2d 14 59 be 5c 46 9d bd 5a 4a 36 be
       -0.21514529 -0.21199103 -0.076794356 -0.178018
0003a0 8b 17 4e be 1a 50 1d be e5 e1 01 be cf 77 39 be
       -0.20126168 -0.15362588 -0.12683828 -0.1811211
0003b0 b0 79 3b be 4a 73 39 be 2d f4 4c be c9 67 5b be
       -0.18308139 -0.18110386 -0.2001502 -0.2142631
0003c0 c9 f4 2a be 22 fd ee bd 70 71 2f be 61 da ec bd
       -0.1669494 -0.11669375 -0.17133117 -0.1156509
0003d0 43 0e 2d be a2 fd 20 be c2 d4 87 bd 38 c5 5e be
       -0.16899972 -0.15721753 -0.06632377 -0.2175492
0003e0 b2 3a 84 be 91 d5 e1 bd a9 e2 82 be 6c 90 43 be
       -0.2582603 -0.11027063 -0.25563553 -0.19098061
0003f0 cc e2 ad bc 4d 7f ef bd 1f b7 e2 bd c2 40 37 be
       -0.02122631 -0.116942026 -0.11070084 -0.17895797

encoder.linear_.bias f4 [40]
000000 36 2c c2 be 60 67 b0 be ae 90 bc be e7 fd c5 be
       -0.37924355 -0.3445387 -0.36829132 -0.38670275
000010 b3 e9 c6 be 97 6e b9 be 49 1d bf be 86 a7 b1 be
       -0.38850173 -0.36217186 -0.3732703 -0.34698123
000020 d4 12 b5 be 74 69 be be 98 b6 b6 be 21 42 c3 be
       -0.35365927 -0.3718983 -0.35686183 -0.3813639
000030 98 e3 c1 be bc 85 b4 be 57 27 b9 be af c0 b8 be
       -0.37868953 -0.3525828 -0.36162826 -0.36084506
000040 e9 cc ba be b0 81 b8 be e1 1b c8 be e7 52 c5 be
       -0.3648446 -0.36036444 -0.3908377 -0.38539812
000050 a2 de c4 be 8b 9b b3 be ba b4 c7 be 10 25 b5 be
       -0.38451105 -0.35079607 -0.3900507 -0.3537984
000060 1a ba b7 be c7 ff c0 be 6d ae bf be f3 6c af be
       -0.35884172 -0.37695143 -0.37437764 -0.3426281
000070 c9 04 b8 be c7 90 bb be 3b 40 bf be 65 48 c9 be
       -0.3594115 -0.36633894 -0.3735369 -0.39313045
000080 df f9 bd be 51 63 cd be 06 93 b1 be c4 52 c7 be
       -0.371047 -0.40114835 -0.34682482 -0.38930333
000090 da 16 c2 be 6b 83 bd be 5d 15 b6 be 55 3c c2 be
       -0.3790806 -0.37014326 -0.35563174 -0.37936655
