VGDAE_tnnls/visual/VGAE/Cora_vgae.pth (torch, 190039 bytes, 6 tensors)

encoder.conv1.bias f4 [32]
0.26156446 0.2971178 0.24948001 0.24432887 0.25391856 -0.060372874 0.17008194 -0.06024003
0.34374 0.26020908 0.25734633 0.25180784 -0.06004858 -0.060304783 -0.06051717 0.09112471
0.26883915 -0.060596503 -0.05956692 0.27324986 0.24003239 0.21646439 0.25794503 -0.059743423
-0.060230587 -0.059832968 0.23737358 0.12022469 -0.060031146 -0.060776304 -0.060752753 0.24473695
00000000: c7eb 853e d31f 983e b077 7f3e 5931 7a3e
00000010: 9d01 823e 8c49 77bd f629 2e3e 40be 76bd
00000020: b0fe af3e 203a 853e e6c2 833e f5ec 803e
00000030: 80f5 75bd 2602 77bd dae0 77bd 989f ba3d
00000040: 49a5 893e 0a34 78bd 71fc 73bd 68e7 8b3e
00000050: 0dcb 753e d7a8 5d3e 5f11 843e 85b5 74bd
00000060: 59b4 76bd 6a13 75bd 0f12 733e 5d38 f63d
00000070: 38e3 75bd 93f0 78bd e1d7 78bd 539c 7a3e

encoder.conv1.lin.weight f4 [32, 1433]
-0.014411055 -0.02242414 0.18779953 0.58167857 0.3237855 0.2904109 0.20908251 0.75599897
0.075176835 0.54929286 0.2079966 -0.03782304 0.13162579 0.39668292 0.35995853 -0.38996437
-0.27633205 -0.3054481 -0.025013695 0.09551835 -0.016508399 1.1188753 0.28593016 0.103194594
1.5041555 0.41852188 0.29075304 0.044467717 0.84905726 0.75845295 -0.4102234 -0.029410167
-0.23019263 0.12264861 -0.07148014 0.31490946 0.31272128 -0.05247123 0.42908165 0.45469406
-0.04300667 0.19248721 -0.22952773 -0.37167636 0.3009884 0.43505648 -0.064411916 0.38320363
-0.003360147 0.82023484 0.07158286 0.22926874 0.5558176 0.24925034 0.18410644 0.38982192
0.6509295 0.14888449 0.15472044 0.39714426 -0.6455082 0.28800884 -0.53655684 0.081840396
0.50922745 0.59269303 -0.0072214482 -0.047920175 0.5987592 0.079737 1.0241352 0.99998164
-0.09650201 0.07448206 0.7715928 -0.113157704 -0.29941493 0.11809268 0.45491776 0.13621408
0.74467015 0.6308009 0.30721447 -0.2595876 -0.22871561 -0.21206947 0.33040452 0.16647571
0.19234005 0.008821497 -0.16470198 0.014553088 0.39235225 0.5761594 0.5579461 -0.17965035
0.4574081 0.19610155 0.65299064 0.29518968 -0.16913718 -0.23106723 0.31901708 -0.121693745
0.36871293 0.38062164 0.53461134 -0.29460517 -0.112612575 0.33367017 0.4047992 0.65987957
0.3755964 -0.48921937 -0.09240236 -0.25174558 -0.5632339 0.08206159 0.13779743 0.12690137
-0.32467306 0.22990039 0.55194455 0.53001547 0.33319426 0.23749736 0.46820635 0.73835236
0.33119023 -0.07398718 0.083079524 0.5592216 0.41387072 0.7323151 0.17997853 0.66983676
0.2648298 0.41858888 -0.78135604 0.82395774 -0.18454579 1.0267117 0.33172232 0.4033343
0.10323542 -0.005144937 0.441433 0.4338894 0.12865186 0.24004433 0.24841215 0.60315377
0.7354341 -0.054972377 0.013746149 0.5552951 0.52011025 0.3068932 0.25561684 0.33181703
0.19300807 0.37031755 0.3267585 -0.033870146 0.267324 0.44579902 -0.2960786 -0.30090418
0.2162478 0.29048708 0.8261488 -0.19313414 0.3607054 0.58933693 -0.01983829 -0.3805638
-0.14646931 0.41554853 0.9149605 0.47012964 0.102655396 0.11310948 0.19946744 -0.5024948
0.47255585 -0.14765906 0.52928007 0.37067646 -0.24490893 -0.41580862 0.16349323 0.15737255
-0.11771465 -0.3131497 0.31402072 0.52879757 0.48647168 0.5521946 0.17385818 0.12775092
-0.27028176 -0.26905683 0.8666197 0.48805407 -0.44837254 0.60279757 0.6821038 -0.1069176
-0.09012287 -0.059592772 0.019948969 0.7602209 1.1973139 -0.2707622 -0.29568073 -0.0989246
-0.103656664 0.11439272 -0.057930183 0.25025412 0.65796477 -0.17920132 -0.14112099 -0.16427466
-0.055144086 0.30589426 0.13978605 -0.42588922 0.5951222 0.36349532 0.36752567 0.057566978
-0.42481366 0.38240722 0.35794568 0.0722183 0.4338059 0.91485083 0.15170658 0.50268745
0.0009568868 0.08223265 -0.29462883 0.23272459 0.89245164 0.67587006 -0.1210898 0.107395515
-0.35857365 0.41188306 0.23015933 0.23731625 0.32493055 -0.13394901 0.54433805 -0.47351262
00000000: 581c 6cbc d4b2 b7bc 854e 403e e3e8 143f
00000010: 37c7 a53e bdb0 943e ba19 563e 2689 413f
00000020: 50f6 993d 759e 0c3f 10fd 543e 55ec 1abd
00000030: e9c8 063e 061a cb3e 7c4c b83e 69a9 c7be
00000040: 657b 8dbe b263 9cbe 85e9 ccbc 209f c33d
00000050: 9f3c 87bc 4e37 8f3f 7065 923e b057 d33d
00000060: 2b88 c03f 8048 d63e 95dd 943e c823 363d
00000070: d15b 593f f929 423f cd08 d2be 97ed f0bc
00000080: 9eb7 6bbe 322f fb3d 2e64 92bd d03b a13e
00000090: 011d a03e 13ec 56bd 97b0 db3e a9cd e83e
000000a0: c327 30bd 5e1b 453e 5109 6bbe 5d4c bebe
000000b0: 271b 9a3e b9bf de3e 65ea 83bd 4433 c43e
000000c0: e935 5cbb e9fa 513f 099a 923d 6dc5 6a3e
000000d0: 104a 0e3f 7b3b 7f3e 6686 3c3e bd96 c73e
000000e0: 51a3 263f 2d75 183e 096f 1e3e 7e56 cb3e
000000f0: 0740 25bf e575 933e ca5b 09bf f09b a73d
00000100: bb5c 023f bbba 173f e6a1 ecbb f247 44bd
00000110: 4848 193f 274d a33d dd16 833f ccfe 7f3f
00000120: d9a2 c5bd 0d8a 983d 1b87 453f 3abf e7bd
00000130: ea4c 99be 93da f13d fbea e83e b47b 0b3e
00000140: b4a2 3e3f 2b7c 213f 374b 9d3e aae8 84be
00000150: 6d34 6abe bd28 59be c82a a93e 9c78 2a3e
00000160: caf4 443e 0a88 103c a3a7 28be 1370 6e3c
00000170: 65e2 c83e 2f7f 133f 8ed5 0e3f 43f6 37be
00000180: 6531 ea3e d8ce 483e 652a 273f 1a23 973e
00000190: 4c32 2dbe e39c 6cbe 3556 a33e 923a f9bd
000001a0: f1c7 bc3e d7e0 c23e 4adc 083f 7dd6 96be
000001b0: 6ca1 e6bd d1d6 aa3e d741 cf3e deed 283f
000001c0: 2c4e c03e f67a fabe 733d bdbd cce4 80be
000001d0: 1930 10bf e80f a83d c51a 0d3e 6ff2 013e
000001e0: 8c3b a6be 026b 6b3e 3d4c 0d3f 18af 073f
000001f0: 7098 aa3e 8232 733e beb8 ef3e a904 3d3f
00000200: c491 a93e 9786 97bd 9925 aa3d 2629 0f3f
00000210: dde6 d33e 0179 3b3f 4b4c 383e 6c7a 2b3f
00000220: c697 873e 4851 d63e f306 48bf e5ee 523f
00000230: 92f9 3cbe 4a6b 833f 82d7 a93e d581 ce3e
00000240: 186d d33d dc96 a8bb 8203 e23e c026 de3e
00000250: 50bd 033e 2ece 753e c15f 7e3e 4968 1a3f
00000260: 6945 3c3f b72a 61bd 8737 613c d227 0e3f
00000270: f225 053f 1b21 9d3e 36e0 823e ece3 a93e
00000280: e8a3 453e 439a bd3e e44c a73e 6cbb 0abd
00000290: b1de 883e c53f e43e 9d97 97be 1d10 9abe
000002a0: 1070 5d3e b9ba 943e 7d7e 533f f5c4 45be
000002b0: 61ae b83e c9de 163f e983 a2bc 42d9 c2be
000002c0: 0dfc 15be c7c2 d43e da3a 6a3f d5b4 f03e
000002d0: fe3c d23d f1a5 e73d 3141 4c3e 80a3 00bf
000002e0: d7f2 f13e f033 17be e67e 073f 4ec9 bd3e
000002f0: 68c9 7abe dee4 d4be c56a 273e 4526 213e
00000300: 6114 f1bd 2855 a0be 53c7 a03e 475f 073f
00000310: d112 f93e a05c 0d3f e107 323e 23d1 023e
00000320: 5f62 8abe d1c1 89be cada 5d3f 39e2 f93e
00000330: 1691 e5be f150 1a3f 5b9e 2e3f 9df7 dabd
00000340: 5792 b8bd 8d17 74bd 056c a33c d69d 423f
00000350: 9541 993f 58a1 8abe 7763 97be fb98 cabd
00000360: f249 d4bd bb46 ea3d 3348 6dbd 4f21 803e
00000370: 6170 283f 8d80 37be 0582 10be 9e37 28be
00000380: c4de 61bd 2c9e 9c3e 1324 0f3e 270e dabe
00000390: ee59 183f 0f1c ba3e 532c bc3e 5acb 6b3d
000003a0: 2d81 d9be e1ca c33e a844 b73e 30e7 933d
000003b0: cf1b de3e aa33 6a3f f858 1b3e 20b0 003f
000003c0: 96d7 7a3a 9769 a83d 97d9 96be 5b4f 6e3e
000003d0: b677 643f d205 2d3f eefd f7bd 2ef2 db3d
000003e0: f796 b7be 56e2 d23e e3ae 6b3e 0803 733e
000003f0: 4c5d a63e ee29 09be bd59 0b3f 3f70 f2be

encoder.conv_mu.bias f4 [16]
-0.3566444 -0.012605902 0.0757646 0.01837558 0.10930406 -0.05738429 0.061003428 -0.062341545
0.018838208 -0.2387334 0.04125204 -0.005980867 0.02929718 -0.03518221 -0.30038637 0.082163624
00000000: 189a b6be fc88 4ebc 782a 9b3d 6288 963c
00000010: cfda df3d ca0b 6bbd bbde 793d d959 7fbd
00000020: 9652 9a3c 8776 74be e6f7 283d 26fb c3bb
00000030: a400 f03c 391b 10bd 3ecc 99be 6745 a83d

encoder.conv_mu.lin.weight f4 [16, 32]
0.6330638 0.04834117 -0.20328449 0.059516042 0.15487495 0.26462355 -0.5789619 -0.036876604
-0.47215298 -0.08988646 0.4571376 0.26573277 -0.2043973 0.18922603 0.1907662 -1.1089541
0.08942192 0.20172645 0.025761878 0.010716955 0.4571779 -1.1794672 0.04161151 0.010301294
0.06725448 -0.043192457 0.4050926 -0.74529237 -0.018441033 0.19928615 0.13041297 0.31528643
0.4037217 0.46510923 0.17734839 0.028643755 -0.06061047 -0.23018888 -0.9251205 -0.27061787
0.7903904 -0.35607588 0.014216878 0.21678287 0.14817868 0.22030066 -0.27134502 -0.2740948
0.10002533 0.22045419 0.27191377 0.07551802 -0.00029671128 -0.9851782 -0.3902196 -0.032196805
-0.237322 -0.13709843 -0.16551101 -0.98644584 0.24999921 -0.16228773 -0.29521406 0.051212177
-0.0972082 0.10722206 0.21706451 -0.13784151 -0.15269877 -0.11840186 0.43949232 0.0090534575
0.6739506 -0.2822365 -0.19588469 0.30855975 -0.1258295 -0.076688744 0.075286366 1.0090432
-0.49271005 -0.28802717 -0.17138733 0.18917038 -0.4899467 0.7906673 -0.3876764 0.07276326
0.22014128 -0.043030895 -0.08369814 -0.16349927 -0.37084857 -0.37843546 0.051139325 -0.122204676
-0.047228232 0.053443342 -0.26686606 -0.11941484 0.5157415 0.25708193 0.6162213 -0.24845052
-0.7439736 -0.3479321 0.35325846 -0.38706955 0.1764343 0.24927425 0.27638075 -0.8200472
0.2907218 -0.018754397 0.2040292 -0.270448 0.37777236 -0.7448219 0.37658498 -0.2956911
-0.07609785 -0.059783485 -0.039915804 1.286894 0.12546772 -0.22629131 0.30389503 0.10439283
-0.3427407 0.14956746 0.13131678 -0.23086128 -0.12621562 0.19956106 0.8332005 -0.3131609
-0.23799956 0.049988855 -0.39639136 0.035376012 -0.27140427 0.25976607 0.060278997 -0.20824178
-0.12779458 -0.20256148 -0.2514493 -0.3296133 0.21955726 0.9059569 0.15615797 0.20896596
-0.21800125 -0.34216928 -0.19924738 0.84093153 -0.15291017 -0.26286146 0.07438426 -0.040968418
0.02243477 0.02188104 0.005420843 -0.032035146 -0.124607384 0.087803535 -0.27425545 0.21035483
0.10580677 0.28476936 0.024337946 -0.056799456 -0.031850856 -0.11665999 0.3284032 -1.0821933
0.3060025 0.36821818 0.26432848 -0.047472097 0.32159287 -0.41904825 0.1400078 -0.16780438
0.20662259 -0.038650684 -0.033186488 -0.7446731 -0.202534 -0.06348367 -0.27566007 0.061813813
-0.012512158 0.28653702 -0.33549047 -0.26123825 -0.40145844 -0.19007123 0.5892732 -0.34606957
0.14015333 0.3042617 0.21694216 -0.24990341 0.12725118 0.07740592 -0.20154294 -0.42275208
-0.107037604 -0.06777615 -0.33847225 -0.35032448 -0.24896179 1.0052963 0.08405759 -0.36545938
-0.0041588293 0.36648104 0.237633 -0.6322556 0.08170235 -0.09447742 -0.105077505 0.05812587
0.25519913 -0.20702319 -0.46899855 -0.2676459 0.36652836 0.21599141 -0.37999895 0.19210249
0.44532207 -0.0060372557 0.3434329 -0.18783627 0.29068825 0.15342951 -0.21256013 0.5955436
0.36653137 0.13319646 -0.26099834 0.386464 -0.076525725 -1.0918632 -0.3346276 0.040892497
-0.025876163 0.24024607 0.09064876 1.0005077 -0.27566543 0.28921163 -0.17811935 -0.36132485
00000000: 7810 223f 6401 463d cf29 50be 18c7 733d
00000010: 8a97 1e3e bd7c 873e d936 14bf ec0b 17bd
00000020: 09be f1be 6416 b8bd f10d ea3e 200e 883e
00000030: 874d 51be 78c4 413e 3758 433e 35f2 8dbf
00000040: d722 b73d 6191 4e3e 930a d33c 2b96 2f3c
00000050: 3913 ea3e c8f8 96bf d570 2a3d c2c6 283c
00000060: b8bc 893d 93ea 30bd 4c68 cf3e 7bcb 3ebf
00000070: a611 97bc ab11 4c3e fa8a 053e 396d a13e
00000080: 9cb4 ce3e cc22 ee3e d19a 353e 4fa6 ea3c
00000090: af42 78bd a2b6 6bbe b2d4 6cbf 6d8e 8abe
000000a0: 0657 4a3f 944f b6be e9ed 683c 54fc 5d3e
000000b0: 27bc 173e 7f96 613e bced 8abe 2756 8cbe
000000c0: 15da cc3d bebe 613e 4838 8b3e 31a9 9a3d
000000d0: ea8f 9bb9 a334 7cbf ddca c7be cce0 03bd
000000e0: 8a04 73be 8863 0cbe b87b 29be b787 7cbf
000000f0: cbff 7f3e c12e 26be 4c26 97be dcc3 513d
00000100: 1815 c7bd 3d97 db3d 2946 5e3e 5326 0dbe
00000110: 115d 1cbe ad7c f2bd 2305 e13e f454 143c
00000120: 0788 2c3f 4d81 90be ff95 48be 8bfb 9d3e
00000130: 73d9 00be fd0e 9dbd bd2f 9a3d 5428 813f
00000140: 7e44 fcbe 4c78 93be 2980 2fbe e1b5 413e
00000150: 4bda fabe 2c69 4a3f 857d c6be e704 953d
00000160: b76c 613e 2a41 30bd ee69 abbd 5a6c 27be
00000170: dddf bdbe 4bc2 c1be 7877 513d 7246 fabd
00000180: 6472 41bd 68e7 5a3d aba2 88be c58f f4bd
00000190: a307 043f 3ea0 833e aec0 1d3f d069 7ebe
000001a0: 0e75 3ebf 2824 b2be 4bde b43e fb2d c6be
000001b0: 31ab 343e c041 7f3e c781 8d3e 9dee 51bf
000001c0: 7dd9 943e d2a2 99bc 08ed 503e 2978 8abe
000001d0: 616b c13e a6ac 3ebf bfcf c03e d364 97be
000001e0: 31d9 9bbd 87df 74bd c17e 23bd f1b8 a43f
000001f0: 9c7a 003e e9b8 67be 2198 9b3e e8cb d53d
00000200: b67b afbe 3628 193e e877 063e e666 6cbe
00000210: ab3e 01be bc59 4c3e a14c 553f a056 a0be
00000220: 28b6 73be 1dc1 4c3d cff3 cabe 70e6 103d
00000230: 80f5 8abe 0f00 853e 1ce7 763d 553d 55be
00000240: 95dc 02be 476c 4fbe f6bd 80be 13c3 a8be
00000250: 9ed3 603e cbec 673f e0e7 1f3e 2cfb 553e
00000260: b83b 5fbe d030 afbe 8107 4cbe 4a47 573f
00000270: 7c94 1cbe c795 86be c656 983d 80ce 27bd
00000280: 1fc9 b73c de3f b33c 54a1 b13b 4937 03bd
00000290: 2832 ffbd 57d2 b33d 366b 8cbe 4267 573e
000002a0: 38b1 d83d 4acd 913e 5f60 c73c 8ca6 68bd
000002b0: 0b76 02bd 6feb eebd 7724 a83e 4f85 8abf
000002c0: 5cac 9c3e 1887 bc3e 1056 873e 1a72 42bd
000002d0: d2a7 a43e 7e8d d6be 345e 0f3e e9d4 2bbe
000002e0: df94 533e 2e50 1ebd 8eee 07bd e5a2 3ebf
000002f0: 1365 4fbe ba03 82bd 5123 8dbe 7b30 7d3d
00000300: cbff 4cbc fbb4 923e 68c5 abbe 05c1 85be
00000310: f68b cdbe 08a2 42be 9cda 163f 0830 b1be
00000320: 5b84 0f3e 31c8 9b3e 1626 5e3e aee6 7fbe
00000330: 224e 023e ff86 9e3d 4661 4ebe f672 d8be
00000340: 8836 dbbd 39ce 8abd 3c4c adbe bb5d b3be
00000350: d7ef 7ebe 8dad 803f 6326 ac3d 7e1d bbbe
00000360: ca46 88bb 67a3 bb3e 1156 733e 81db 21bf
00000370: 9053 a73d 617d c1bd e032 d7bd 6415 6e3d
00000380: 76a9 823e e3fd 53be 9420 f0be e208 89be
00000390: 9ba9 bb3e da2c 5d3e 398f c2be 84b6 443e
000003a0: 4101 e43e 2cd4 c5bb 70d6 af3e 2758 40be
000003b0: 17d5 943e a01c 1d3e 5da9 59be 8c75 183f
000003c0: 00aa bb3e a764 083e 93a1 85be 9cde c53e
000003d0: 85b9 9cbd 2cc2 8bbf 4f54 abbe e47e 273d
000003e0: 3ffa d3bc 1103 763e 0fa6 b93d a310 803f
000003f0: 0524 8dbe 8c13 943e eb64 36be 92ff b8be

encoder.conv_logstd.bias f4 [16]
-0.18175279 -0.23227112 -0.2333926 -0.19701007 -0.20934303 -0.18381906 -0.23711313 -0.22394092
-0.21685489 -0.1902835 -0.22234067 -0.20626847 -0.25308952 -0.2165708 -0.19958617 -0.2246327
00000000: 671d 3abe 7bd8 6dbe 78fe 6ebe 02bd 49be
00000010: 055e 56be 103b 3cbe c9cd 72be c550 65be
00000020: 350f 5ebe aed9 42be 46ad 63be 0b38 53be
00000030: f394 81be bcc4 5dbe 5160 4cbe 1d06 66be

encoder.conv_logstd.lin.weight f4 [16, 32]
-0.62748873 -0.6078223 -0.59859246 -0.4464843 -0.32512614 0.25979003 0.03579266 0.12010646
-0.5521767 -0.5155452 -0.07520658 -0.5334563 0.13063619 0.16938142 -0.14932932 0.350123
-0.057802714 0.18870264 -0.00826613 -0.37311286 -0.36099315 0.13218985 -0.40577462 0.05121043
0.18161123 0.070839845 -0.55693865 0.11248778 0.052571267 0.06816851 0.018804595 -0.3917397
-0.32428083 -0.1530427 -0.017708762 -0.27060616 -0.026395539 -0.0672542 -0.32412446 0.093482904
-0.13190107 -0.34995335 -0.091740966 -0.0596571 0.13288806 -0.033788733 0.28993723 -0.59636873
-0.6527229 -0.031159505 -0.36163494 -0.5958177 0.034283802 -0.80464095 -0.5452351 -0.1954297
-0.30729127 0.013385736 -0.6126668 -0.20509908 -0.39471424 0.08264449 -0.00625547 -0.61331266
-0.16209742 -0.028861238 -0.05264531 -0.64089537 -0.59307396 -0.045922067 -0.658665 0.03552377
-0.10716284 -0.14055507 -0.40401104 -0.464494 -0.24416512 0.06185086 -0.3184517 -0.19272248
-0.33379617 0.04760566 -0.14899294 -0.40946203 -0.3036718 -0.51649946 -0.049308375 -0.36204165
0.034778725 -0.091052674 -0.59594893 -0.5302219 -0.07210573 -0.18486035 -0.3626414 -0.2085851
-0.59841114 -0.42590368 -0.13961935 -0.5507812 -0.4274543 0.16613509 -0.39096627 -0.19102378
-0.3333982 -0.35922095 -0.5950023 -0.3781972 -0.4083269 0.13036604 0.1462723 -0.37443295
-0.2940622 -0.25333342 -0.08980972 -0.5437381 0.033237725 -0.35416678 0.0011118057 -0.22339068
0.23404938 -0.24500532 -0.5440499 -0.16398828 0.0073207663 0.28980273 -0.12942997 -0.17445704
-0.27524304 -0.40674877 0.03865884 -0.5816542 -0.5332347 0.10582491 -0.13083677 0.15284422
-0.45231998 -0.3300913 -0.22195598 -0.5075521 0.19134142 -0.117046386 0.041790437 -0.43133184
-0.026681216 -0.116357885 0.15507041 -0.20598167 -0.06574286 0.0011360479 -0.06583501 0.0930325
0.2519643 0.27271506 -0.5859158 -0.38383263 0.020532116 -0.26680398 0.124356076 -0.49429807
-0.50412863 -0.09259231 -0.48195592 -0.07181415 -0.358659 -0.4015022 0.1163359 0.2577721
-0.36068594 -0.3522816 -0.21428424 -0.31108502 0.20529453 -0.36151093 -0.109872445 0.15455745
-0.21077289 -0.11525251 0.039663106 -0.19706899 -0.5858612 0.34825522 -0.5448917 -0.10304503
0.059967216 -0.022621376 -0.559736 0.11800998 -0.11299339 -0.21518901 -0.032557968 -0.09663637
0.037137754 -0.15899429 -0.40074554 -0.2738292 -0.5023536 0.24434717 -0.2077726 -0.16479951
0.018045506 -0.41938636 -0.043339763 0.03850388 0.011219638 0.19922493 -0.32546806 -0.53297967
-0.46039328 -0.057345625 -0.15673633 -0.41024923 -0.35643533 -0.5720788 -0.44555894 0.08187119
0.13868654 -0.14436363 -0.4141854 -0.16826215 0.1826933 -0.1419814 -0.26775667 -0.36637518
-0.5035303 -0.48863742 -0.5048784 -0.5195602 -0.41569835 0.27633548 -0.34018746 0.2116082
-0.3959313 -0.31740317 -0.4298698 -0.21077527 -0.26978523 0.2455301 -0.09216853 -0.6167633
0.021634828 0.11300105 -0.15838312 -6.273691e-07 -0.02587165 -0.35210568 -0.6059533 0.25109443
-0.11860324 0.0036357993 0.0067862687 -0.65805346 0.18505813 0.04018124 -0.1857203 -0.14751202
00000000: 1aa3 20bf 3e9a 1bbf 5b3d 19bf 9799 e4be
00000010: ef76 a6be 3303 853e 539b 123d 60fa f53d
00000020: 745b 0dbf c5fa 03bf e805 9abd 9890 08bf
00000030: 7ec5 053e 5372 2d3e c9e9 18be 5243 b33e
00000040: 8ac2 6cbd 443b 413e aa6e 07bc a608 bfbe
00000050: 18d4 b8be c75c 073e b1c1 cfbe 07c2 513d
00000060: 4bf8 393e 7b14 913d 8893 0ebf fe5f e63d
00000070: f854 573d ef9b 8b3d 180c 9a3c 1b92 c8be
00000080: 2308 a6be 3ab7 1cbe f711 91bc e48c 8abe
00000090: 753b d8bc 92bc 89bd a4f3 a5be f773 bf3d
000000a0: 1311 07be 162d b3be b0e2 bbbd 015b 74bd
000000b0: cf13 083e 0e66 0abd a772 943e 9fab 18bf
000000c0: d918 27bf 3842 ffbc 3728 b9be 8287 18bf
000000d0: 2c6d 0c3d f3fc 4dbf 8794 0bbf b91e 48be
000000e0: 4855 9dbe d94f 5b3c bbd7 1cbf 7e05 52be
000000f0: fc17 cabe 8441 a93d b0fa ccbb 0f02 1dbf
00000100: defc 25be 676e ecbc 9ca2 57bd b811 24bf
00000110: b2d3 17bf c718 3cbd 459e 28bf 5f81 113d
00000120: 3178 dbbd abed 0fbe 89da cebe 28d2 edbe
00000130: 6c06 7abe 5457 7d3d 1a0c a3be 0b59 45be
00000140: 55e7 aabe 27fe 423d 9b91 18be 02a5 d1be
00000150: df7a 9bbe 4f39 04bf 94f7 49bd 865d b9be
00000160: 2374 0e3d d379 babd 1c90 18bf 9fbc 07bf
00000170: 2bac 93bd 084c 3dbe 22ac b9be 5597 55be
00000180: 7931 19bf 0c10 dabe 60f8 0ebe ffff 0cbf
00000190: 4adb dabe 511f 2a3e bb2c c8be bd9b 43be
000001a0: 2bb3 aabe cfeb b7be 1252 18bf 10a3 c1be
000001b0: 3910 d1be ad7e 053e 68c8 153e adb5 bfbe
000001c0: 528f 96be ebb4 81be 29ee b7bd 6c32 0bbf
000001d0: 4824 083d 5955 b5be 02ba 913a 87c0 64be
000001e0: a4aa 6f3e ade2 7abe db46 0bbf 8bec 27be
000001f0: 0ae3 ef3b 0661 943e 4a89 04be dea4 32be
00000200: a8ec 8cbe 6041 d0be bb58 1e3d 4ae7 14bf
00000210: 1282 08bf bbba d83d 13fa 05be 3283 1c3e
00000220: 7c96 e7be ba01 a9be 6e48 63be efee 01bf
00000230: 01ef 433e 04b6 efbd 732c 2b3d 87d7 dcbe
00000240: 9192 dabc 0b4d eebd c7ca 1e3e dcec 52be
00000250: 31a4 86bd 71e7 943a 81d4 86bd d387 be3d
00000260: 7701 813e 4fa1 8b3e 94fe 15bf b685 c4be
00000270: f832 a83c 889a 88be 66ae fe3d a314 fdbe
00000280: 930e 01bf 09a1 bdbd edc2 f6be 4c13 93bd
00000290: 27a2 b7be b291 cdbe 8441 ee3d b4fa 833e
000002a0: d4ab b8be 415e b4be 546d 5bbe 8946 9fbe
000002b0: bb38 523e f617 b9be ce04 e1bd 4f44 1e3e
000002c0: d9d4 57be 8209 ecbd c875 223d 74cc 49be
000002d0: 00fb 15bf 824e b23e 067e 0bbf 4609 d3bd
000002e0: 2fa0 753d 7750 b9bc dc4a 0fbf 37af f13d
000002f0: 1469 e7bd 825a 5cbe 815b 05bd 4ae9 c5bd
00000300: c21d 183d 66cf 22be 852e cdbe 5733 8cbe
00000310: 3f9a 00bf 2536 7a3e 57c2 54be 34c1 28be
00000320: 2bd4 933c cfb9 d6be 0985 31bd 3fb6 1d3d
00000330: 93d2 373c 9f01 4c3e c0a3 a6be 5b71 08bf
00000340: abb8 ebbe 3fe3 6abd 7d7f 20be 300c d2be
00000350: b17e b6be c273 12bf 4d20 e4be 15ac a73d
00000360: d803 0e3e 0fd4 13be 1c10 d4be ea4c 2cbe
00000370: f413 3b3e 9263 11be 6717 89be 8795 bbbe
00000380: 5de7 00bf af2e fabe b63f 01bf e601 05bf
00000390: 6ad6 d4be d87b 8d3e 0d2d aebe d2af 583e
000003a0: 82b7 cabe ab82 a2be e517 dcbe 79d5 57be
000003b0: 4a21 8abe 3e6c 7b3e dbc2 bcbd 33e4 1dbf
000003c0: 863b b13c 186d e73d 2f2f 22be 7a68 28b5
000003d0: c8f0 d3bc 3247 b4be c11f 1bbf 738f 803e
000003e0: 41e6 f2bd 9746 6e3b 595f de3b 3176 28bf
000003f0: e17f 3d3e 1595 243d 762d 3ebe 640d 17be
