work_work/baseline/ARGVA/arvga_cora_bias.pth (torch, 189505 bytes, 18 tensors)

encoder.conv1.bias f4 [64]
0.08713094 0.0895422 0.01791568 -0.014137641 0.07894956 0.09174086 -0.013164878 -0.014377627
-0.013696139 0.09441515 0.08352516 -0.014277377 -0.01429729 0.09525425 0.09651639 0.09800374
0.08407603 -0.0130106285 0.08087011 0.10063624 -0.01409245 0.08297666 0.0806945 -0.012401037
0.10104476 0.09535858 0.0877129 0.09795966 0.07056077 0.09109312 -0.011958007 -0.012601723
-0.0144309215 0.089424595 0.090360574 0.01081799 0.078899324 0.092522405 -0.014022131 0.088971555
0.09658972 0.08625955 -0.012700341 0.09474301 0.084011264 0.07957854 -0.010919721 0.07788974
0.07482295 0.082487896 0.08733319 -0.012428815 -0.01374798 0.08903651 0.094002075 0.08231615
0.08963595 -0.013467926 0.0874341 -0.013193628 -0.015196045 0.086016424 0.05613113 -0.012631222
00000000: b571 b23d e761 b73d e7c3 923c 90a1 67bc
00000010: 4fb0 a13d a2e2 bb3d 80b1 57bc 2390 6bbc
00000020: c565 60bc bb5c c13d 3d0f ab3d a9eb 69bc
00000030: 2e3f 6abc a914 c33d 63aa c53d 2fb6 c83d
00000040: 0e30 ac3d 882a 55bc 3a9f a53d 5f1a ce3d
00000050: 05e4 66bc abef a93d 2843 a53d b82d 4bbc
00000060: 8ef0 ce3d 5c4b c33d d2a2 b33d 139f c83d
00000070: 2a82 903d 088f ba3d 84eb 43bc 7577 4ebc
00000080: ac6f 6cbc 3e24 b73d f70e b93d f03d 313c
00000090: f895 a13d 637c bd3d 15bd 65bc b836 b63d
000000a0: d5d0 c53d d9a8 b03d 1715 50bc a008 c23d
000000b0: 190e ac3d 13fa a23d a1e8 32bc a884 9f3d
000000c0: c63c 993d 6aef a83d bedb b23d 3aa2 4bbc
000000d0: 353f 61bc c658 b63d 2984 c03d 5f95 a83d
000000e0: 0e93 b73d 93a8 5cbc a610 b33d 162a 58bc
000000f0: d5f8 78bc 6129 b03d c1e9 653d 2ff3 4ebc

encoder.conv1.lin.weight f4 [64, 500]
0.13043222 0.054813568 0.07248256 0.03246356 0.1929056 0.16008793 0.059560522 0.041008297
0.17275631 0.060455207 0.022831282 0.07498708 0.15262468 0.07988135 0.08505996 0.107562914
0.092312746 0.115042455 0.008656072 -0.0062900856 0.025142277 0.043179415 0.07515956 0.14322071
0.039446883 -0.0062742075 0.12362835 0.17053427 0.15206797 0.00095573306 0.15799527 0.011883879
0.15152383 0.14611374 0.143414 0.15314452 0.099688925 0.17414972 0.14213249 0.12401805
0.069913544 0.05572645 0.12655526 -0.013307144 0.11877232 0.13542964 0.07363139 0.00025954368
0.1476866 0.10159385 0.032700792 0.092349105 0.17646623 0.14734484 0.007553723 -0.013984083
0.17021134 0.15732487 0.14960636 0.07729512 0.017951481 0.1729006 0.12508638 -0.0030869327
-0.026838467 0.0074736867 0.10746098 -0.026458474 0.17892261 0.06683174 0.0121064 0.17729361
0.00055364746 0.091217496 0.08245502 0.06404674 0.036998753 0.06554643 0.036350563 0.09942577
0.17558677 0.12021368 0.045282446 0.10145751 0.033559088 0.051243674 0.05327857 0.034776565
0.15277441 0.08498402 0.15966114 0.051614434 0.16222782 0.08745784 0.16328736 0.019577442
0.046013385 0.07815411 0.10927935 0.11863613 0.12209652 0.0879415 0.07805902 0.102337815
-0.024058353 0.043344524 0.09831417 0.1701249 0.0134593425 0.09359942 0.014327322 0.17929672
0.15294026 0.11055842 0.08744434 0.048525058 0.074257575 -0.0064070374 0.04181645 0.024063906
-0.0070296507 0.0060949926 -0.009958882 0.15369757 0.077084534 0.16691527 0.10636288 0.04134042
0.012377027 0.15842831 0.0644866 0.021575434 0.12062916 0.17945744 0.08786588 0.16209449
0.027991064 0.024667792 0.08156055 0.18390284 0.16904339 0.046676453 0.13640043 0.033802032
0.16630562 0.13810967 0.07180953 0.10545866 0.055127412 0.0035618166 0.010846545 0.18534417
0.1358995 0.023769123 0.14869404 -0.002446897 0.07022043 0.13032828 0.11920443 -0.024190227
0.10934212 0.062468562 0.03387918 0.10148686 0.09694667 0.11405765 0.09895417 0.10008381
0.09247938 0.09188934 0.015428626 0.049429238 0.006481375 0.021080498 0.07624435 0.14200117
0.075656064 0.03126882 0.1405712 0.0012649975 0.07553425 0.18613492 0.07914533 0.058302395
0.124775775 0.045237795 0.09612595 0.14123924 0.063253105 0.05324109 0.09081437 0.1685846
0.04461424 0.11024858 0.10490192 0.18320778 0.12519589 0.120686404 0.02363182 0.049878705
0.12404121 0.06840563 0.115633346 0.08547055 0.14469911 0.17915022 0.1386587 0.16364837
0.025388725 0.16703747 0.03414412 0.05088783 0.055513717 0.06624484 0.03203342 0.10648677
0.19156507 0.15063237 0.16452117 0.020850454 0.06742628 0.12505303 0.08249572 0.01850915
0.09878436 0.05979462 0.06865424 0.13534206 -0.016220443 0.1713049 0.0009403021 0.116194196
0.12151345 0.012500683 0.0090395985 0.07706447 0.07936614 0.103340864 0.02538679 0.18337214
0.17431717 0.08384895 0.087942965 0.08414352 0.08632746 0.00095827953 0.10611133 0.035211943
0.07194582 0.030703204 0.1418103 0.040811542 0.08280622 0.046631336 0.05513344 0.06625083
00000000: 0690 053e 3184 603d bd71 943d 83f8 043d
00000010: 0c89 453e 17ee 233e bcf5 733d 51f8 273d
00000020: 08e7 303e e19f 773d ab08 bb3c d492 993d
00000030: a549 1c3e d598 a33d eb33 ae3d f249 dc3d
00000040: 770e bd3d 619b eb3d 33d2 0d3c 101d cebb
00000050: 2df7 cd3c e6dc 303d 41ed 993d 73a8 123e
00000060: 0e93 213d de97 cdbb dc30 fd3d 89a0 2e3e
00000070: b5b7 1b3e 298a 7a3a 83c9 213e 9ab4 423c
00000080: 1029 1b3e d79e 153e 1fdb 123e ebd1 1c3e
00000090: b529 cc3d 4e54 323e 2e8b 113e 2dfd fd3d
000000a0: d52e 8f3d 6b41 643d b497 013e 3506 5abc
000000b0: e73e f33d 11ae 0a3e 0ecc 963d 5d13 8839
000000c0: 283b 173e 7010 d03d 44f1 053d 8721 bd3d
000000d0: 90b3 343e 91e1 163e 3985 f73b 7f1d 65bc
000000e0: e24b 2e3e c519 213e 6932 193e e74c 9e3d
000000f0: fc0e 933c db0c 313e a516 003e 234e 4abb
00000100: 58dc dbbc d4e5 f43b 8114 dc3d 71bf d8bc
00000110: 7d37 373e 14df 883d ec59 463c 758c 353e
00000120: a722 113a 3dd0 ba3d 2dde a83d f02a 833d
00000130: 018c 173d 353d 863d 54e4 143d bd9f cb3d
00000140: 05cd 333e 9732 f63d 167a 393d f4c8 cf3d
00000150: 4175 093d e3e4 513d a13a 5a3d df71 0e3d
00000160: e570 1c3e 1a0c ae3d 367e 233e a869 533d
00000170: 0d1f 263e 191d b33d cd34 273e df60 a03c
00000180: 8878 3c3d 430f a03d dacd df3d 80f7 f23d
00000190: be0d fa3d ac1a b43d 68dd 9f3d 7d96 d13d
000001a0: 0616 c5bc 078a 313d f158 c93d 3935 2e3e
000001b0: 9384 5c3c 0db1 bf3d 25bd 6a3c 8f99 373e
000001c0: 5f9c 1c3e 746c e23d 0516 b33d 36c2 463d
000001d0: 5b14 983d 20f2 d1bb ba47 2b3d ab21 c53c
000001e0: fc58 e6bb 81b8 c73b 942a 23bc e562 1d3e
000001f0: 7fde 9d3d d6eb 2a3e c8d4 d93d 9254 293d
00000200: 04c9 4a3c 083b 223e 8d11 843d f7be b03c
00000210: 6c0c f73d b1c3 373e 07f3 b33d 19fc 253e
00000220: 844d e53c 1c14 ca3c 3809 a73d 0751 3c3e
00000230: b619 2d3e cf2f 3f3d 8eac 0b3e 0074 0a3d
00000240: 054c 2a3e 9f6c 0d3e e010 933d b6fa d73d
00000250: 48cd 613d 5e6d 693b b5b5 313c ddca 3d3e
00000260: 3d29 0b3e 77b7 c23c 4043 183e 1f5c 20bb
00000270: bbcf 8f3d c774 053e 7421 f43d 952a c6bc
00000280: c3ee df3d 09df 7f3d e5c4 0a3d 58d8 cf3d
00000290: fa8b c63d 0f97 e93d 7ca8 ca3d bef8 cc3d
000002a0: d465 bd3d 7a30 bc3d 59c8 7c3c 5076 4a3d
000002b0: b761 d43b 02b1 ac3c ff25 9c3d c168 113e
000002c0: 91f1 9a3d bc13 003d e6f1 0f3e 46ce a53a
000002d0: b3b1 9a3d 279a 3e3e f216 a23d 7ece 6e3d
000002e0: 718a ff3d 444b 393d afdd c43d 05a1 103e
000002f0: d88a 813d 5413 5a3d e2fc b93d 71a1 2c3e
00000300: 6cbd 363d 02ca e13d d1d6 d63d d29a 3b3e
00000310: 5a33 003e 6f2a f73d 8597 c13c 9d4d 4c3d
00000320: 5109 fe3d 4018 8c3d 2dd1 ec3d 2f0b af3d
00000330: 012c 143e 2873 373e 8cfc 0d3e 7093 273e
00000340: 04fc cf3c df0b 2b3e b4da 0b3d c26f 503d
00000350: 5a62 633d 60ab 873d 7a35 033d bc15 da3d
00000360: a229 443e 5f3f 1a3e 3d78 283e 92ce aa3c
00000370: ca16 8a3d e70d 003e 84f3 a83d 80a0 973c
00000380: 744f ca3d 34eb 743d 989a 8c3d 1c97 0a3e
00000390: bce0 84bc 8d6a 2f3e 9b7e 763a 39f7 ed3d
000003a0: 0bdc f83d aacf 4c3c d31a 143c fad3 9d3d
000003b0: b78a a23d 60a4 d33d f5f7 cf3c e8c5 3b3e
000003c0: 3380 323e 00b9 ab3d 711b b43d 7053 ac3d
000003d0: 74cc b03d 0d35 7b3a e650 d93d 663a 103d
000003e0: 5458 933d 4985 fb3c b836 113e 012a 273d
000003f0: 4f96 a93d 8000 3f3d 9ad3 613d 84ae 873d

encoder.conv_mu.bias f4 [32]
-0.043467376 0.074722685 0.026471624 -0.06473793 0.014437894 0.08452166 0.061768148 -0.08006812
0.07297258 0.046783734 -0.01906841 -0.08331132 0.034293167 -0.032077108 0.073252425 -0.044422418
-0.06788677 0.08969591 -0.0942707 -0.09215153 -0.09519367 0.06585296 -0.065641426 0.02411031
0.0650773 -0.07818644 -0.029102584 0.05420649 -0.06546248 0.07817238 0.10287255 -0.073269464
00000000: d90a 32bd 3508 993d 05db d83c 5295 84bd
00000010: eb8c 6c3c b119 ad3d 9900 7d3d c1fa a3bd
00000020: a672 953d 4da0 3f3d 5b35 9cbc 209f aabd
00000030: fe76 0c3d 4963 03bd 5e05 963d 48f4 35bd
00000040: 3808 8bbd 7db2 b73d ff10 c1bd f1b9 bcbd
00000050: e6f4 c2bd ebdd 863d 036f 86bd fc82 c53c
00000060: 3f47 853d 3620 a0bd 8b68 eebc a007 5e3d
00000070: 3111 86bd d718 a03d d8ae d23d 4d0e 96bd

encoder.conv_mu.lin.weight f4 [32, 64]
0.23146649 -0.031799596 -0.15739687 -0.05868316 -0.043434206 -0.028241808 0.045216806 -0.0810523
0.002590116 0.20462734 0.038471155 0.11280427 0.19030255 0.03986297 -0.16297165 0.20165168
-0.0059353686 -0.048123375 -0.01650763 -0.101348884 -0.21465907 0.009286084 0.17508079 -0.08949821
-0.18734045 -0.23803653 0.13539502 0.051033184 -0.10946691 0.09943629 0.06455705 -0.23761912
-0.16239378 -0.094994046 0.1370158 -0.22641641 -0.12740912 -0.086735554 0.111447476 0.040490832
0.17150019 0.27049142 -0.20385365 0.023512261 -0.08073699 0.2458819 -0.19995412 0.06105636
-0.050984487 0.114509374 -0.049732767 -0.004982646 -0.07774783 -0.19216992 -0.22921199 0.18423449
0.24256337 0.22845684 0.20384812 0.07259795 0.15674317 -0.19194914 -0.32729185 -0.25692177
-0.016595608 0.14795892 -0.11961469 0.22398229 -0.02085087 -0.19107816 -0.11291546 -0.004651066
-0.035936467 -0.17258942 -0.15641457 0.24331088 0.08592431 0.03713983 0.018151458 0.047994442
-0.21921915 -0.21281917 0.064945236 0.048354663 -0.094960675 -0.26217037 -0.19588989 -0.16529357
-0.18055813 0.2279942 -0.044665076 0.05229617 -0.21290235 0.013436042 -0.15712832 -0.22350809
0.094284125 0.087143466 -0.20406216 -0.1686016 -0.23070045 -0.03785766 0.1492346 0.05729354
-0.0524964 -0.13356915 -0.21661982 -0.016945893 0.13308884 0.13654275 -0.19396979 -0.18206297
0.13242528 0.042483006 -0.0561221 0.056116298 0.06547752 0.05927521 -0.23485157 0.12815791
0.18252125 -0.24914198 0.048740093 -0.23042601 -0.004713294 -0.19159806 0.24430983 -0.1277963
0.0017498361 -0.13195398 0.025284555 0.16999748 -0.189222 0.103510156 0.23346804 0.20233352
-0.09345136 -0.07149025 -0.025742117 -0.14317384 0.029746527 0.25172982 0.026719306 -0.10551828
0.23279579 -0.022509214 -0.20646362 0.20685047 0.07218993 0.1758951 -0.23540795 0.12196778
0.14513157 0.22655113 0.0984815 0.0951778 0.20072117 -0.11349102 0.122898996 0.16830796
0.16485992 0.039806414 -0.24423079 0.081967145 0.015086747 -0.13776009 0.12089185 -0.21416205
0.01722869 -0.13773735 0.06204268 0.034656107 0.18217497 0.112879395 0.23939465 -0.109954946
0.10761545 -0.18406694 -0.2319912 -0.0814658 0.12940142 -0.15118025 -8.709023e-05 -0.15908924
0.06004475 0.12442894 0.17084154 -0.039788324 -0.028486175 -0.012766301 -0.16385563 -0.047691304
0.20647737 0.10384673 -0.31208023 -0.045378633 0.09839563 0.2394342 0.13828214 0.2161265
-0.17497167 -0.046542853 0.23223305 0.23716818 -0.17581145 -0.15282196 -0.011005979 -0.18326887
0.2017472 0.07234997 -0.05794268 0.058083743 0.22105163 0.17637147 0.2513141 -0.0046701715
0.15126534 0.02632023 0.014232694 0.016844481 -0.014092709 -0.008463437 0.11627719 -0.24502234
0.093386695 0.22751833 -0.019184804 -0.11507414 0.22019778 -0.11456792 -0.021113351 -0.20599262
-0.21205449 -0.022153948 -0.12468359 0.23423518 -0.17907394 -0.24572074 -0.2434725 -0.07704988
0.10768229 -0.18047863 0.17745268 -0.00795506 -0.06760562 0.17213611 -0.11229141 0.028764954
0.07553487 -0.22870521 0.1520623 -0.026361782 -0.2076895 -0.11253341 -0.25589663 -0.21221888
00000000: 8d05 6d3e 4b40 02bd a52c 21be c15d 70bd
00000010: 11e8 31bd 5d5b e7bc 4235 393d c0fe a5bd
00000020: f0be 293b d489 513e ee93 1d3d ed05 e73d
00000030: acde 423e 5b47 233d 0ae2 26be c77d 4e3e
00000040: 7b7d c2bb 041d 45bd 023b 87bc 0190 cfbd
00000050: 96cf 5bbe a924 183c 6148 333e d64a b7bd
00000060: 2dd6 3fbe d9bf 73be fea4 0a3e 2c08 513d
00000070: 3030 e0bd 41a5 cb3d 7d36 843d 6d52 73be
00000080: 8e4a 26be 3d8c c2bd df4d 0c3e b4d9 67be
00000090: 8977 02be 69a2 b1bd 933e e43d b7d9 253d
000000a0: bf9d 2f3e da7d 8a3e 03bf 50be c99c c03c
000000b0: 6f59 a5bd 77c8 7b3e c6c0 4cbe 3c16 7a3d
000000c0: 1cd5 50bd e483 ea3d 96b4 4bbd 7745 a3bb
000000d0: 413a 9fbd 31c8 44be 8cb6 6abe f7a7 3c3e
000000e0: 8862 783e 97f0 693e 90bd 503e 3cae 943d
000000f0: 4881 203e 518e 44be cc92 a7be 408b 83be
00000100: 83f3 87bc 8b82 173e 8cf8 f4bd 9d5b 653e
00000110: 72cf aabc fea9 43be 3840 e7bd f867 98bb
00000120: 1e32 13bd 48bb 30be 242b 20be 7d26 793e
00000130: 16f9 af3d ef1f 183d 5eb2 943c d295 443d
00000140: fc7a 60be 45ed 59be 0202 853d 8a0f 463d
00000150: be7a c2bd 323b 86be 5c97 48be b842 29be
00000160: 3be4 38be 5077 693e baf2 36bd 8234 563d
00000170: 1303 5abe d822 5c3c 3fe6 20be 4edf 64be
00000180: 0918 c13d 4678 b23d acf5 50be e6a5 2cbe
00000190: bd3c 6cbe a210 1bbd f4d0 183e a2ac 6a3d
000001a0: 7706 57bd 5ac6 08be 96d1 5dbe 1dd2 8abc
000001b0: 7148 083e ddd1 0b3e 04a0 46be b76e 3abe
000001c0: 7e9a 073e a902 2e3d 4ae0 65bd 34da 653d
000001d0: 1419 863d 90ca 723d ee7c 70be d43b 033e
000001e0: dae6 3a3e 131f 7fbe b1a3 473d ccf4 6bbe
000001f0: fa71 9abb 4832 44be 5b2c 7a3e 09dd 02be
00000200: c25a e53a f21e 07be 8e21 cf3c d213 2e3e
00000210: 69c3 41be 22fd d33d 3f12 6f3e 8530 4f3e
00000220: 6d63 bfbd 7b69 92bd 22e1 d2bc 2a9c 12be
00000230: fdae f33c bbe2 803e 72e2 da3c f819 d8bd
00000240: 0562 6e3e 3e65 b8bc 336b 53be 9cd0 533e
00000250: 50d8 933d d81d 343e c80e 71be 3eca f93d
00000260: 5f9d 143e 05fd 673e abb0 c93d 94ec c23d
00000270: da89 4d3e fb6d e8bd 78b2 fb3d ec58 2c3e
00000280: 0ad1 283e 0d0c 233d a317 7abe 64de a73d
00000290: 672e 773c fb10 0dbe 2596 f73d 4c4d 5bbe
000002a0: 2f23 8d3c 050b 0dbe 7720 7e3d 90f3 0d3d
000002b0: 138c 3a3e 502d e73d df23 753e 0f30 e1bd
000002c0: 7d65 dc3d 0b7c 3cbe 1a8f 6dbe 8bd7 a6bd
000002d0: ce81 043e ffce 1abe 36a4 b6b8 4ae8 22be
000002e0: 7cf1 753d 9ad4 fe3d 16f1 2e3e 15f9 22bd
000002f0: d75b e9bc bf29 51bc c5c9 27be f557 43bd
00000300: ce6e 533e 98ad d43d fbc8 9fbe f2de 39bd
00000310: a683 c93d 3d2e 753e d599 0d3e 4450 5d3e
00000320: c62b 33be b8a3 3ebd 80ce 6d3e 37dc 723e
00000330: eb07 34be 5c7d 1cbe 6c52 34bc d6aa 3bbe
00000340: d196 4e3e 392c 943d 4e55 6dbd 38e9 6d3d
00000350: 5c5b 623e b99a 343e 3eac 803e 3d08 99bb
00000360: 4de5 1a3e 869d d73c 3f30 693c 70fd 893c
00000370: 1be5 66bc 3aaa 0abc bc22 ee3d 23e7 7abe
00000380: 8641 bf3d 91fa 683e 7329 9dbc feab ebbd
00000390: 877b 613e 96a2 eabd e8f5 acbc bbef 52be
000003a0: d024 59be 327c b5bc 1c5a ffbd 59db 6f3e
000003b0: 295f 37be 389e 7bbe db50 79be 54cc 9dbd
000003c0: 8888 dc3d 64cf 38be 28b6 353e f155 02bc
000003d0: d174 8abd 7344 303e 0af9 e5bd 7ba4 eb3c
000003e0: 07b2 9a3d b331 6abe 38b6 1b3e aaf4 d7bc
000003f0: 8eac 54be eb77 e6bd e204 83be e84f 59be

encoder.conv_logstd.bias f4 [32]
-0.08553918 -0.06670595 -0.054532424 -0.08165251 -0.050758153 -0.034422733 -0.045882642 -0.07975941
-0.06063884 -0.07447659 -0.03681185 -0.06654586 -0.09941006 -0.07794114 -0.072179146 -0.079231024
-0.057094548 -0.05823208 -0.03206538 -0.06180481 -0.045080103 -0.04891643 -0.050927732 -0.08204431
-0.058364112 -0.039309815 -0.08212367 -0.07818256 -0.04667573 -0.035313606 -0.050122198 -0.06935354
00000000: 2a2f afbd 219d 88bd 645d 5fbd 6e39 a7bd
00000010: c8e7 4fbd dafe 0cbd 70ef 3bbd e758 a3bd
00000020: 6f60 78bd 2f87 98bd 06c8 16bd 3249 88bd
00000030: 8097 cbbd 9b9f 9fbd a9d2 93bd e043 a2bd
00000040: f9db 69bd c384 6ebd fd56 03bd 0a27 7dbd
00000050: eaa5 38bd 985c 48bd 9999 50bd d906 a8bd
00000060: 350f 6fbd 5403 21bd 7430 a8bd 2e1e a0bd
00000070: 0d2f 3fbd 00a5 10bd ef4c 4dbd 3b09 8ebd

encoder.conv_logstd.lin.weight f4 [32, 64]
-0.21795273 0.11615623 -0.02249535 0.16612554 0.086931795 -0.33527192 0.17695716 0.104710005
0.16189998 -0.17627111 -0.02642568 0.019043902 -0.1570292 -0.19592935 -0.21166922 0.080317274
-0.18205354 0.010400606 -0.205811 -0.17234161 0.21048088 -0.06411273 -0.037251536 -0.03840334
-0.29543224 -0.27472714 -0.09762695 -0.33039767 -0.24326979 0.020385284 0.035679612 -0.16184635
0.23001882 0.057495236 -0.101005875 0.029674243 -0.32181582 -0.15566526 0.20250875 -0.24285379
-0.0069696186 0.015510616 0.14541014 -0.3463478 0.08082283 -0.3491437 0.07183643 -0.19872901
-0.086381115 -0.22676714 -0.03369509 0.12734692 -0.13638142 -0.042205222 0.11134297 0.059338786
0.0065499065 0.11691338 -0.00770218 0.04909093 -0.11120337 -0.044868678 0.034525067 0.042493183
-0.027961116 -0.12143895 0.028855847 -0.14927974 -0.12051044 -0.23742136 -0.23662421 0.12122093
0.0034513294 -0.24723071 -0.2939042 0.13516842 0.21751581 -0.17199409 -0.28772542 -0.062307533
-0.33847758 -0.2078482 0.023738425 0.015228208 0.19187996 -0.14738286 -0.22365022 -0.010227786
-0.24274315 -0.30841848 -0.019173987 0.07229358 -0.31068256 -0.05069473 -0.05178728 0.090553336
0.21788026 -0.08395183 -0.0936402 -0.22012486 0.10256319 -0.08634379 -0.17101291 0.033872038
0.030289197 -0.128653 0.028378285 -0.15056321 -0.27024612 -0.12079692 0.15963203 -0.010989101
0.07409459 -0.061643843 -0.06993129 0.08627062 -0.25772834 -0.21685392 -0.05969324 -0.08098719
-0.16693269 0.11134448 -0.09234804 0.21718048 -0.0048141815 -0.16891451 -0.13557562 -0.06918375
-0.2407802 -0.26437664 -0.16808614 0.08595732 0.16879798 -0.28131467 -0.08736737 -0.15864803
0.19141443 -0.09298952 -0.24324347 0.11994277 0.15683132 0.11710554 -0.022994583 -0.031866267
-0.18343377 0.16253905 -0.3036829 -0.3325844 -0.007815936 -0.010044714 -0.13546076 0.06929654
0.15573616 -0.0143087115 0.054496724 -0.2695142 -0.08589472 -0.22257286 0.15067884 -0.19629596
-0.25035715 -0.27741665 0.14974317 0.055564675 -0.17752647 -0.33095634 0.014810374 0.04438492
-0.27712798 0.0854834 0.09862783 -0.0017472588 0.024783898 -0.14168946 0.13625336 0.057674903
-0.20458926 -0.24123067 -0.17788075 0.2300516 0.2250447 0.021387646 -0.2613149 0.1638094
-0.2131554 -0.07454124 0.1272234 0.07903929 0.15633954 -0.27470282 0.26470506 0.23317309
-0.1988365 -0.11084648 -0.25601637 0.22654733 -0.11900941 0.0019823501 0.13767488 -0.08699685
0.13569495 -0.14830402 0.10481619 -0.1273868 -0.1524727 -0.13054295 -0.20048536 -0.124296874
-0.26315245 0.20042954 0.09091887 -0.017598944 0.18883908 -0.34129447 0.12950848 0.049015608
-0.39567694 -0.21977231 -0.012734018 -0.28085697 0.07252355 -0.36202198 0.15991637 0.09276003
0.11879978 -0.30173585 0.060807444 -0.22004123 -0.3047466 0.07442862 -0.07211571 0.07602828
-0.071368836 0.11493122 0.22246884 0.06668348 -0.16439942 -0.026851166 -0.1200879 -0.27684247
0.09690848 -0.03162717 -0.21602929 -0.22558746 -0.13370183 -0.360544 -0.36475694 -0.3027704
-0.11595994 0.09164189 -0.08634827 0.016479338 0.22294755 -0.21308285 0.018161803 -0.029836148
00000000: 002f 5fbe 51e3 ed3d 2b48 b8bc d01c 2a3e
00000010: 4c09 b23d c3a8 abbe 4234 353e 3372 d63d
00000020: 1cc9 253e 6a80 34be ab7a d8bc f501 9c3c
00000030: 43cc 20be b4a1 48be d1bf 58be 627d a43d
00000040: 3e6c 3abe 4e67 2a3c 1ec0 52be 527a 30be
00000050: 4d88 573e 894d 83bd 1195 18bd d24c 1dbd
00000060: e542 97be 09a9 8cbe a3f0 c7bd e229 a9be
00000070: b71b 79be 0aff a63c c924 123d 0dbb 25be
00000080: 0e8a 6b3e 2080 6b3d 2bdc cebd 6617 f33c
00000090: 0bc5 a4be b766 1fbe 745e 4f3e aaae 78be
000000a0: 6661 e4bb 3d20 7e3c 65e6 143e 8054 b1be
000000b0: 7186 a53d f7c2 b2be fa1e 933d 9e7f 4bbe
000000c0: 95e8 b0bd a535 68be dd03 0abd 3b67 023e
000000d0: 92a7 0bbe 62df 2cbd c807 e43d 3a0d 733d
000000e0: 99a0 d63b 4870 ef3d 9262 fcbb 9213 493d
000000f0: 98be e3bd 38c8 37bd 286a 0d3d 550d 2e3d
00000100: b60e e5bc fcb4 f8bd 1963 ec3c cadc 18be
00000110: 2dce f6bd 961e 73be 9e4d 72be ae42 f83d
00000120: b32f 623b 0c2a 7dbe 9c7a 96be 9769 0a3e
00000130: 77bc 5e3e 381f 30be bf50 93be 2f36 7fbd
00000140: ef4c adbe 29d6 54be 1677 c23c bc7f 793c
00000150: 2e7c 443e 88eb 16be 9004 65be 7292 27bc
00000160: a991 78be 07e9 9dbe c412 9dbc a80e 943d
00000170: c911 9fbe 47a5 4fbd e61e 54bd 0774 b93d
00000180: 011c 5f3e f0ee abbd 6fc6 bfbd 6968 61be
00000190: a60c d23d 03d5 b0bd 021e 2fbe 68bd 0a3d
000001a0: 0d21 f83c 9dbd 03be 9479 e83c 3e2d 1abe
000001b0: b35d 8abe 6064 f7bd 9476 233e a10b 34bc
000001c0: e8be 973d 417e 7cbd 2338 8fbd a7ae b03d
000001d0: f8f4 83be f40e 5ebe e680 74bd 9ddc a5bd
000001e0: 67f0 2abe 9308 e43d f820 bdbd 8f64 5e3e
000001f0: 48c0 9dbb edf7 2cbe 56d4 0abe 36b0 8dbd
00000200: 168f 76be 605c 87be c61e 2cbe 640a b03d
00000210: 61d9 2c3e 7a08 90be aaed b2bd a174 22be
00000220: 2502 443e 4a71 bebd d114 79be 8ea4 f53d
00000230: 6498 203e 08d5 ef3d 235f bcbc 3486 02bd
00000240: 10d6 3bbe a370 263e 537c 9bbe 8148 aabe
00000250: 690e 00bc 9692 24bc 3ab6 0abe 58eb 8d3d
00000260: 4d79 1f3e 166f 6abc f537 5f3d c4fd 89be
00000270: 92e9 afbd 24ea 63be 8e4b 1a3e cf01 49be
00000280: d02e 80be 8e09 8ebe 4656 193e c997 633d
00000290: 80c9 35be 1c73 a9be 36a7 723c f6cc 353d
000002a0: b8e3 8dbe ec11 af3d 63fd c93d 4704 e5ba
000002b0: 9a07 cb3c 0b17 11be 0086 0b3e 853c 6c3d
000002c0: d97f 51be 2c05 77be 5f26 36be a692 6b3e
000002d0: 1e72 663e 2535 af3c 11cb 85be a7bd 273e
000002e0: 6945 5abe 14a9 98bd da46 023e 5adf a13d
000002f0: 7917 203e d9a5 8cbe 6c87 873e edc4 6e3e
00000300: cc9b 4bbe 7b03 e3bd 9414 83be 06fc 673e
00000310: 35bb f3bd 51ea 013b a5fa 0c3e 682b b2bd
00000320: 9ef3 0a3e 02dd 17be dfa9 d63d af71 02be
00000330: ce21 1cbe 0dad 05be 094c 4dbe 5c8f febd
00000340: ebbb 86be 673d 4d3e ac33 ba3d a92b 90bc
00000350: 085f 413e 26be aebe df9d 043e 97c4 483d
00000360: 2b96 cabe fe0b 61be 58a2 50bc 7ccc 8fbe
00000370: 3a87 943d f25a b9be 1ec1 233e f8f8 bd3d
00000380: 4d4d f33d 1f7d 9abe 3a11 793d 7d52 61be
00000390: bf07 9cbe 086e 983d 67b1 93bd b7b4 9b3d
000003a0: d329 92bd 0f61 eb3d dfce 633e 5991 883d
000003b0: 5258 28be faf6 dbbc a5f0 f5bd 4cbe 8dbe
000003c0: f477 c63d 7e8b 01bd c836 5dbe 6600 67be
000003d0: 22e9 08be 3999 b8be 6cc1 babe b904 9bbe
000003e0: 687c edbd beae bb3d 5dd7 b0bd adff 863c
000003f0: 5d4c 643e 6432 5abe 10c8 943c f06a f4bc

discriminator.lin1.weight f4 [16, 32]
0.024509152 -0.3423143 0.09462022 -0.20735535 0.16736704 -0.121634826 -0.29596266 -0.044335436
-0.07265066 -0.028280335 -0.22117946 0.068219095 -0.018711956 -0.12953256 0.3349387 0.073816285
0.054616794 0.31809637 -0.07350248 0.1924641 0.13029751 -0.1621425 0.087270565 -0.08168541
-0.11018877 -0.1714671 -0.019781386 0.1141869 0.07670222 0.17931233 -0.17346625 0.038375687
-0.061526243 -0.014111132 0.12989631 -0.17677784 0.20001255 -0.2482263 0.09752463 0.064524375
0.42012087 0.0043363464 0.13490893 -0.06717321 0.005933698 0.1378907 0.11983798 -0.17125018
-0.24537231 -0.17196393 0.08448639 -0.023595551 0.07469136 -0.113284804 -0.114236794 0.10277654
-0.15730366 0.11043267 -0.08435492 -0.21039376 -0.12522504 -0.10881575 -0.13273239 -0.24166027
0.06326612 0.3530714 0.11909822 -0.0043447614 0.047121774 0.26196444 -0.22256671 0.08287566
-0.19997758 -0.2654953 0.22800124 -0.25295457 0.04223945 0.13691066 -0.17314495 -0.1375729
-0.31006217 0.006622925 -0.22159125 -0.38528365 0.10318536 -0.17083244 -0.094193205 -0.059820287
-0.1845766 -0.12386106 -0.20240499 0.07840513 -0.042699106 0.1148685 0.2759261 -0.26045474
0.021973234 0.29364797 -0.23766945 -0.016440261 0.060051944 0.0549786 0.13057727 0.016477523
-0.23799507 -0.1488863 -0.061367974 0.47221085 0.037201535 0.20489025 0.21063127 0.22594634
-0.007295183 -0.31801993 0.017753368 0.37561035 -0.23130187 -0.091444656 -0.26017323 -0.06784201
0.2722618 -0.045275167 -0.1183206 0.32147676 -0.13065931 0.037716586 -0.05155502 -0.24658184
0.047431637 0.27667114 0.27175525 0.13665508 0.23098536 0.09927943 0.17609203 0.09438868
0.21351734 -0.17050509 -0.11367573 0.023064079 -0.0068734568 0.035559922 -0.11386959 -0.17389183
-0.23162411 0.43555152 0.2606113 0.10443567 -0.26818085 0.19382186 0.09359884 -0.03379825
-0.18370874 -0.14923376 0.15539704 -0.049962495 0.14652313 0.2204321 0.23383039 0.017543592
-0.18439648 0.36935395 -0.08520857 -0.21266244 0.07596143 -0.033893067 -0.09417337 -0.3962561
-0.1006359 -0.06858895 0.015898421 -0.045490477 0.0070842276 0.064912856 -0.11658182 0.13688822
0.09983796 -0.23680076 0.031119727 0.13992366 0.17591244 0.22405443 0.12202665 0.102716364
-0.17494752 0.077636115 0.10576698 -0.014512359 0.20497881 -0.02535417 0.09950713 0.09719883
-0.042016264 -0.15232158 0.24905872 0.03719853 -0.2632225 -0.14473477 0.07373089 0.059893426
-0.19332607 0.02746397 -0.17523147 0.047730863 -0.0379318 0.08318206 2.2731987e-05 -0.2174028
-0.33845642 -0.07769484 -0.21325657 0.07451157 0.088156156 0.21062092 0.06661295 0.16506834
0.14725906 -0.13842872 0.08266519 0.039722644 -0.19763392 -0.18953998 0.2794213 0.23587953
0.02430779 -0.10909155 0.14533912 -0.009424644 -0.13187571 0.17183729 0.008795841 -0.014876995
0.23843406 0.003877291 0.25026512 -0.020109778 0.025069697 -0.14028654 -0.26580203 0.16999094
0.20076357 -0.062432658 -0.27996325 0.165012 -0.2775252 -0.078731544 0.43277538 0.13772811
-0.013540375 -0.097389266 0.061506823 -0.051679246 0.022416731 -0.063405804 -0.20286056 0.072290815
00000000: 6bc7 c83c d243 afbe 3fc8 c13d f654 54be
00000010: 4462 2b3e ae1b f9bd 6b88 97be 1399 35bd
00000020: dfc9 94bd 29ac e7bc de7c 62be 74b6 8b3d
00000030: d149 99bc 2fa4 04be 167d ab3e fe2c 973d
00000040: dcb5 5f3d 87dd a23e 7888 96bd 4f15 453e
00000050: b66c 053e af08 26be e9ba b23d ae4a a7bd
00000060: a6aa e1bd 1295 2fbe 930c a2bc d2da e93d
00000070: 0e16 9d3d a79d 373e 23a1 31be d32f 1d3d
00000080: f102 7cbd 6132 67bc 8a03 053e 4005 35be
00000090: 17d0 4c3e 092f 7ebe feba c73d 5b25 843d
000000a0: 151a d73e e917 8e3b 9125 0a3e 1c92 89bd
000000b0: 776f c23b 3833 0d3e 9d6d f53d 355c 2fbe
000000c0: e142 7bbe 5017 30be 3307 ad3d 754b c1bc
000000d0: c9f7 983d dd01 e8bd fbf4 e9bd 827c d23d
000000e0: 3614 21be 862a e23d 46c2 acbd 7671 57be
000000f0: fe3a 00be cbda debd 00eb 07be ca75 77be
00000100: ab91 813d c6c5 b43e c4e9 f33d 805e 8ebb
00000110: c302 413d 3420 863e 87e8 63be b7ba a93d
00000120: ecc6 4cbe 00ef 87be 2879 693e 4383 81be
00000130: 4603 2d3d 4f32 0c3e e94c 31be e9df 0cbe
00000140: 78c0 9ebe 1f05 d93b d1e8 62be e643 c5be
00000150: d952 d33d b3ee 2ebe 5ee8 c0bd 1e06 75bd
00000160: a601 3dbe deaa fdbd 4143 4fbe de92 a03d
00000170: 42e5 2ebd 2d40 eb3d 3046 8d3e 535a 85be
00000180: 3601 b43c 0759 963e 9f5f 73be baad 86bc
00000190: 07f9 753d 3e31 613d 0cb6 053e dffb 863c
000001a0: fbb4 73be a675 18be fc5c 7bbd 9fc5 f13e
000001b0: a360 183d c0ce 513e b9af 573e 7a5e 673e
000001c0: 6e0c efbb 82d3 a2be 836f 913c 0050 c03e
000001d0: 66da 6cbe 5647 bbbd 6d35 85be c0f0 8abd
000001e0: e665 8b3e 7472 39bd 1252 f2bd 9a98 a43e
000001f0: 8ecb 05be b57c 1a3d 5b2b 53bd f37f 7cbe
00000200: ad47 423d d7a7 8d3e 8123 8b3e 4fef 0b3e
00000210: 6d87 6c3e 0453 cb3d 7851 343e da4e c13d
00000220: 4aa4 5a3e e398 2ebe d2ce e8bd e1f0 bc3c
00000230: bc3a e1bb 48a7 113d 7634 e9bd b310 32be
00000240: df2e 6dbe 9c00 df3e d86e 853e 5ee2 d53d
00000250: 004f 89be 3d79 463e c0b0 bf3d 0970 0abd
00000260: 251e 3cbe bcd0 18be 6720 1f3e 79a5 4cbd
00000270: 290a 163e f4b8 613e 3c71 6f3e 94b7 8f3c
00000280: 6ed2 3cbe f61b bd3e d581 aebd 2fc4 59be
00000290: ab91 9b3d 75d3 0abd f8dd c0bd 14e2 cabe
000002a0: 321a cebd 5d78 8cbd 683d 823c 3954 3abd
000002b0: cf22 e83b 08f1 843d 73c2 eebd 6d2c 0c3e
000002c0: d877 cc3d e67b 72be ccee fe3c 2648 0f3e
000002d0: 6422 343e 866e 653e 1ce9 f93d f55c d23d
000002e0: 7125 33be afff 9e3d 5c9c d83d 3fc5 6dbc
000002f0: f7e5 513e 8cb3 cfbc 65ca cb3d 2e10 c73d
00000300: 3f19 2cbd 30fa 1bbe 4009 7f3e 7c5d 183d
00000310: 19c5 86be 5a35 14be 3900 973d cf52 753d
00000320: 45f7 45be 1ffc e03c e16f 33be 7081 433d
00000330: 605e 1bbd 5b5b aa3d 92b0 be37 d79e 5ebe
00000340: 294a adbe 791e 9fbd ee5f 5abe 8699 983d
00000350: 378b b43d 03ad 573e 5f6c 883d ad07 293e
00000360: 14cb 163e 42c0 0dbe 5e4c a93d 36b4 223d
00000370: 8c60 4abe c516 42be 4f10 8f3e 678a 713e
00000380: 2121 c73c 646b dfbd c7d3 143e d269 1abc
00000390: 6d0a 07be 1df6 2f3e 6e1c 103c a4be 73bc
000003a0: 0f28 743e 261a 7e3b c022 803e 43bd a4bc
000003b0: f75e cd3c 46a7 0fbe 3417 88be 1b12 2e3e
000003c0: f794 4d3e 63b9 7fbd 5857 8fbe e8f8 283e
000003d0: c817 8ebe 013e a1bd bc94 dd3e 9908 0d3e
000003e0: 73d8 5dbc 0674 c7bd 94ee 7b3d 9ead 53bd
000003f0: 4ba3 b73c e7da 81bd aeba 4fbe 350d 943d

discriminator.lin1.bias f4 [16]
-0.49757138 -0.41339952 -0.42472732 -0.045332868 -0.53035635 -0.3659804 -0.49280456 -0.5305276
-0.4576172 -0.37680346 -0.42113176 -0.4200214 -0.28011277 -0.43674693 -0.38662094 -0.49476138
00000000: adc1 febe 1aa9 d3be dc75 d9be f5ae 39bd
00000010: 6fc5 07bf c861 bbbe e150 fcbe a8d0 07bf
00000020: cd4c eabe 62ec c0be 959e d7be 0c0d d7be
00000030: f16a 8fbe 4b9d dfbe 2ef3 c5be 5d51 fdbe

discriminator.lin2.weight f4 [64, 16]
-0.052310694 -0.12395489 0.27085587 0.011587248 -0.03748616 0.33895865 -0.021144712 -0.24464048
0.30186504 0.052737597 -0.032399397 0.30951464 -0.17282051 -0.26617104 0.354516 -0.07517434
0.33005628 0.24936667 0.25379232 -0.22979051 -0.111710496 0.30982077 0.2754339 -0.333267
0.0052226684 0.26100448 0.26461583 0.30147052 0.20777586 -0.30798665 0.3428438 0.024324201
-0.05741183 0.2638106 0.2157257 -0.036093157 0.20719205 0.34187123 0.101121895 0.11916118
0.26744035 0.24200489 -0.053548295 -0.16997007 0.037014082 0.23514053 0.2652008 0.25126994
0.043013103 -0.24702623 0.23042421 0.2072107 -0.0117223095 0.24346912 0.23899612 -0.07232796
0.3012565 -0.21509007 0.26650298 -0.10643603 -0.20003642 0.17106968 0.28343573 0.24181268
0.21720122 0.22402583 0.19910462 0.14413711 0.028822357 0.26340866 0.08873047 0.19393046
0.20420498 0.20492648 -0.035062388 0.24138823 0.057432197 0.11916982 0.22404842 0.18757926
-0.26377 -0.2387907 -0.29839447 -0.016615475 -0.26685584 -0.14009786 -0.2522511 -0.318658
-0.3918527 -0.24819389 -0.25837874 -0.30735615 -0.1387663 -0.2646532 -0.2512404 -0.31795865
0.05073862 0.18326737 0.1707896 -0.034718156 0.24088484 0.2017211 0.19479856 0.24822122
0.19654743 0.27034807 0.20779574 0.21351935 0.31351256 0.189319 0.093562506 0.24052918
0.19750798 0.22344059 0.16021664 0.269584 0.12899332 0.29698342 -0.16216387 0.114547685
-0.04525638 0.1804611 0.22936355 0.02435221 -0.2543965 0.18518898 -0.074222036 0.167163
0.21799973 0.17730892 0.23795523 -0.2522889 0.22380534 -0.4480794 0.27743936 0.1550296
0.30947882 -0.41129056 0.17534617 0.2730754 -0.25734487 -0.39116272 0.25617284 0.1940345
-0.28158236 -0.29778275 -0.47589076 -0.062825985 -0.35222152 -0.1819855 -0.43050134 -0.44161212
-0.4273731 -0.3491402 -0.36620393 -0.34642813 -0.13776787 -0.29077396 -0.44413704 -0.39667815
0.31275693 -0.10590111 -0.1901767 0.26279548 0.046988428 0.10702548 0.24631664 0.16319147
0.2107324 -0.3115269 0.259448 0.25091463 -0.060069855 0.28538662 -0.026461221 0.22659996
0.20422295 -0.007195263 0.23791036 0.299954 0.2628887 -0.064511314 0.05774743 0.1715969
0.13358101 0.14295596 0.020268904 0.22575204 -0.28442892 0.22558609 -0.08803662 0.0049319286
0.23530172 0.26167548 0.26477462 0.16806763 0.1581423 -0.0501976 0.2369036 0.12341307
0.17373355 0.19121337 0.21615227 -0.05528555 0.21270837 -0.20083952 0.26110366 0.254602
0.21027888 0.26573506 0.070425525 -0.21816824 0.07177845 -0.05622247 0.16413483 0.23293415
0.02763537 0.2888414 0.23114832 0.27681568 0.3897154 0.21710469 0.09538639 0.11715519
0.21507722 -0.42311227 -0.20890228 -0.54684544 0.032707807 0.27242687 0.22667457 0.16054732
0.21108381 0.2998337 0.28240576 -0.25625294 -0.25388607 -0.11262084 0.31007412 0.22023863
0.22787216 0.23338309 0.18720108 -0.47106773 0.21485873 0.27397767 0.2292427 -0.097135
0.24522936 0.2323857 -0.31279466 -0.15625274 -0.11768648 0.21265323 0.25753045 0.19611035
00000000: bd43 56bd 10dc fdbd 9fad 8a3e 71d8 3d3c
00000010: 168b 19bd fd8b ad3e ad37 adbc 0983 7abe
00000020: 0e8e 9a3e 6103 583d 3bb5 04bd b478 9e3e
00000030: dcf7 30be 9247 88be 1f83 b53e 01f5 99bd
00000040: 23fd a83e fa59 7f3e 11f1 813e 344e 6bbe
00000050: 79c8 e4bd d4a0 9e3e ac05 8d3e f9a1 aabe
00000060: eb22 ab3b 61a2 853e ba7b 873e 585a 9a3e
00000070: 32c3 543e 6db0 9dbe 3989 af3e 8c43 c73c
00000080: ab28 6bbd 2f12 873e 33e7 5c3e 6bd6 13bd
00000090: 272a 543e bf09 af3e ff18 cf3d c70a f43d
000000a0: f1ed 883e 21d0 773e 7555 5bbd a20c 2ebe
000000b0: 149c 173d aec8 703e 66c8 873e 74a6 803e
000000c0: 822e 303d 72f4 7cbe 53f4 6b3e 0b2f 543e
000000d0: ee0e 40bc f84f 793e 66bb 743e ae20 94bd
000000e0: 4b3e 9a3e 9240 5cbe 1473 883e 22fb d9bd
000000f0: 59d6 4cbe e42c 2f3e 7d1e 913e be9d 773e
00000100: ff69 5e3e 0767 653e 15e2 4b3e ae98 133e
00000110: dd1c ec3c 80dd 863e 52b8 b53d b595 463e
00000120: 1c1b 513e 3fd8 513e 949d 0fbd 7a2e 773e
00000130: 063e 6b3d 4e0f f43d f36c 653e c714 403e
00000140: dd0c 87be 8d85 74be 29c7 98be 2d1d 88bc
00000150: 54a1 88be d075 0fbe 0e27 81be 2427 a3be
00000160: eba0 c8be 8a26 7ebe 384a 84be c95d 9dbe
00000170: c118 0ebe a080 87be 95a2 80be 7acb a2be
00000180: 4dd3 4f3d 71aa 3b3e 78e3 2e3e a034 0ebd
00000190: 84aa 763e fa8f 4e3e 4679 473e b42d 7e3e
000001a0: bb43 493e 106b 8a3e 68c8 543e d1a4 5a3e
000001b0: b884 a03e d7dc 413e b39d bf3d 484d 763e
000001c0: 883f 4a3e 9ccd 643e d50f 243e ea06 8a3e
000001d0: d316 043e 360e 983e 490e 26be fa97 ea3d
000001e0: c15e 39bd cbca 383e 47de 6a3e 497e c73c
000001f0: 4240 82be 2ea2 3d3e b901 98bd c72c 2b3e
00000200: 523b 5f3e 7890 353e 89aa 733e 032c 81be
00000210: 3a2d 653e aa6a e5be 880c 8e3e 14c0 1e3e
00000220: 0274 9e3e ad94 d2be f28d 333e 8ad0 8b3e
00000230: b5c2 83be 7b46 c8be 1629 833e fbb0 463e
00000240: 902b 90be fb76 98be f4a7 f3be e9aa 80bd
00000250: 6156 b4be 685a 3abe ac6a dcbe fc1a e2be
00000260: a6d0 dabe 81c2 b2be 157f bbbe 075f b1be
00000270: 0513 0dbe 53e0 94be ee65 e3be 6619 cbbe
00000280: ad21 a03e aee2 d8bd aebd 42be 218d 863e
00000290: f076 403d 2d30 db3d 6e3a 7c3e aa1b 273e
000002a0: 3cca 573e 7480 9fbe 5ed6 843e e277 803e
000002b0: cf0b 76bd 321e 923e 34c5 d8bc d209 683e
000002c0: d21f 513e 3ec6 ebbb c69e 733e 9293 993e
000002d0: 5999 863e 821e 84bd 9288 6c3d 19b7 2f3e
000002e0: 76c9 083e 0c63 123e f90a a63c 8b2b 673e
000002f0: aba0 91be 0a00 673e 8b4c b4bd 049c a13b
00000300: eff2 703e 54fa 853e 8a90 873e ec19 2c3e
00000310: 0ef0 213e 009c 4dbd db96 723e febf fc3d
00000320: 35e7 313e 70cd 433e 0557 5d3e 1a73 62bd
00000330: 39d0 593e e0a8 4dbe 61af 853e 315b 823e
00000340: 5953 573e 6d0e 883e 423b 903d 7f67 5fbe
00000350: 9400 933d 8849 66bd f612 283e 4a86 6e3e
00000360: 9263 e23c 05e3 933e 25b2 6c3e c9ba 8d3e
00000370: c788 c73e b150 5e3e f159 c33d 0fef ef3d
00000380: 343d 5c3e 2ca2 d8be 7bea 55be 10fe 0bbf
00000390: 9ff8 053d 897b 8b3e 611d 683e 8466 243e
000003a0: 5b26 583e cd83 993e 7d97 903e 9633 83be
000003b0: 5bfd 81be c1a5 e6bd 09c2 9e3e 3c86 613e
000003c0: 5257 693e fafb 6e3e a4b1 3f3e ca2f f1be
000003d0: ed03 5c3e cd46 8c3e 99be 6a3e b7ee c6bd
000003e0: 681d 7b3e 84f6 6d3e 9f26 a0be b800 20be
000003f0: 9c05 f1bd c5c1 593e 08db 833e 27d1 483e

discriminator.lin2.bias f4 [64]
-0.3216666 -0.18365376 -0.29233086 -0.21617925 -0.34326735 0.4694568 -0.42025322 -0.41559517
-0.08801229 0.36558273 -0.34914848 -0.40519595 -0.4463325 -0.4723284 -0.073585816 -0.10726351
-0.2771306 -0.23998268 -0.35982034 0.45903096 0.40863538 -0.4584684 -0.2624602 -0.50086915
-0.22933225 -0.26309556 0.47978756 -0.033694357 -0.43521598 -0.10515877 -0.23195113 -0.3976794
-0.19553597 -0.44219986 -0.34733146 -0.27510318 -0.11667634 0.50085187 0.47369242 -0.44281328
0.44489083 -0.16463871 -0.47231784 -0.16564082 0.44516325 -0.32959685 -0.13513514 -0.4141768
-0.48711973 -0.21094821 -0.39663583 -0.24623026 -0.39813864 -0.2798498 -0.28424364 0.4776175
-0.18710493 0.4944919 -0.37666622 -0.45234665 -0.27843633 -0.22860049 0.49060756 -0.13502748
00000000: 7cb1 a4be bb0f 3cbe 64ac 95be 185e 5dbe
00000010: bdc0 afbe a45c f03e 6e2b d7be e4c8 d4be
00000020: ca3f b4bd a92d bb3e 97c3 b2be d875 cfbe
00000030: b285 e4be 07d5 f1be 29b4 96bd f9ac dbbd
00000040: 10e4 8dbe 05be 75be 5f3a b8be 1b06 eb3e
00000050: a838 d13e 5fbc eabe 2f61 86be f638 00bf
00000060: 13d6 6abe 76b4 86be b7a6 f53e 1803 0abd
00000070: a1d4 debe 7b5d d7bd 9984 6dbe a29c cbbe
00000080: 953a 48be 0568 e2be 6ed5 b1be 53da 8cbe
00000090: 01f4 eebd d437 003f d087 f23e 6cb8 e2be
000000a0: bbc8 e33e 0d97 28be a5d3 f1be bf9d 29be
000000b0: 70ec e33e ebc0 a8be de60 0abe fb0e d4be
000000c0: c267 f9be cf02 58be da13 cbbe c923 7cbe
000000d0: d4d8 cbbe 7948 8fbe 6288 91be 488a f43e
000000e0: 6f98 3fbe 0b2e fd3e 65da c0be fb99 e7be
000000f0: 358f 8ebe 3f16 6abe ea30 fb3e a544 0abe

discriminator.lin3.weight f4 [128, 64]
0.3025378 0.19164073 0.2639389 0.23609635 0.3340809 -0.21778367 0.314008 0.38164118
0.1693814 -0.27771002 0.29019475 0.29386604 0.2908673 0.42257693 0.20486209 0.21195106
0.2671879 0.27812237 0.41813272 -0.2033236 -0.28389198 0.3083584 0.28179654 0.3362066
0.20855768 0.3185104 -0.22176243 0.1337503 0.27105144 0.20388396 0.27429765 0.35640624
0.26027653 0.3777051 0.29789633 0.34149534 0.17521447 -0.20328489 -0.23534961 0.34391376
-0.25778484 0.2079504 0.30585042 0.23153657 -0.24244547 0.33310205 0.17160891 0.3283346
0.3552982 0.20205261 0.38206416 0.19359183 0.26298752 0.28455883 0.29911336 -0.18717428
0.2084528 -0.21346664 0.36754677 0.30681923 0.24119209 0.23874126 -0.14404237 0.19707973
0.30089575 0.16773528 0.2720778 0.2132181 0.32989115 -0.20981903 0.31734332 0.3810471
0.13587524 -0.3442773 0.2867975 0.27139094 0.28301334 0.4268965 0.18438485 0.19049409
0.25842237 0.2638751 0.41533905 -0.2637793 -0.30854985 0.31017572 0.2615325 0.31548747
0.19191253 0.30215523 -0.24769004 0.10619717 0.24969527 0.17121768 0.2607982 0.35717034
0.25028467 0.39407554 0.28656027 0.32344365 0.1410632 -0.21998338 -0.26322016 0.3478328
-0.2712231 0.1970912 0.32247487 0.20626606 -0.27254248 0.32249573 0.14501144 0.32757503
0.35641837 0.19306237 0.36074486 0.1699354 0.25675574 0.287175 0.28429168 -0.19157286
0.19686368 -0.21781147 0.36203325 0.3027071 0.24054307 0.21999872 -0.1813754 0.15990405
0.29853758 0.18440175 0.2655515 0.2351414 0.34912407 -0.21860802 0.3287764 0.37382942
0.16233112 -0.31492317 0.28177318 0.2881405 0.29432186 0.3856361 0.19167545 0.20819469
0.2676528 0.27272922 0.420402 -0.23132782 -0.26563558 0.31688154 0.281589 0.3354498
0.20002353 0.32077444 -0.20639189 0.13019672 0.26264685 0.2005219 0.27404734 0.33601108
0.24826874 0.36980626 0.28823602 0.33821982 0.1618819 -0.20835333 -0.27256644 0.34765512
-0.29884875 0.20100568 0.29869285 0.22734116 -0.23727763 0.33833936 0.16062555 0.32986683
0.3641213 0.20654212 0.3636792 0.18498935 0.26596907 0.30207512 0.281349 -0.14882858
0.20347743 -0.1836817 0.36247677 0.3030661 0.2546038 0.2376603 -0.15309796 0.19554864
0.3019915 0.18276991 0.2755307 0.2339245 0.32331473 -0.2098812 0.32047704 0.38330877
0.1616814 -0.33321124 0.2673704 0.28926635 0.26394677 0.41250578 0.17820844 0.20163763
0.26296705 0.26366082 0.41488177 -0.24203381 -0.32128188 0.32705912 0.27054656 0.33896515
0.19676198 0.32104 -0.22654234 0.11814477 0.24715394 0.18967523 0.26535767 0.33170855
0.25796485 0.41558623 0.26741022 0.33397362 0.15940282 -0.1931403 -0.23419444 0.3364963
-0.2555967 0.1977359 0.32263145 0.21621817 -0.2570442 0.33875647 0.15407446 0.339938
0.35608286 0.19567406 0.37486365 0.17941758 0.2549002 0.28709975 0.28428504 -0.18393163
0.20825903 -0.21351558 0.3619545 0.312694 0.23419006 0.23070061 -0.18767633 0.17461978
00000000: 3ce6 9a3e 783d 443e 0023 873e 3ec3 713e
00000010: a70c ab3e af02 5fbe a8c5 a03e 7966 c33e
00000020: 5172 2d3e 0230 8ebe 6894 943e 9c75 963e
00000030: 8fec 943e 015c d83e 5ec7 513e b309 593e
00000040: dacc 883e 0e66 8e3e 7e15 d63e 1034 50be
00000050: 4a5a 91be 27e1 9d3e a347 903e 4523 ac3e
00000060: 2590 553e cc13 a33e b115 63be d7f5 083e
00000070: 41c7 8a3e f5c6 503e be70 8c3e e17a b63e
00000080: f742 853e 9062 c13e de85 983e 7ad8 ae3e
00000090: 6c6b 333e ea29 50be 7dff 70be 7715 b03e
000000a0: 60fc 83be f3f0 543e 6d98 9c3e ec17 6d3e
000000b0: a043 78be 5a8c aa3e 3fba 2f3e 791b a83e
000000c0: a5e9 b53e e1e6 4e3e ea9d c33e f03c 463e
000000d0: 4da6 863e b2b1 913e 6325 993e 9daa 3fbe
000000e0: a774 553e 0097 5abe 172f bc3e 6917 9d3e
000000f0: 0ffb 763e 9778 743e d87f 13be 45cf 493e
00000100: 020f 9a3e ccc2 2b3e c84d 8b3e d855 5a3e
00000110: 7ee7 a83e cdda 56be d37a a23e 9b18 c33e
00000120: e122 0b3e 1d45 b0be 1fd7 923e c1f3 8a3e
00000130: 20e7 903e 2e92 da3e 62cf 3c3e e210 433e
00000140: f04f 843e a31a 873e 52a7 d43e 150e 87be
00000150: 3ffa 9dbe 5acf 9e3e 96e7 853e 9387 a13e
00000160: b884 443e 17b4 9a3e 75a2 7dbe e77d d93d
00000170: 1eb0 7f3e b053 2f3e 5787 853e 08df b63e
00000180: 5025 803e 45c4 c93e 07b8 923e 689a a53e
00000190: df72 103e 5343 61be cbc4 86be 2417 b23e
000001a0: c1dd 8abe 47d2 493e 6d1b a53e 6937 533e
000001b0: b08a 8bbe 291e a53e e17d 143e eab7 a73e
000001c0: 787c b63e 24b2 453e 8db3 b83e 8c03 2e3e
000001d0: 7d75 833e 9a08 933e ae8e 913e ad2b 44be
000001e0: a296 493e f809 5fbe 6c5c b93e 6dfc 9a3e
000001f0: ec50 763e 5847 613e 79ba 39be e3bd 233e
00000200: ebd9 983e d0d3 3c3e 5ef6 873e e8c8 703e
00000210: 64c0 b23e c8da 5fbe 6155 a83e 9266 bf3e
00000220: 213a 263e 9c3d a1be 9344 903e 2787 933e
00000230: 5bb1 963e 1872 c53e 9246 443e fd30 553e
00000240: ca09 893e 2aa3 8b3e ee3e d73e 33e1 6cbe
00000250: 6301 88be 4c3e a23e 6f2c 903e 14c0 ab3e
00000260: f8d2 4c3e 8c3c a43e 6558 53be 4a52 053e
00000270: a679 863e 9d55 4d3e ef4f 8c3e a509 ac3e
00000280: 293a 7e3e 3f57 bd3e ac93 933e 262b ad3e
00000290: 5ec4 253e 935a 55be d48d 8bbe daff b13e
000002a0: b402 99be 6fd4 4d3e 45ee 983e 1fcc 683e
000002b0: e8f8 72be d13a ad3e 067b 243e 4ee4 a83e
000002c0: 1b6e ba3e c77f 533e 2934 ba3e d96d 3d3e
000002d0: 192d 883e 97a9 9a3e fa0c 903e 8566 18be
000002e0: 635c 503e 0e17 3cbe 8e96 b93e 7b2b 9b3e
000002f0: 6e5b 823e 395d 733e b6c5 1cbe e73d 483e
00000300: a19e 9a3e 0928 3b3e 5c12 8d3e e789 6f3e
00000310: 8289 a53e 19eb 56be 9115 a43e 0c41 c43e
00000320: cf8f 253e aa9a aabe c6e4 883e b81a 943e
00000330: 0824 873e f533 d33e 467c 363e 187a 4e3e
00000340: 9ea3 863e 8dfe 863e 626b d43e b6d7 77be
00000350: 0f7f a4be 4b74 a73e 1485 8a3e d78c ad3e
00000360: f97b 493e 5b5f a43e b7fa 67be e3f5 f13d
00000370: ec15 7d3e 393a 423e f6dc 873e b4d5 a93e
00000380: f813 843e b8c7 d43e fee9 883e 97fe aa3e
00000390: 7e3a 233e 92c6 45be abd0 6fbe 3e49 ac3e
000003a0: 92dd 82be 487b 4a3e f32f a53e 4c68 5d3e
000003b0: 4c9b 83be 7d71 ad3e b2c5 1d3e 5b0c ae3e
000003c0: 7e50 b63e c85e 483e 21ee bf3e 3eb9 373e
000003d0: 4782 823e bdfe 923e cf8d 913e 9358 3cbe
000003e0: db41 553e d4a3 5abe 1a52 b93e 6e19 a03e
000003f0: 85cf 6f3e c83c 6c3e 392e 40be 87cf 323e

discriminator.lin3.bias f4 [128]
-0.47519735 -0.3675283 -0.44858006 -0.41367605 -0.43953174 -0.3723904 -0.3779857 -0.37278712
-0.4038575 -0.31969187 -0.5092618 -0.43207893 -0.32431406 -0.391878 -0.47059777 -0.32810548
-0.5121244 -0.3108492 -0.27118737 -0.3920513 -0.45934236 -0.41737384 -0.48343605 -0.45848274
-0.3888662 -0.4416764 -0.46956736 -0.515836 -0.51874954 -0.4723151 -0.4798006 -0.42037436
-0.47481102 -0.40668076 -0.50511366 -0.3931311 -0.45201302 -0.41064984 -0.43150243 -0.4169302
-0.4136792 -0.4688452 -0.46019915 -0.461643 -0.4354635 -0.38517854 -0.3955807 -0.31812605
-0.39980903 -0.48556522 -0.47253808 -0.41494623 -0.26280117 -0.44557577 -0.3233119 -0.43177816
-0.44692788 -0.5019081 -0.48698887 -0.4233278 -0.2707082 -0.4955819 -0.44812813 -0.372741
-0.5239611 -0.4451903 -0.43779054 -0.3566741 -0.46118018 -0.4198638 -0.3625189 -0.41254258
-0.4630267 -0.5016163 -0.3809532 -0.47652134 -0.3651909 -0.3407997 -0.40895787 -0.4079807
-0.44336447 -0.47428504 -0.48490575 -0.42672172 -0.40247777 -0.41165993 -0.35439467 -0.4267203
-0.4540078 -0.30226415 -0.44992858 -0.50467116 -0.27439627 -0.45171034 -0.51603633 -0.42140347
-0.5184957 -0.48658854 -0.2847063 -0.325784 -0.4054288 -0.4142747 -0.45112804 -0.51976186
-0.4335662 -0.39343178 -0.4187021 -0.43214798 -0.37125877 -0.53821206 -0.44057667 -0.38488424
-0.4309023 -0.38750148 -0.31352296 -0.5132649 -0.4322766 -0.36246482 -0.463817 -0.43883294
-0.2456137 -0.43455088 -0.31336328 -0.33473763 -0.42909846 -0.4424864 -0.4116851 -0.4870731
00000000: 114d f3be ab2c bcbe 49ac e5be 59cd d3be
00000010: 4e0a e1be f4a9 bebe 5787 c1be f4dd bebe
00000020: 69c6 cebe a7ae a3be fb5e 02bf 7339 ddbe
00000030: 7e0c a6be 3ca4 c8be 31f2 f0be 71fd a7be
00000040: 961a 03bf a027 9fbe 12d9 8abe f3ba c8be
00000050: ec2e ebbe 06b2 d5be ee84 f7be 40be eabe
00000060: 7819 c7be 6923 e2be 226b f0be d40d 04bf
00000070: c5cc 04bf 49d3 f1be 6da8 f5be 4f3b d7be
00000080: 6e1a f3be 7638 d0be 214f 01bf 7b48 c9be
00000090: 406e e7be b240 d2be e3ed dcbe e077 d5be
000000a0: c3cd d3be 7a0c f0be 399f ebbe 795c ecbe
000000b0: 12f5 debe 1f36 c5be 8e89 cabe 6be1 a2be
000000c0: c5b3 ccbe 019c f8be 83f0 f1be d573 d4be
000000d0: e08d 86be 8222 e4be 2389 a5be 0712 ddbe
000000e0: bbd3 e4be 0d7d 00bf 9b56 f9be 6cbe d8be
000000f0: 449a 8abe e9bc fdbe 0d71 e5be e9d7 bebe
00000100: 5122 06bf fcef e3be 1526 e0be fd9d b6be
00000110: cf1f ecbe 63f8 d6be 149c b9be c838 d3be
00000120: d611 edbe ed69 00bf 4c0c c3be 9bfa f3be
00000130: 4dfa babe 4c7d aebe ed62 d1be d9e2 d0be
00000140: ab00 e3be 7dd5 f2be 9145 f8be 457b dabe
00000150: 9111 cebe 17c5 d2be 3873 b5be 157b dabe
00000160: b673 e8be 5ec2 9abe 0a5d e6be 2132 01bf
00000170: ab7d 8cbe 9446 e7be f51a 04bf 32c2 d7be
00000180: 22bc 04bf 2222 f9be 06c5 91be 29cd a6be
00000190: 5d94 cfbe d01b d4be 41fa e6be 1d0f 05bf
000001a0: 64fc ddbe e46f c9be 1f60 d6be 8042 ddbe
000001b0: a115 bebe 44c8 09bf 4493 e1be 8c0f c5be
000001c0: 3a9f dcbe 9866 c6be 1586 a0be 5465 03bf
000001d0: 5c53 ddbe fd94 b9be 6c79 edbe b6ae e0be
000001e0: 2882 7bbe 747d debe 2771 a0be bb62 abbe
000001f0: cbb2 dbbe 948d e2be 64c8 d2be a561 f9be

VGAE.encoder.conv1.bias f4 [64]
0.08713094 0.0895422 0.01791568 -0.014137641 0.07894956 0.09174086 -0.013164878 -0.014377627
-0.013696139 0.09441515 0.08352516 -0.014277377 -0.01429729 0.09525425 0.09651639 0.09800374
0.08407603 -0.0130106285 0.08087011 0.10063624 -0.01409245 0.08297666 0.0806945 -0.012401037
0.10104476 0.09535858 0.0877129 0.09795966 0.07056077 0.09109312 -0.011958007 -0.012601723
-0.0144309215 0.089424595 0.090360574 0.01081799 0.078899324 0.092522405 -0.014022131 0.088971555
0.09658972 0.08625955 -0.012700341 0.09474301 0.084011264 0.07957854 -0.010919721 0.07788974
0.07482295 0.082487896 0.08733319 -0.012428815 -0.01374798 0.08903651 0.094002075 0.08231615
0.08963595 -0.013467926 0.0874341 -0.013193628 -0.015196045 0.086016424 0.05613113 -0.012631222
00000000: b571 b23d e761 b73d e7c3 923c 90a1 67bc
00000010: 4fb0 a13d a2e2 bb3d 80b1 57bc 2390 6bbc
00000020: c565 60bc bb5c c13d 3d0f ab3d a9eb 69bc
00000030: 2e3f 6abc a914 c33d 63aa c53d 2fb6 c83d
00000040: 0e30 ac3d 882a 55bc 3a9f a53d 5f1a ce3d
00000050: 05e4 66bc abef a93d 2843 a53d b82d 4bbc
00000060: 8ef0 ce3d 5c4b c33d d2a2 b33d 139f c83d
00000070: 2a82 903d 088f ba3d 84eb 43bc 7577 4ebc
00000080: ac6f 6cbc 3e24 b73d f70e b93d f03d 313c
00000090: f895 a13d 637c bd3d 15bd 65bc b836 b63d
000000a0: d5d0 c53d d9a8 b03d 1715 50bc a008 c23d
000000b0: 190e ac3d 13fa a23d a1e8 32bc a884 9f3d
000000c0: c63c 993d 6aef a83d bedb b23d 3aa2 4bbc
000000d0: 353f 61bc c658 b63d 2984 c03d 5f95 a83d
000000e0: 0e93 b73d 93a8 5cbc a610 b33d 162a 58bc
000000f0: d5f8 78bc 6129 b03d c1e9 653d 2ff3 4ebc
