work_work/linear_decoder+CLUB/best_model_VGAE.pth (torch, 514151 bytes, 2 tensors)

encoder.linear.weight f4 [256, 500]
000000 32 ba 82 3c d0 3e b9 bd 7d e3 f8 3a 93 6e 5e 3d
       0.015957925 -0.09045184 0.0018988695 0.05430467
000010 61 2f 81 3d bf e2 f7 bd ab 8c 86 3d 28 4b 13 bd
       0.06307865 -0.12103795 0.06569799 -0.035960346
000020 1d 4d c3 3b 97 ba 05 3e af 4f 5c 3d a5 90 ae bd
       0.0059601204 0.1305946 0.05378693 -0.085236825
000030 2e d1 31 bd 67 3e 23 bd 57 34 47 bd 00 3c 4a bc
       -0.04341238 -0.039854433 -0.0486339 -0.012343407
000040 06 9c 2a 3d 1a 57 2e 3d 4b 3c 33 bd 96 ca d4 3d
       0.0416527 0.042563535 -0.04375867 0.10390203
000050 f0 80 f2 3b 63 18 8b bb ff 29 a2 3d af e2 01 3e
       0.0074006245 -0.0042448505 0.07918166 0.12684129
000060 98 a2 00 bd 33 e1 6a 3b c7 fa a9 3d 23 56 c2 bd
       -0.03140506 0.0035839796 0.08299785 -0.094890855
000070 21 61 52 ba 37 ac db bd b3 f7 24 be f3 64 93 bd
       -0.00080253376 -0.10726207 -0.16110115 -0.07196989
000080 05 f4 d9 3d 28 93 08 bd 38 e7 ba 3d 7d b1 2e bd
       0.10642246 -0.033343464 0.09126133 -0.042649735
000090 a0 06 a0 3d fc 0a 4f bb e6 15 c6 3b 39 98 76 3e
       0.078137636 -0.003159224 0.006045091 0.24081506
0000a0 e6 a2 80 bd 2c 57 5d 3d 3c 0a 91 bd 18 4c 14 3d
       -0.062810704 0.05403821 -0.0708203 0.03620538
0000b0 3a b5 33 3d 3d d8 5b 3d e4 31 0f 3c 63 91 57 bc
       0.043874003 0.053673018 0.008739922 -0.0131572215
0000c0 77 b4 c8 3d c4 8a 8d 3d e3 d8 02 3e 93 f6 e6 3d
       0.09800046 0.06911233 0.12778048 0.11277499
0000d0 3f f5 5a bc 64 47 c9 3c 93 69 ac bd 4d 32 85 3d
       -0.013364135 0.024570175 -0.08418574 0.06503735
0000e0 db 17 7d bd 7e 54 b3 3c 53 e5 11 bd 3c ff b9 3c
       -0.06179033 0.021890875 -0.03561909 0.022704713
0000f0 81 86 1d 3d 5f f1 d9 3c 02 a3 ba bd 1e 95 68 3d
       0.03845835 0.026604353 -0.091131225 0.056782834
000100 3f df 4c bd 6d 3b 75 3d 06 61 32 3d f5 f2 a6 bc
       -0.05001759 0.059871126 0.04354956 -0.020379523
000110 16 cd 96 bd 53 52 fb bd 2a bb fc ba 45 c2 ad bb
       -0.07363336 -0.122715615 -0.0019281853 -0.0053026997
000120 01 d8 0a 3c 62 82 dc 3d eb b6 01 bc df c1 e1 3d
       0.008474351 0.10767056 -0.007917146 0.11023306
000130 7c 84 f9 bc e4 93 e6 3d aa 94 43 bc 7b 86 83 3b
       -0.030458681 0.11258677 -0.0119373 0.004013834
000140 b1 31 0a be 8d cf 81 3c 96 76 b5 bd c8 b3 98 3d
       -0.13495518 0.015846038 -0.08860509 0.074561656
000150 18 d7 ca 38 a0 80 eb 3c 50 ec 08 bd 75 ff 8a 3d
       9.672175e-05 0.028747857 -0.03342849 0.06787006
000160 f0 3d 07 3e f6 bd 63 bd f9 96 a8 bc 28 51 62 3d
       0.13207221 -0.055601083 -0.020579802 0.055253178
000170 5a 06 be b9 35 af e9 3b 59 8f 80 3d 21 88 60 3d
       -0.00036244356 0.007131482 0.062773414 0.054817323
000180 34 d7 9e ba 11 6c ea bc 0c 3a ef 3c e2 1d 47 bc
       -0.0012118579 -0.028615983 0.029202484 -0.012153121
000190 2f af 7f 3d 18 79 8f 3d 5b 9f fd 3b 82 a8 44 3e
       0.062422927 0.07005519 0.007739944 0.19204906
0001a0 1c 67 80 3d 47 e0 9f 3c 9f 28 3e 3c 19 ac 8b 3d
       0.062696666 0.019516123 0.0116063645 0.068199344
0001b0 d6 6b 93 3c ec 9c e2 bc 06 a5 21 bc ea 1c dd 3d
       0.017995756 -0.027662717 -0.009866005 0.107965305
0001c0 ca 5a 4d bb 22 5a fa 3c 58 a6 61 3d 5a 43 32 3d
       -0.0031334632 0.030560557 0.05509028 0.043521263
0001d0 4a a3 dd 3b a0 a6 4f 3d 14 e7 5b 3d 97 4a a9 ba
       0.0067638503 0.050696015 0.05368717 -0.0012915906
0001e0 b4 60 c7 3c 35 74 28 bc 3a 05 cc bd 07 b0 a8 bd
       0.024338104 -0.010281612 -0.099619344 -0.082366996
0001f0 e4 c6 ab bd 71 c9 d6 bd 38 9a 41 bc 3b 3d e0 3c
       -0.08387545 -0.10487641 -0.011816554 0.027372947
000200 8d 0d 79 bd 08 84 e2 3d fa 95 e8 bb 2c 6f b8 3b
       -0.06080394 0.11060339 -0.0070979567 0.005628487
000210 45 ff 22 3c 8b 1f 33 3b ae f8 20 3c 2d 27 12 be
       0.009948556 0.0027332033 0.009824915 -0.14272757
000220 69 6e d3 3c ab 96 65 3d 89 f4 76 3d c9 d6 8d 3d
       0.025809484 0.05605189 0.0602918 0.06925733
000230 9e b7 36 3c 2d 51 81 bb a4 72 ab 3d 8d 0e 52 3c
       0.011152176 -0.0039464445 0.08371475 0.012820852
000240 4e 33 3b bd 11 b2 66 bd 20 21 21 3d 46 06 e1 bc
       -0.045703225 -0.05632216 0.03933823 -0.027468812
000250 33 5e 8b bd c3 a4 72 3d ba c4 5c bd c4 11 1d be
       -0.068050765 0.05923916 -0.05389855 -0.15338808
000260 2e e4 11 bd 47 7d 21 bd 03 aa 27 3d fd 14 76 bd
       -0.035618 -0.039426114 0.04093362 -0.06007861
000270 d4 db 20 3d a4 17 1d 3c 52 68 80 bd 45 2b a9 3c
       0.039272144 0.009588156 -0.062698975 0.020650515
000280 96 30 04 3d 5c e0 4c be 79 f3 89 bc a8 e1 45 3d
       0.032272898 -0.20007461 -0.01683973 0.048310906
000290 c1 53 9c 3d 7f a2 3f 3d 09 7a 39 3d e4 3b 6c 3d
       0.07633162 0.046785828 0.045282397 0.057674304
0002a0 0d 5c 80 3b a6 9d 85 bd 95 8e 00 be f5 bf 66 3d
       0.0039172233 -0.0652421 -0.1255439 0.05633541
0002b0 18 8c b4 bc 7b bf 92 bc 10 4b 03 bd 88 fb f9 bd
       -0.022039458 -0.01791357 -0.032054007 -0.12206179
0002c0 1a 5a ff 3d b0 cd 62 be 7d 58 c6 3d 82 3c ae 3d
       0.124683574 -0.22148776 0.096848466 0.08507635
0002d0 00 74 2e 3e 62 43 a1 bd 43 44 64 3d 6f 5c b5 3c
       0.17036438 -0.078741804 0.055729162 0.022138802
0002e0 31 30 fb 3c 99 0b 7f bd f5 7d 01 3d 47 cf 85 3d
       0.030662628 -0.06226692 0.031614263 0.06533676
0002f0 83 41 44 3d 59 bb 4b bd 9d e3 af 3d 74 06 c6 bc
       0.04791404 -0.049739216 0.08588336 -0.024172999
000300 47 fb 8d bd dc 6e a6 3d 6b ce cd bd 37 06 f3 bc
       -0.06932693 0.081266135 -0.10049137 -0.02966605
000310 e5 aa a2 3d b6 36 24 bd ac 98 54 bd ef 0f fa bc
       0.07942752 -0.04009124 -0.05190341 -0.030525176
000320 2d 09 81 bb 4f 39 6d 3d a2 db 1e 3d a3 4f c8 bd
       -0.0039378614 0.05791598 0.038783677 -0.097808145
000330 10 31 70 bd 50 40 42 bc ea f5 9b 3a b1 94 08 3d
       -0.05864054 -0.011856154 0.001189885 0.03334493
000340 b7 5a fc bc b8 2b 0c 3c 54 76 32 be e6 a0 51 be
       -0.030804975 0.008555345 -0.17427951 -0.20471534
000350 51 86 04 bc f8 81 f0 ba ea 28 18 be e0 b3 e8 bd
       -0.008088664 -0.001834928 -0.14859357 -0.113624334
000360 2b cf ef 3d 17 fc 94 bd 07 f3 fb bb 4c b1 14 bd
       0.11709436 -0.07274645 -0.007688883 -0.036301896
000370 f3 28 7f 3d 72 b0 68 bd 15 89 d1 3b ea c0 b8 bc
       0.06229491 -0.056808896 0.0063945153 -0.022552926
000380 ad 29 98 bc 83 39 86 3c 0a 57 22 3d 35 5a c7 bc
       -0.01857456 0.016384846 0.03963379 -0.024335006
000390 68 b7 af bd 6b 55 a3 bd ed a3 70 bd ae 27 b9 3c
       -0.08579904 -0.079752766 -0.05875008 0.022601929
0003a0 72 a8 a1 3c b4 21 9a bd 4e 98 15 bb 56 d5 93 bd
       0.019733641 -0.075259596 -0.0022826376 -0.07218425
0003b0 ff a2 0c 3d 48 92 16 be e9 65 aa 3d 68 da 21 bc
       0.034335133 -0.1470424 0.08320219 -0.009878732
0003c0 6e a7 15 bc 7c c2 03 be 48 f2 1d 3d b6 b4 26 bc
       -0.009134157 -0.12867159 0.038561136 -0.010174921
0003d0 27 c4 5c 3d 79 ed 59 bc 71 6c 16 3d 65 13 6b bd
       0.053898003 -0.013301247 0.03672451 -0.057391543
0003e0 07 2e e1 bc 01 03 3c bd a8 dc 09 bd f2 ca 7f 3b
       -0.027487768 -0.045901302 -0.0336577 0.0039030877
0003f0 86 75 62 bd 82 95 49 3d ed f7 66 3c fd a0 c9 3d
       -0.05528786 0.049214847 0.014097196 0.09845159

encoder.linear.bias f4 [256]
000000 51 75 63 ba 1d 6f 59 bc 17 20 6a 3c 6a cc b2 3a
       -0.00086768443 -0.01327112 0.014289877 0.0013641242
000010 f9 9b 53 3c 6a eb ef 39 2e 66 6d bc 6a cb 8f bc
       0.012915605 0.0004576103 -0.014489694 -0.01755305
000020 8b b9 cb 3a 80 f8 0e bc 33 26 8e bc 52 26 a5 3c
       0.0015542967 -0.008726239 -0.0173522 0.020159874
000030 44 9c c0 bb 80 f5 50 3c ab c7 f4 3a 6b 39 19 bb
       -0.0058780033 0.012753844 0.0018675228 -0.002338017
000040 89 38 48 3c 97 97 8d 3b 4f 32 39 bc b5 ec 59 3c
       0.01222051 0.0043210494 -0.011303498 0.013301064
000050 92 f1 c0 3b 08 5e 8e 3b e9 9a 47 bb 9c c6 8b bc
       0.0058881724 0.0043447055 -0.0030457324 -0.017062478
000060 81 e1 94 3b c5 98 d8 b9 49 5b 0e 3b d8 57 08 3c
       0.0045434837 -0.00041312553 0.002172189 0.008321725
000070 e2 c7 89 bb 24 bd d3 bb 1d e4 c0 ba 46 cf 9f bb
       -0.004204736 -0.0064617563 -0.001471642 -0.004877004
000080 ae 70 22 3c 5f d2 96 3c 34 fa ed 3b 50 4e 0f bc
       0.00991456 0.01841086 0.0072624926 -0.0087466985
000090 b8 13 91 3c 69 56 61 3c 9a 6d f3 ba 89 f9 f7 3b
       0.017709598 0.013753512 -0.0018572093 0.0075675887
0000a0 42 e8 6d 3b 74 77 1a b6 f8 a2 92 bc 32 1b e9 ba
       0.0036301767 -2.301732e-06 -0.017899975 -0.0017784594
0000b0 99 7b b4 bb 9d 6a cf bb ed 4e 95 3c 5f 9c de bb
       -0.005507898 -0.006329848 0.018226111 -0.006793543
0000c0 76 d1 96 3c e5 86 97 3b 2f 1c c6 3b ec 45 28 bc
       0.018410426 0.004624235 0.00604584 -0.010270577
0000d0 fb 0d 3c bc 57 fe ad bc 94 94 39 bc b8 8d 7e 3c
       -0.011477943 -0.021239443 -0.011326928 0.015536718
0000e0 1c 36 79 3c ba f0 20 3b 04 77 0a bc a1 92 d9 3b
       0.015210655 0.0024557547 -0.008451227 0.006639794
0000f0 dc e3 b9 bb 5c 6c af 3a 21 21 2a ba 45 4b a4 bc
       -0.005672915 0.0013383734 -0.0006489922 -0.020055423
000100 e8 ac 95 bb 7d 07 ad 3c 4a 42 c8 3a 85 4e 1c ba
       -0.004567731 0.021121735 0.0015278545 -0.0005962628
000110 ac c4 86 bc c7 ac 32 bc ed a6 a9 ba 1f 4f c5 bb
       -0.016451202 -0.010905451 -0.0012943425 -0.006021395
000120 fb d2 11 bc ae e2 9a 3c a7 fd 91 3c ad ae a0 bb
       -0.008900399 0.018906917 0.017821146 -0.0049036355
000130 1c 72 63 bc f6 e4 af bb 4a d4 ff 3b 96 02 bb 3a
       -0.013882186 -0.0053678704 0.0078072893 0.0014267738
000140 12 f2 0c 3c dc c1 72 bb 95 33 9d 3c 78 4c 74 3c
       0.008602636 -0.0037041819 0.019189635 0.01491081
000150 33 ad 49 3b c6 d9 9d bc 3b a3 96 bc 16 0f 99 bc
       0.00307734 -0.019268882 -0.018388381 -0.018683951
000160 bd 4e a7 ba e2 31 f5 3b e0 3e 88 bc 90 a1 9c bb
       -0.0012764555 0.007482753 -0.016631544 -0.004780002
000170 31 b7 49 bc 52 0a 6e bb d4 68 14 3c 33 cb 9f 3c
       -0.012311743 -0.003632207 0.009058196 0.019506073
000180 23 35 4a 3b 89 5b 8e bc 5b 5d 52 3c 0f 12 88 ba
       0.0030854426 -0.017377632 0.0128396405 -0.0010381358
000190 13 f1 20 3b 21 33 6b 3a 67 bb 9c 3a 38 b1 9c bc
       0.0024557754 0.00089721574 0.0011957706 -0.019127473
0001a0 af 72 8b bc d9 f0 26 3a 02 5c 2f 3c 30 74 45 bc
       -0.017022459 0.00063682866 0.010703089 -0.012051627
0001b0 d7 bb ff 3a 97 f9 44 3c c6 a7 63 3b b9 e5 33 bc
       0.0019510937 0.0120223975 0.0034737452 -0.010980063
0001c0 87 e6 96 bb e7 ca 51 3b cc af 4d 3c ec 51 3f 3a
       -0.0046051177 0.0032011808 0.01255412 0.0007298279
0001d0 20 ff 88 bc 63 5f 30 bc ba d0 2d bc 3e 45 9f 3a
       -0.016723216 -0.0107649295 -0.010608846 0.0012151373
0001e0 58 e4 85 3c 61 7a a2 bc 68 ba 74 3a a2 5e a8 3c
       0.016344234 -0.019833745 0.0009335638 0.020552937
0001f0 91 3b fc 3b 10 3e a0 bb 65 1d a5 3c 5e f9 f7 b9
       0.0076975306 -0.004890211 0.020155618 -0.00047297304
000200 82 52 b2 bc f1 dc 13 3b b6 b7 d7 b8 b0 a6 4c bb
       -0.021767858 0.0022562111 -0.00010286218 -0.0031227283
000210 70 fb 48 bc 2c e4 68 bc 9b ed 4b bc ae 01 a5 3c
       -0.012266979 -0.014214557 -0.012446786 0.020142402
000220 51 3e 67 3c a5 0a 83 bc 58 07 af 3a 5d 3e 32 bc
       0.0141139785 -0.015996287 0.0013353629 -0.010879126
000230 cd e2 8a 3c 09 89 8b ba 98 38 a8 3c 46 e9 9a 3c
       0.01695385 -0.0010645698 0.020534799 0.018910062
000240 e9 6b 46 bc ff eb c6 3b 60 77 1c bc 93 6c c4 3a
       -0.012110689 0.0060706134 -0.009549946 0.0014985971
000250 77 3f f2 b9 30 6f 41 bb 6e 73 9c 3c 2e 6a a4 3c
       -0.00046205122 -0.0029515736 0.01909801 0.020070162
000260 39 37 29 bb 62 83 88 bb b7 96 98 3c 8f cd 21 3b
       -0.0025820269 -0.0041660527 0.018626554 0.0024689173
000270 89 47 24 3a f8 13 e1 bb 32 35 92 bc a8 3a 38 39
       0.0006266763 -0.0068688355 -0.017847631 0.00017569459
000280 61 32 82 3a 4c 6f 71 bc eb 57 9a bb c2 35 88 b9
       0.0009933227 -0.014736008 -0.0047101877 -0.00025979994
000290 93 22 f4 3a 67 ce 88 bc f0 15 0f 3c 58 9e 5e bc
       0.0018626027 -0.016699983 0.008733258 -0.013587557
0002a0 74 b2 f0 bb 23 cf 33 3b 69 22 10 bc 40 c4 54 bc
       -0.007345492 0.0027436696 -0.0087972665 -0.012986243
0002b0 b2 35 e3 3b 56 42 17 ba 39 a9 68 3c bb 62 72 3c
       0.006933891 -0.00057700777 0.014200502 0.014794047
0002c0 8d 75 09 bc 31 6c 5e 3a 37 05 e7 3a 22 1a 53 3b
       -0.008389843 0.00084847497 0.0017625456 0.0032211621
0002d0 d9 47 4c bb c3 c9 de 39 2b ea 63 3c 08 08 a4 bb
       -0.0031170754 0.00042493464 0.01391081 -0.00500584
0002e0 c5 f7 91 3b a7 c7 c4 bb 6c b9 ef ba e8 ae 7c 3c
       0.0044545853 -0.0060052457 -0.0018289513 0.01542256
0002f0 1a 17 9b 3c 3c 28 cf 3b 5e 46 87 3c 6b 76 82 bb
       0.018931914 0.006321935 0.016513046 -0.0039814017
000300 11 10 08 3b 9b 02 c5 ba ae 2a 73 bc 6e fd 8e 3c
       0.002076153 -0.0015030684 -0.014841719 0.017454829
000310 d5 30 49 bb 1f 88 05 ba e2 66 8e 3c 07 78 80 3b
       -0.0030699272 -0.0005093831 0.017383043 0.0039205584
000320 a7 b1 a3 3b 8c d5 cb bb d2 b1 61 3c a2 e1 00 bb
       0.004995543 -0.006220525 0.013775306 -0.0019665738
000330 86 43 9a 3b d4 c1 d7 3b 77 30 64 bb 88 be f1 3b
       0.0047077565 0.0065843854 -0.0034818926 0.0073774494
000340 9c c5 4b bb 4b f2 87 bc 95 68 97 bb 77 99 82 bc
       -0.0031093126 -0.016595026 -0.0046206214 -0.015942318
000350 92 1a dc 3b 82 90 a3 3c 48 89 8c bb 90 7b 9e 3c
       0.0067170346 0.019966368 -0.004288826 0.019346029
000360 99 14 ed b9 f2 00 97 3b be 77 48 bb 7c 51 f0 ba
       -0.0004521951 0.004608267 -0.003058895 -0.0018334831
000370 2d 4b a1 3c 45 a2 91 bb 90 8c 47 3c ce 1e b3 3b
       0.019689167 -0.004444393 0.012179509 0.0054663187
000380 b8 79 63 3c 91 fd b6 ba d8 4b 9d 3c 92 9c 76 bc
       0.0138840005 -0.0013961067 0.019201204 -0.015051978
000390 26 63 87 bc 9c 6b 6b bc dd d0 b3 3b dd 88 de 3a
       -0.01652677 -0.014368918 0.005487545 0.0016978044
0003a0 1c 59 b4 3b 67 59 1f 3c 77 2b 0b 3c cc f7 f2 3b
       0.0055037867 0.009725905 0.00849425 0.0074147936
0003b0 02 16 79 bc 9e 48 a0 3c ea ba 95 3c 1f 9a 7a bc
       -0.015203001 0.019565877 0.018277604 -0.015295534
0003c0 d2 5f 8b bb a3 be 48 bb c1 dd e6 3b dd 2a d4 bb
       -0.004253366 -0.0030631206 0.007045478 -0.0064748363
0003d0 55 64 c5 bb f6 52 e5 3b 99 0f 67 bc 4e 01 18 b8
       -0.0060239234 0.006998415 -0.01410284 -3.624084e-05
0003e0 4e 5a 8d 3c a5 83 e1 39 8b 3a 8c bb bb 54 3f bc
       0.017254975 0.00043013427 -0.00427944 -0.011677916
0003f0 94 3d a7 3b 88 0b 4a 3c d4 fe 14 3c 82 95 78 3c
       0.005103776 0.012331851 0.009093959 0.015172364
