work_work/linear_decoder+CLUB/club_vgae_pubmed.pth (torch, 514151 bytes, 2 tensors)

encoder.linear.weight f4 [256, 500]
-0.02001616 -0.091973275 -0.00043306508 0.055865556 0.069559544 -0.088689655 0.055501774 -0.03039147
-0.039173722 0.116937876 0.044685263 -0.091131456 -0.03913507 -0.037418604 -0.04912143 -0.02744518
0.05467442 0.05362121 -0.05039153 0.09878717 0.019375255 -0.03790721 0.08227478 0.0866787
-0.05559389 -0.023203598 0.08094754 -0.09064735 -0.023545641 -0.11826786 -0.16460566 -0.11594791
0.08750641 -0.04286047 0.07418779 -0.07636756 0.075840026 -0.0023281048 -0.009507795 0.2631067
-0.102379315 0.054536384 -0.09209804 0.023242215 0.058269665 0.043291718 0.014548117 -0.022136383
0.10130013 0.09028687 0.16050693 0.14082788 -0.0040149754 0.009276387 -0.10184135 0.056755718
-0.058599357 0.028741144 0.02255936 0.030834911 0.018624922 0.03164767 -0.105924346 0.055613086
-0.0464628 0.05292426 0.025617693 -0.01879726 -0.073820464 -0.11152236 0.024095595 -0.0121239945
0.013304909 0.11888157 -0.014856127 0.105823375 -0.03669556 0.08319566 -0.019371575 -0.018983858
-0.12833068 0.03445144 -0.097347125 0.07506448 -0.0051910495 0.013907585 -0.03442076 0.07432716
0.13719204 -0.048753235 -0.004978806 0.078543276 -0.03464198 0.002547042 0.06402665 0.055592846
-0.004778376 -0.051772278 0.018281396 -0.028154928 0.05912068 0.08110525 0.006608059 0.20892406
0.021428723 0.019211458 0.008981662 0.059608858 0.014725858 -0.021194296 -0.035998043 0.12378792
0.014728475 0.014735196 0.06403849 0.060990654 -0.0012315903 0.042378686 0.0773381 -0.012323351
0.04764699 -0.0068542636 -0.11063037 -0.09430131 -0.063959226 -0.0796853 0.011909367 0.04388655
-0.025349803 0.12029066 -0.0039569684 0.017552895 0.015324688 0.033906773 0.028602557 -0.1337097
0.055974703 0.07755884 0.06825453 0.08439557 0.015176912 0.0013185106 0.072289154 0.02595613
-0.027324665 -0.054261528 0.015654601 -0.0221826 -0.044224575 0.074979156 -0.052158624 -0.14705607
-0.011659649 -0.007550454 0.019840792 -0.066592865 0.037993874 -0.017390398 -0.058132518 -0.009245853
0.04913869 -0.2005112 -0.011563872 0.042869143 0.02991285 0.07300773 0.043086655 0.060116246
-0.0100671295 -0.078396894 -0.14512664 0.04021113 -0.038779534 -0.03836123 -0.020475855 -0.13202809
0.14349093 -0.26408562 0.06734778 0.068089895 0.18576436 -0.090239644 0.05291012 0.019867014
-0.018058768 -0.07390648 0.038442016 0.059829574 0.047445454 -0.053529605 0.076811664 -0.02899918
-0.08008065 0.08669057 -0.083795786 -0.006560712 0.08181711 -0.037798934 -0.114825904 -0.031125043
-0.03451436 0.08052654 0.035029065 -0.105411276 -0.065067075 -0.017483216 0.005648976 0.044193454
-0.044025175 0.016321585 -0.15602349 -0.24152145 0.025489898 0.02282026 -0.20074777 -0.12581617
0.12121126 -0.06858345 0.0068889917 -0.035382506 0.08230515 -0.042338684 0.015348274 -0.016289989
-0.013475845 0.0150837535 0.0394657 -0.021847568 -0.09551934 -0.07953625 -0.032211754 0.048318617
0.017714575 -0.023504784 -0.00046143026 -0.04559976 0.01805605 -0.14307676 0.08994761 -0.055235367
-0.02640611 -0.13566163 0.035382 0.00990955 0.044579603 0.007516905 0.03997606 -0.042468425
-0.072917536 -0.071614295 -0.039973035 0.030773142 -0.069081 0.026261324 0.014705495 0.13741669
00000000: eef8 a3bc 7c5c bcbd 030d e3b9 48d3 643d
00000010: 3c75 8e3d eca2 b5bd d455 633d 88f7 f8bc
00000020: a074 20bd 207d ef3d e507 373d 21a3 babd
00000030: 184c 20bd 4044 19bd 8d33 49bd b7d4 e0bc
00000040: 49f2 5f3d eaa1 5b3d 5967 4ebd ee50 ca3d
00000050: dbb8 9e3c 9744 1bbd ae7f a83d 9a84 b13d
00000060: 6bb6 63bd 7915 bebc d3c7 a53d 51a5 b9bd
00000070: cae2 c0bc 6b36 f2bd 638e 28be 1976 edbd
00000080: 9036 b33d 768e 2fbd c5ef 973d 9866 9cbd
00000090: 0452 9b3d 1e93 18bb 95c6 1bbc ecb5 863e
000000a0: 3fac d1bd 8b61 5f3d e69d bcbd 7566 be3c
000000b0: 2cac 6e3d a852 313d 3a5b 6e3c 5c57 b5bc
000000c0: 7176 cf3d 53e8 b83d ee5b 243e 2f35 103e
000000d0: 0e90 83bb fdfb 173c 3392 d0bd af78 683d
000000e0: e105 70bd 8c72 eb3c 68ce b83c 7f99 fc3c
000000f0: 4b93 983c fda0 013d ddee d8bd 8cca 633d
00000100: c74f 3ebd 1cc7 583d 32dc d13c b6fc 99bc
00000110: 2f2f 97bd d665 e4bd 2064 c53c b8a3 46bc
00000120: d5fc 593c 2e78 f33d 1d67 73bc edb9 d83d
00000130: 154e 16bd 7c62 aa3d 23b1 9ebc 0984 9bbc
00000140: 1e69 03be f41c 0d3d ee5d c7bd 68bb 993d
00000150: ae19 aabb a4dc 633c c8fc 0cbd d738 983d
00000160: 127c 0c3e 79b1 47bd 4025 a3bb 4cdb a03d
00000170: c0e4 0dbd 46ec 263b 6720 833d 53b5 633d
00000180: ec93 9cbb 2b0f 54bd dec2 953c 2aa5 e6bc
00000190: 8728 723d 821a a63d 6b88 d83b 30f0 553e
000001a0: 4a8b af3c 5961 9d3c d227 133c 6b28 743d
000001b0: ba44 713c a99f adbc af72 13bd 8584 fd3d
000001c0: b44f 713c e46b 713c 9d26 833d 56d1 793d
000001d0: 506d a1ba 4695 2d3d 7063 9e3d e1e7 49bc
000001e0: 7d29 433d bb99 e0bb 2d92 e2bd 0c21 c1bd
000001f0: 0efd 82bd 0c32 a3bd 811f 433c 62c2 333d
00000200: 64aa cfbc f35a f63d 75a9 81bb 17cb 8f3c
00000210: 6614 7b3c d4e1 0a3d e94f ea3c 32eb 08be
00000220: bb45 653d 2bd7 9e3d 08c9 8b3d 96d7 ac3d
00000230: 95a8 783c e0d1 ac3a 560c 943d f3a1 d43c
00000240: fad7 dfbc 5641 5ebd 143e 803c 49b8 b5bc
00000250: d424 35bd ac8e 993d 48a4 55bd de95 16be
00000260: 1d08 3fbc cc69 f7bb 2889 a23c d761 88bd
00000270: 779f 1b3d 4f76 8ebc 5d1c 6ebd eb7b 17bc
00000280: a745 493d cf52 4dbe 6576 3dbc 8e97 2f3d
00000290: cb0b f53c 1485 953d a27b 303d 743c 763d
000002a0: 9af0 24bc 8d8e a0bd 149c 14be 6db4 243d
000002b0: 4ad7 1ebd aa20 1dbd fbbc a7bc 5f32 07be
000002c0: 49ef 123e 3b36 87be a2ed 893d b772 8b3d
000002d0: 0339 3e3e 90cf b8bd 48b8 583d 26c0 a23c
000002e0: fbef 93bc 485c 97bd 6075 1d3d db0f 753d
000002f0: 2a56 423d dc41 5bbd 6f4f 9d3d b08f edbc
00000300: 5301 a4bd d38a b13d 209d abbd 3efb d6bb
00000310: bb8f a73d 0ed3 1abd d829 ebbd f2f9 febc
00000320: ee5e 0dbd 19eb a43d a37a 0f3d dee1 d7bd
00000330: e341 85bd f638 8fbc 0c1b b93b 3204 353d
00000340: be53 34bd d8b4 853c 9fc4 1fbe 6651 77be
00000350: 31d0 d03c 8ef1 ba3c d390 4dbe f4d5 00be
00000360: 9c3d f83d 7b75 8cbd 0dbd e13b 3fed 10bd
00000370: 9a8f a83d 546b 2dbd 5477 7b3c 9572 85bc
00000380: cac9 5cbc d921 773c c9a6 213d acf9 b2bc
00000390: a59f c3bd e7e3 a2bd 79f0 03bd bee9 453d
000003a0: 281e 913c 1b8d c0bc 1fec f1b9 d0c6 3abd
000003b0: 48ea 933c b782 12be 7436 b83d 7b3e 62bd
000003c0: a051 d8bc e2ea 0abe b7ec 103d aa5b 223c
000003d0: 1a99 363d 5f50 f63b f0bd 233d 5ff3 2dbd
000003e0: ca55 95bd 84aa 92bd c4ba 23bd f517 fc3c
000003f0: 577a 8dbd fd21 d73c 51ef 703c f6b6 0c3e

encoder.linear.bias f4 [256]
-0.0011850601 -0.013031129 0.014229878 0.0019339444 0.013018164 0.00030723948 -0.014280292 -0.017611358
0.0011658389 -0.008551596 -0.017262073 0.020173982 -0.0061122705 0.013195011 0.0020216878 -0.0026623001
0.011895117 0.0042231972 -0.01198779 0.013268937 0.0058177565 0.0037799065 -0.002994513 -0.017110387
0.0045430195 0.00034108746 0.0019336612 0.00845072 -0.003854107 -0.006145851 -0.0014079404 -0.00444722
0.010262411 0.018594844 0.007578276 -0.008168947 0.017783606 0.01374623 -0.0017228056 0.0075632036
0.0029025516 -0.0008314913 -0.017858494 -0.0016033452 -0.005641185 -0.0069633448 0.01820317 -0.0069566197
0.018535694 0.0046159266 0.0059754513 -0.011229869 -0.01190574 -0.021282965 -0.011485001 0.015557387
0.01505539 0.0027897968 -0.00861212 0.0071388446 -0.006000845 0.0014396482 -0.0011327672 -0.019864054
-0.0048540332 0.020994931 0.0003548096 -0.0001509534 -0.016029526 -0.011811051 -0.0023067 -0.00597731
-0.008904542 0.01886696 0.017758539 -0.0050569987 -0.013846606 -0.005607049 0.008043642 0.001864812
0.008739329 -0.0030193818 0.019024415 0.015449268 0.003761726 -0.019156888 -0.018228188 -0.018536251
-0.0004696121 0.0064528985 -0.016584529 -0.0049564037 -0.012597585 -0.0037823864 0.008758867 0.01943916
0.003814049 -0.017336726 0.012991002 -0.0012796366 0.0026324317 0.00064135 0.000871856 -0.019272739
-0.016968861 0.0006478312 0.010938658 -0.012049839 0.0019582286 0.012770033 0.0038421701 -0.01100762
-0.004656589 0.0032471386 0.013184699 0.00080289564 -0.01684474 -0.010746777 -0.010666763 0.0013262748
0.016295375 -0.019850506 0.0002624201 0.020469211 0.008194562 -0.005159655 0.020077316 -0.0006702738
-0.021923974 0.0028455923 0.00030725068 -0.0030194353 -0.011864669 -0.01628214 -0.0131368395 0.020114012
0.014296266 -0.016100833 0.0010908856 -0.010515906 0.0169758 -0.0008931894 0.020407794 0.01885732
-0.012345603 0.0059591485 -0.008436143 0.0013293967 -0.0002747957 -0.0033450134 0.01906649 0.020093057
-0.0025888495 -0.0038751813 0.018622039 0.0023678583 0.0006561137 -0.0072437576 -0.017850071 0.00016684536
0.00091151043 -0.014698442 -0.004672193 -0.00037189553 0.001840613 -0.016772872 0.008438696 -0.013614621
-0.0070131104 0.0024089983 -0.008543314 -0.012701867 0.00671581 -0.0006610104 0.014085474 0.013909126
-0.008502179 0.00080922234 0.0016182117 0.003123272 -0.0029571294 0.0005601379 0.0142972395 -0.005049697
0.004346361 -0.006020718 -0.0021882898 0.015545584 0.018927502 0.0066783745 0.016465025 -0.0032269333
0.002071005 -0.0015271747 -0.0148222875 0.017366534 -0.0029976794 -0.00043494508 0.01735803 0.0042309617
0.005154738 -0.0059903455 0.013453466 -0.0019258389 0.004831473 0.006549916 -0.0034902163 0.008153
-0.0030523124 -0.01668761 -0.0036799079 -0.015822977 0.0066661425 0.019948423 -0.004280797 0.019344043
-0.00023479035 0.004655648 -0.002969893 -0.0018139542 0.01972566 -0.0043702335 0.012318421 0.0054340614
0.013901662 -0.0012864127 0.019262696 -0.015095084 -0.0153282145 -0.014343299 0.005149192 0.0018995451
0.005471857 0.009686293 0.008438777 0.0070823566 -0.015307593 0.019606773 0.018104268 -0.015060552
-0.004219826 -0.0029411362 0.0064123687 -0.006600584 -0.0058692577 0.00704175 -0.013984346 2.7766637e-05
0.017217172 0.00031385926 -0.004422179 -0.011480119 0.0048419596 0.011503538 0.009016469 0.015094718
00000000: 0554 9bba 8480 55bc 6f24 693c 687c fd3a
00000010: 234a 553c fc14 a139 e3f7 69bc b245 90bc
00000020: 10cf 983a fe1b 0cbc 3169 8dbc e843 a53c
00000030: 7149 c8bb e32f 583c 4b7e 043b fc79 2ebb
00000040: bde3 423c bf62 8a3b 7068 44bc f565 593c
00000050: e1a2 be3b 4fb8 773b 973f 44bb 152b 8cbc
00000060: 9cdd 943b fcd3 b239 e772 fd3a e474 0a3c
00000070: 3095 7cbb 2363 c9bb a48a b8ba fcb9 91bb
00000080: ac23 283c 3754 983c 3053 f83b 0cd7 05bc
00000090: edae 913c de37 613c c3cf e1ba c0d4 f73b
000000a0: bc38 3e3b 70f8 59ba fa4b 92bc 5627 d2ba
000000b0: b1d9 b8bb c52c e4bb d01e 953c 5bf4 e3bb
000000c0: 2bd8 973c 3341 973b b8cd c33b 7cfd 37bc
000000d0: 4b10 43bc 9d59 aebc 962b 3cbc 69e4 7e3c
000000e0: e2aa 763c 06d5 363b d919 0dbc f8ec e93b
000000f0: bda2 c4bb 94b2 bc3a 5c79 94ba f1b9 a2bc
00000100: 950e 9fbb 90fd ab3c bd05 ba39 3f49 1eb9
00000110: 5a50 83bc 2383 41bc 012c 17bb 4fdd c3bb
00000120: 5be4 11bc e28e 9a3c 5b7a 913c 2eb5 a5bb
00000130: e0dc 62bc 56bb b7bb 7bc9 033c b56c f43a
00000140: 672f 0f3c d2e0 45bb 17d9 9b3c ed1e 7d3c
00000150: 4a87 763b e8ee 9cbc 4853 95bc 56d9 97bc
00000160: 4536 f6b9 d672 d33b 47dc 87bc 5469 a2bb
00000170: 1a66 4ebc eae1 77bb 5a81 0f3c e03e 9f3c
00000180: 20f5 793b c005 8ebc 36d8 543c 7bb9 a7ba
00000190: e084 2c3b 4520 283a 448d 643a dde1 9dbc
000001a0: 4802 8bbc 37d3 293a 0f38 333c b06c 45bc
000001b0: a055 003b 6739 513c ebcc 7b3b 4e59 34bc
000001c0: 4d96 98bb f2cd 543b a304 583c 6a79 523a
000001d0: fbfd 89bc 4013 30bc a6c3 2ebc 66d6 ad3a
000001e0: e17d 853c 879d a2bc 6e95 8939 0caf a73c
000001f0: 7c42 063c 5312 a9bb 2f79 a43c 50b5 2fba
00000200: e899 b3bc 1e7d 3a3b 7d16 a139 b8e1 45bb
00000210: 0764 42bc 1f62 85bc e63b 57bc 24c6 a43c
00000220: e33a 6a3c e5e5 83bc 0cfc 8e3a e84a 2cbc
00000230: d510 8b3c ed24 6aba 3f2e a73c ab7a 9a3c
00000240: 3645 4abc f644 c33b c037 0abc 273f ae3a
00000250: 7412 90b9 0338 5bbb 5431 9c3c 329a a43c
00000260: b0a9 29bb c1f6 7dbb 3f8d 983c 122e 1b3b
00000270: 0cff 2b3a 0b5d edbb 503a 92bc 36f3 2e39
00000280: 6ef2 6e3a bcd1 70bc 3219 99bb f9fa c2b9
00000290: b940 f13a 4367 89bc 7542 0a3c dc0f 5fbc
000002a0: 3cce e5bb 49e0 1d3b 42f9 0bbc 7e1b 50bc
000002b0: 4c10 dc3b a847 2dba c3c6 663c 1ae3 633c
000002c0: b94c 0bbc fe21 543a 2d1a d43a cfaf 4c3b
000002d0: 66cc 41bb 38d6 123a f83e 6a3c ee77 a5bb
000002e0: eb6b 8e3b 7149 c5bb 6969 0fbb e8b2 7e3c
000002f0: d90d 9b3c 44d6 da3b a9e1 863c f57a 53bb
00000300: b3b9 073b 7b2b c8ba 2ed9 72bc 4344 8e3c
00000310: b774 44bb 5709 e4b9 6d32 8e3c e1a3 8a3b
00000320: 14e9 a83b a94a c4bb ed6b 5c3c 6e6c fcba
00000330: 5551 9e3b aea0 d63b 1dbc 64bb 2994 053c
00000340: 4e09 48bb 74b4 88bc 9c2a 71bb 309f 81bc
00000350: a86f da3b e06a a33c ee45 8cbb 6677 9e3c
00000360: 0e32 76b9 688e 983b 89a2 42bb 34c2 edba
00000370: b597 a13c 2d34 8fbb 34d3 493c 3610 b23b
00000380: ccc3 633c d99c a8ba cdcc 9d3c 5f51 77bc
00000390: 3123 7bbc 2800 6bbc 8eba a83b 28fa f83a
000003a0: 434d b33b 42b3 1e3c cc42 0a3c 1d13 e83b
000003b0: b3cc 7abc 629e a03c 674f 943c 89c0 76bc
000003c0: 7746 8abb 14c0 40bb d91e d23b b649 d8bb
000003d0: e752 c0bb 7bbe e63b 991e 65bc 66ec e837
000003e0: 070b 8d3c 7a8d a439 ede7 90bb 1c17 3cbc
000003f0: 4da9 9e3b 5679 3c3c d0b9 133c d64f 773c
