VGDAE/VGDAE_DC/best_model_Pubmed.pth (torch, 530151 bytes, 2 tensors)

encoder.linear.weight f4 [264, 500]
000000 2c 32 9c bd e9 b5 7f 3d 71 be c6 bc 78 46 a1 3c
       -0.07626757 0.062429342 -0.024260731 0.019686922
000010 a0 bb e2 3d 2c 4a 25 3e fb 0d fa 3d 8b 7f 7b bd
       0.11070943 0.16141576 0.12209698 -0.06140093
000020 84 77 99 bd 1d 9a 9e 3d 20 48 c3 bc ca ee 06 be
       -0.07493499 0.077442385 -0.023838103 -0.13177028
000030 9a a8 da 3c f5 73 dc bc 10 b2 92 bd 67 0e 15 3c
       0.026691724 -0.026910761 -0.07162869 0.009097672
000040 a0 8a 64 bc 9e a5 7f bd f3 7d 70 bd e9 1b fe bc
       -0.013949066 -0.062413804 -0.058713865 -0.031019168
000050 73 66 ee ba 13 a6 bb 3d 81 a0 19 3b ba 76 58 3d
       -0.0018188491 0.091625355 0.0023441615 0.0528476
000060 dd e4 6a 3d 67 d1 b6 bd 70 93 35 be dc a8 ce 3c
       0.057347167 -0.08926659 -0.17732024 0.025227003
000070 07 27 e3 bd bd 7d 04 3a b9 2d 93 bd ae 93 15 3e
       -0.11091428 0.0005054137 -0.07186455 0.14607117
000080 b0 5c e8 bc 19 55 fb 3d 19 97 16 3e 73 ca cb 3d
       -0.02836451 0.122720905 0.14706077 0.099507235
000090 e7 cd 15 bd 54 b5 8b bd 22 25 3d bd 0c 2e d5 bd
       -0.036573317 -0.06821695 -0.04617799 -0.10409173
0000a0 9d 4b f6 3d 75 71 90 bd ac f5 dd 3c 46 bf 09 3b
       0.12026141 -0.0705289 0.027094685 0.002101855
0000b0 f6 cf cf bc 27 86 76 bc 94 e6 8c 3d 2f 56 c9 bc
       -0.025367718 -0.015046633 0.06879917 -0.024577228
0000c0 4e 8a a4 3b 7b 44 d6 bc 91 dc 4e bc 47 4e 9d 3d
       0.00502137 -0.0261557 -0.012625829 0.07680946
0000d0 3d 7a 7c 3e 70 4a d5 3c af 24 af bc 74 78 8d bd
       0.24656005 0.026036471 -0.021379797 -0.0690774
0000e0 11 77 91 bd 5a 6a 57 bd ef 53 6a bc 50 52 69 bd
       -0.07102788 -0.05259166 -0.014302238 -0.056963265
0000f0 eb 55 69 bc f7 46 3e bd 8e 06 49 3c 1f 56 80 bd
       -0.014241676 -0.046454396 0.012269629 -0.06266426
000100 a2 f0 bd ba dc b0 00 bc be 19 5d bd 35 a3 03 3c
       -0.001449127 -0.007854667 -0.053979628 0.008034517
000110 af ec 8f bd 84 09 8b 3d 92 00 b2 3d d0 a9 24 bd
       -0.07027566 0.06788924 0.08691515 -0.04020101
000120 3a 32 2d 3c 37 3b db bb 8a ad 20 3c 1e 73 e0 3d
       0.010571057 -0.0066904086 0.009807 0.10959457
000130 45 8e 09 bd 40 2e ac bd 87 34 85 bd 6c de b7 bd
       -0.033582944 -0.08407259 -0.065041594 -0.089779705
000140 31 60 91 bd b7 1a af bc 95 f6 6a bd 35 3f e2 bd
       -0.07098425 -0.021375043 -0.057364065 -0.11047212
000150 4f e7 6d bd a1 26 cf bd 5d 1e 7c bc cc 39 f5 bc
       -0.05808192 -0.1011479 -0.015388099 -0.029934786
000160 74 b6 8a 3c b6 bd aa bc ba 10 93 3c be 9e 3e bd
       0.016932704 -0.020842414 0.017952312 -0.046538107
000170 60 a7 06 be 5d e4 04 3c f9 89 b2 bd be fd 15 3b
       -0.13149786 0.008111087 -0.087177224 0.0022886838
000180 2a cf 27 bd b5 d2 21 3d d0 1f 59 3c 59 bf 6c bd
       -0.04096905 0.039507587 0.013252214 -0.05779967
000190 70 67 06 bb 86 1e 71 bd 5f 0f 9c 3d ca 0f 97 bd
       -0.002050843 -0.058867 0.07620119 -0.073760584
0001a0 10 96 cd bd 75 68 8a bc 1a 77 9b bc 5e 35 7b bd
       -0.10038388 -0.016895512 -0.01897769 -0.06133019
0001b0 62 54 4b bd b5 e9 21 bd a6 93 11 3d 57 cb a1 3d
       -0.04964102 -0.03952952 0.0355412 0.07900112
0001c0 15 0d 8e 3b 34 47 be bd f3 5a 75 bd 50 9b e9 3c
       0.0043350556 -0.09290925 -0.05990119 0.028516442
0001d0 90 e3 49 bd d7 a8 7a bd 57 84 1e bb 69 67 e7 bd
       -0.049289286 -0.061196174 -0.0024187767 -0.11299021
0001e0 91 c3 1b bc f9 10 55 3c 82 03 93 bd 8e 54 05 bd
       -0.009507076 0.013004535 -0.071784034 -0.03255134
0001f0 00 05 89 bd 08 ab 44 3d c1 e2 5b 3d eb 2e 82 3d
       -0.06690407 0.04801467 0.053683046 0.06356605
000200 ef a2 f5 bc bd f9 67 bd 81 76 ac bc 79 b1 5e bd
       -0.02998492 -0.056634653 -0.0210526 -0.05436847
000210 1a 8d 10 3d 58 46 5e 3d 3a 9b ad 3a bd 6b 68 3d
       0.035290815 0.054266304 0.0013245114 0.056743372
000220 3a fc 0e bc 52 48 c2 bd 2b c6 bd bc ff c6 8c 3d
       -0.008727128 -0.0948645 -0.023165783 0.06873893
000230 83 3c ac bd 4b b6 ae 3c 82 6d d4 bc 3d f5 83 bd
       -0.08409979 0.021327158 -0.025931124 -0.0644326
000240 23 69 27 bd bc 31 aa bd 90 5b a4 3d c9 09 78 bc
       -0.04087175 -0.08310267 0.08025277 -0.015139052
000250 df f2 a7 3c 30 79 0b bd d5 4d ca bd 2b 6c 7a 3d
       0.020501552 -0.03405112 -0.098781265 0.061138313
000260 ee bf 9a 3d 61 e8 2f bd b1 f0 e3 3c e3 e3 1b bd
       0.07556139 -0.042946223 0.027824732 -0.038059127
000270 d9 48 16 bc f2 dd 25 bd 67 d4 41 3d 95 e2 eb bd
       -0.009172642 -0.040494867 0.047321703 -0.115178265
000280 b0 41 df 3d f1 d8 90 bc 8c f6 ef 3d ea c0 8c 3d
       0.10901201 -0.01768157 0.11716947 0.06872733
000290 e4 2e fc bd b3 3b 0b 3d 55 64 84 3b 94 47 b9 bd
       -0.12313631 0.03399248 0.004040281 -0.090468556
0002a0 e9 e0 dd bd 4d a3 0c bc 15 18 46 be 70 0f 06 be
       -0.10833914 -0.008583856 -0.19345124 -0.13091826
0002b0 c2 ab 4a bd 77 78 8b 3c a8 e7 9d 3d 8d e6 be 3c
       -0.049480207 0.017025216 0.077102005 0.023303295
0002c0 e3 35 fd bd 54 0b ab bd 08 ce be 3d 84 dc 17 3d
       -0.12363794 -0.0835177 0.09316641 0.037075534
0002d0 90 c3 00 3d fe 9f 12 bd a3 e6 43 bd 45 f8 d4 3b
       0.031436503 -0.03579711 -0.047827374 0.0064993226
0002e0 f5 14 f4 bb 0e e7 25 bd 1b 42 d5 3c d5 10 5b 3a
       -0.0074487873 -0.040503554 0.026032498 0.0008356695
0002f0 6a cc 73 ba b4 d9 bc 3c 3a c5 4f 3d d6 60 aa bc
       -0.00093001744 0.023053028 0.0507252 -0.020798128
000300 30 60 b4 bc a5 f2 43 bd 92 ab 95 bd 23 c1 2f bd
       -0.022018522 -0.047838826 -0.07308115 -0.0429088
000310 d7 ff 0a bd f1 7e 88 3c 86 f3 18 be 2e 43 ad bd
       -0.033935394 0.016662093 -0.14936647 -0.08460079
000320 40 c2 1f 3d 4f 50 2c bc b9 bd db 3d 58 79 20 3e
       0.03900361 -0.010517194 0.10729546 0.15671289
000330 db 43 91 3c 11 c1 89 3d ed 1d 46 bc 44 36 a0 3d
       0.017732551 0.067262776 -0.012092096 0.0782285
000340 61 21 24 bb 04 1c 7c 3d 28 7f 0b 3d 11 1e 6a 3d
       -0.002504431 0.061550155 0.034056813 0.05715758
000350 dc 30 e0 bd 40 1d c2 3d 9d 73 15 3c c0 4a 9e bc
       -0.10946819 0.09478235 0.009121803 -0.019322753
000360 81 cd a1 bc 1e 49 a1 3c 3b 86 08 3d b9 cd 61 bd
       -0.019751312 0.019688185 0.033331137 -0.055127833
000370 aa 52 a2 3d 52 71 8d 3d d9 3b b1 3c af 66 61 3c
       0.07925923 0.0690638 0.021634983 0.013757392
000380 c1 47 dd bb 91 82 99 bc a9 73 99 bd 08 e7 42 3c
       -0.0067529385 -0.018739017 -0.074927635 0.011895902
000390 de f9 a4 bd 99 c6 6a 3d 17 c8 3f 3d c7 5c dc bb
       -0.08055471 0.057318304 0.04682168 -0.006724927
0003a0 d5 90 73 bd 64 4b 00 3d f0 4c 98 3d e7 c1 d1 bd
       -0.059464294 0.031321898 0.0743655 -0.10242062
0003b0 3b 37 3f 3e b8 80 a3 3d 19 38 a9 3c 6a c1 02 be
       0.18673413 0.079835355 0.020656632 -0.12769094
0003c0 56 db 43 bd bf d8 be 3d f6 7a fe bc f8 9c 1a 3a
       -0.047816597 0.09318685 -0.031064492 0.0005898024
0003d0 88 78 2d bd ae 0c e3 3c 82 84 3e 3c 08 3c ee 3d
       -0.042351276 0.027716007 0.011628272 0.11632544
0003e0 30 c2 1e bd 23 1b 7e 3d 67 9e bf 3c 26 57 a2 3c
       -0.03875941 0.0620376 0.023390962 0.019816946
0003f0 cd 2e 9e bd 03 39 e5 bd d6 dc 34 3d 78 31 be 3d
       -0.0772377 -0.11192515 0.044155918 0.09286779

encoder.linear.bias f4 [264]
000000 74 0c a1 3b 34 4e ef bb 3e 31 25 39 f5 a0 be 3b
       0.0049148146 -0.0073030237 0.0001575397 0.0058175274
000010 e1 b4 03 bc 7c 44 6a 3c ba dc 90 bb a3 d5 35 3c
       -0.00803873 0.0142985545 -0.004420844 0.011098298
000020 ba 0d 1c bc 21 7a 61 3c 2f 5b 5a bb ef ac 4c bc
       -0.009524757 0.013762028 -0.003331851 -0.012492402
000030 8d f9 9f bc cf 0c 4f 3a 2f f9 14 bb 7c b3 b2 3c
       -0.019528175 0.0007898332 -0.0022731533 0.0218141
000040 02 94 64 bc cf 94 40 3c bc 1e 6a 3c f5 09 16 bc
       -0.013951303 0.011754229 0.014289554 -0.009157647
000050 86 6b 8f 3b 63 34 7c 3c 7d d2 3b b8 fb 00 56 bc
       0.0043768315 0.015393349 -4.4780307e-05 -0.013061757
000060 6b 4d 6f bc 55 91 4a bc 16 2e 64 3c f3 34 4d 3b
       -0.01460586 -0.012363751 0.013927003 0.0031312078
000070 a9 d8 46 bb f2 c5 8a 3a 9f 9d 97 3c 1c 91 db 3b
       -0.0030341542 0.0010587557 0.018507777 0.006700648
000080 39 64 c1 3a 1b 1d 9e 3c 10 54 29 3b 41 66 41 3b
       0.00147546 0.019300988 0.0025837459 0.002951041
000090 f4 2d 04 3c 1b 39 a4 bc 4d e8 43 bc 4c 20 8f 3b
       0.008067597 -0.020046761 -0.01195724 0.0043678638
0000a0 bb 84 9e bc f1 81 75 3c 99 ad 29 b9 b0 4a 21 3b
       -0.0193504 0.014984594 -0.00016181766 0.0024611168
0000b0 28 0a 43 ba 5a a3 91 ba 87 7a 1a 3c 46 8e 4c bb
       -0.0007440173 -0.0011111305 0.009428627 -0.0031212731
0000c0 bf b2 52 bc 8e 62 84 bb 04 9d 51 bc 96 36 7b 3c
       -0.012859999 -0.004040069 -0.012793783 0.0153328385
0000d0 4a 50 58 3b 1f b2 67 3c 8c fb 89 bc 3b db 90 3c
       0.003300684 0.0141415885 -0.01684358 0.017682662
0000e0 b0 b8 6f bb 13 85 5b bb 58 9b 7d 3c 6a 80 cc bb
       -0.0036578588 -0.0033496066 0.015478931 -0.006240894
0000f0 d7 9b 33 3b 29 26 d5 bb 39 15 93 bc 4c fe 20 3c
       0.002740612 -0.006504793 -0.017954456 0.009826254
000100 67 6c 28 bc 9b 3c 54 bc d8 4a 35 bc 49 ba 99 bc
       -0.010279751 -0.012953903 -0.011065207 -0.018765585
000110 28 06 cd 3b 2d 79 62 3c 35 6c ba 3a b1 57 50 bc
       0.0062568374 0.013822836 0.0014222922 -0.01271622
000120 50 d7 66 bc 61 b7 b1 3b 36 14 b5 bb 46 99 36 3a
       -0.01408942 0.005423472 -0.005526091 0.00069655885
000130 a9 c6 89 bc 18 44 46 ba c1 04 9b 3b d6 49 28 bc
       -0.016818361 -0.00075632473 0.0047307913 -0.01027151
000140 bc f1 c0 bb 3d 7b de bb 14 e1 52 3b 5f 6a 36 3a
       -0.005888192 -0.0067895935 0.0032177614 0.00069585996
000150 4e ee 47 bc e7 c6 99 3c a1 35 e0 ba 52 b0 76 bc
       -0.012202812 0.018771602 -0.0017105826 -0.0150566865
000160 2e e4 2d 3a fe 19 38 3b 4c e2 3f bc be b2 8a 3b
       0.00066334277 0.0028091664 -0.011711668 0.0042327335
000170 00 c7 86 bc 1c b1 43 3c da 69 80 3b 32 af 15 bb
       -0.016452312 0.011944082 0.0039188685 -0.002284002
000180 28 eb 94 3c b0 e0 eb 3b 64 5b 17 3c ee 0f a0 3b
       0.018178537 0.0071984157 0.009238098 0.0048847115
000190 78 fb ae 3b c9 38 40 3c cd cf 8d 3c 7b 5f 67 bc
       0.005340036 0.011732289 0.017311001 -0.014121885
0001a0 bd 67 16 3c cb 76 39 bc ff 24 eb 39 ab 7e 80 bc
       0.009180007 -0.011319826 0.00044850257 -0.0156854
0001b0 36 36 88 bc b0 eb 85 bc 96 3e 05 3c 96 ee 9d 3c
       -0.016627412 -0.016347736 0.008132597 0.019278806
0001c0 2e d2 4a 3c fa 0b 94 bc 70 0a 41 bc 9d 51 fa 39
       0.012379212 -0.018072117 -0.011782274 0.00047744522
0001d0 e4 13 31 3c aa 69 5b 3c 58 d1 8c ba 61 88 6c ba
       0.010807965 0.0133918915 -0.0010743542 -0.00090230076
0001e0 c7 02 d8 bb 57 fa f9 ba 67 58 9e bb af 21 9d 3b
       -0.006592128 -0.00190718 -0.0048323157 0.004795275
0001f0 c5 14 56 bc 4c 1a 2d bc 88 fd 1f bc 20 ae 2a bc
       -0.013066475 -0.010565352 -0.009765036 -0.010417491
000200 2c 69 5f 3c de b1 14 3b 6e bd b4 ba 43 02 d1 bb
       0.013635915 0.0022689025 -0.0013789365 -0.0063784434
000210 45 13 7e 3a 0c 14 6e bc ad 3e 75 bb 35 3b db 3b
       0.00096922024 -0.014531147 -0.003742139 0.0066904076
000220 fb 84 7f 39 bd aa 72 ba db 71 46 3c 11 1f 7a bc
       0.00024368234 -0.00092570094 0.012112106 -0.015266196
000230 05 b8 33 3c bc 03 de bb b6 18 8c 3c 1d fc 25 3c
       0.010969167 -0.0067753475 0.017101627 0.010130909
000240 af 2e e0 ba d4 85 9e bc ec 84 86 bc a2 8c a2 3c
       -0.0017103757 -0.019350924 -0.016420804 0.01984245
000250 93 cb 6f 3c b7 11 c8 bb 0a df 4a 3c b4 dc e6 bb
       0.014635938 -0.0061056274 0.012382278 -0.007045353
000260 2b af 96 ba 99 23 53 bc 89 14 88 3c 60 7d 37 ba
       -0.0011496296 -0.012886905 0.016611354 -0.00069995783
000270 5b 8f a4 3b 12 82 91 3c 7a fa 79 3c c0 ef ac bc
       0.005021972 0.017762218 0.015257472 -0.021110415
000280 24 2f 9a bb f6 90 bc 3b 74 38 d9 bb e3 ed 42 3c
       -0.0047053266 0.0057545854 -0.006629044 0.011897537
000290 df 5d 62 bb 5f 71 5e 3c 71 ad 2c bc 1e 99 3f bc
       -0.0034540815 0.013576834 -0.0105393985 -0.011694221
0002a0 35 5a 2d bc a0 12 07 bc b2 4f 88 3b f3 10 b0 bb
       -0.010580589 -0.008244187 0.004159891 -0.0053731143
0002b0 44 58 96 bc 9a 4f 1a bb 64 f5 e4 bb a0 17 30 bb
       -0.018352635 -0.0023545981 -0.0069872607 -0.002686955
0002c0 15 0b 96 3b 93 cd 8a 3a 33 80 80 3c 50 cc 8f 3c
       0.004578958 0.001058983 0.01568613 0.017553478
0002d0 0e 31 53 3c 4b d0 e6 3a 26 52 91 bc 6a 52 06 3c
       0.0128901135 0.0017609684 -0.017739367 0.00819836
0002e0 ed 26 94 3b 26 01 96 3c d1 2c 80 3b 7c d9 93 3b
       0.004521242 0.018311094 0.0039115925 0.00451201
0002f0 d7 92 8b 3c 52 2a 16 bb d1 16 97 bc 9f 36 65 bb
       0.017037792 -0.0022913408 -0.018443497 -0.0034975184
000300 73 fe 59 bb 47 06 5c 3c 09 5a 95 bc 7e 59 87 bc
       -0.0033263236 0.013429231 -0.018231409 -0.016522165
000310 a1 8e 37 3c d1 f9 f3 b9 bb 0b 87 3c 28 df 2d 3c
       0.011203439 -0.000465347 0.016485086 0.010612287
000320 5f 53 a7 3c c7 a7 c2 ba 54 3c 5a bc fe f8 8d bc
       0.020425497 -0.0014851027 -0.013320047 -0.017330643
000330 58 77 61 bc 10 98 36 bb 8b 2f 81 bc ea 4b d4 bb
       -0.013761364 -0.0027861632 -0.01576974 -0.006478776
000340 02 fa d1 ba b3 bf 9f bc 4e 6a 9b bb 58 08 a5 ba
       -0.0016019943 -0.019500589 -0.004742897 -0.0012590988
000350 dc 21 87 bc ca cf 32 bc 32 61 44 3c a1 32 6d bb
       -0.016495638 -0.010913799 0.011986064 -0.0036193507
000360 22 38 83 3c 87 4a 58 3b 07 12 0d 3c 01 3a f0 3a
       0.016017977 0.0033003406 0.008610255 0.0018327833
000370 8e 90 56 3c 0c ef 28 bc 9c c4 f6 3a 47 6e b3 bb
       0.013095988 -0.0103108995 0.0018826905 -0.0054757926
000380 ec 80 f8 bb a7 cf 97 3c 39 79 08 bc 34 58 c8 3a
       -0.007583728 0.018531634 -0.008329683 0.0015285076
000390 21 e3 95 3b 80 86 88 bc bb 70 2b bb 4e 5c 59 bc
       0.004574195 -0.016665697 -0.0026159722 -0.013266636
0003a0 35 12 9e 3c 34 a4 2e bb fa de dc 3b f5 b4 93 3b
       0.019295791 -0.0026648166 0.006740448 0.0045076557
0003b0 61 ce 02 3b 9d 46 e4 ba 2e a6 86 bc 17 e1 6a 3c
       0.0019959437 -0.0017416064 -0.016436663 0.014335892
0003c0 9a 1d 3c 3c 81 5b 47 bc 9f 25 96 3c 8f 90 5d 39
       0.011481667 -0.012167812 0.018328486 0.00021130055
0003d0 31 bc 5e 3c 2d 42 38 bc 4a 06 79 3c 90 f2 94 bc
       0.013594673 -0.011246246 0.015199253 -0.018182069
0003e0 53 ed a2 3c 26 78 87 bb 5a 18 2d bb ea 08 31 bc
       0.019888556 -0.004134196 -0.002641222 -0.010805348
0003f0 61 13 82 3c 4d aa 9a bc 68 21 12 3b 60 93 b5 bb
       0.015878381 -0.018880034 0.0022297744 -0.00554125
