VGDAE_tnnls/feat_hecheng/DisenGCN/syn_disengcn.pth (torch, 801951 bytes, 4 tensors)

encoder.linear.weight f4 [40, 2500]
-0.045367032 0.12189471 0.05048613 0.0031376332 0.028729072 -0.00010912657 0.012718557 0.04807612
0.040560424 0.08413557 0.0037176975 0.1045721 -0.022539422 0.07221528 0.02919068 0.0673343
-0.037874278 -0.10784098 0.0106027955 -0.09849361 0.07739437 0.04769899 -0.12757044 0.0032222143
0.034949813 0.05143954 -0.11148349 0.024172748 0.13214989 0.1399145 0.07667263 -0.016738173
-0.03639716 -0.050456256 -0.026122203 0.049379244 -0.11064767 0.08095119 -0.064297915 -0.005983421
0.011477116 -0.039021943 -0.025003888 -0.00893597 -0.100913696 0.081674896 0.023616668 0.044039845
-0.092421524 -0.06002385 0.08098838 -0.1087131 0.087859206 -0.08226083 -0.09309112 0.051517613
-0.15089487 -0.011953068 -0.09266488 -0.075394206 0.06621906 -0.025102027 0.071661584 0.14384322
0.1565791 -0.027537053 -0.14807028 -0.026527656 -0.09778708 -0.031720933 0.06623663 0.029247906
0.09385189 0.068797216 0.03553483 0.03533851 -0.046033617 0.07905809 0.04307777 -0.07625984
0.05034559 0.18420878 0.0259412 -0.051032357 -0.09626686 0.06511295 -0.030787334 -0.03989667
0.09225727 0.07279931 -0.006661529 -0.07680409 -0.087204345 0.092942774 -0.21043797 -0.116055675
-0.023735108 -0.027500836 0.002352558 -0.2048231 0.024379235 0.065938555 -0.06294245 -0.09618773
-0.08707568 -0.12225592 -0.10930504 -0.09810296 -0.0339763 -0.09079439 0.042488325 -0.05266243
0.05294398 0.08930163 0.034076672 0.064537115 -0.14789297 0.10080892 0.049023904 0.047717094
-0.011814269 0.08556403 -0.14279641 0.14385507 0.121788934 0.04652788 0.060972966 0.1370895
0.03097506 -0.0979601 -0.11748114 -0.069407076 -0.0007079664 0.08463791 0.05848972 -0.080090635
0.050635573 0.009737477 -0.00913147 0.060709 -0.08262051 0.11003283 0.18702848 0.19120297
0.18838756 0.09691306 0.047236156 -0.15277614 0.08476402 0.08475343 0.15767121 0.093487
0.124874346 -0.029526668 -0.032265496 -0.038127292 -0.09630335 0.15329705 0.061135292 -0.090538934
0.01766002 0.19975299 -0.08184346 0.11919241 0.0069893375 0.17188981 0.061128028 -0.11131684
-0.11306958 -0.0137576815 0.052309163 0.057128854 -0.11638348 0.007370834 -0.0589394 0.056106403
-0.10875545 -0.06770394 0.08919405 -0.007726378 -0.08119996 -0.053177167 -0.022063216 0.095804356
0.037804335 0.040094547 -0.14118905 -0.13730446 -0.045220006 0.21662503 0.12823378 -0.13956493
-0.03797965 -0.06872483 -0.13549957 0.077371046 0.030176383 -0.047804017 0.12792663 0.118533574
-0.03906785 -0.11716642 0.051445313 -0.023219706 -0.08088299 -0.03298002 0.15160413 -0.11250372
0.073623545 -0.04467767 0.03647507 0.051800456 0.13470331 -0.08561548 -0.11121822 0.18430416
0.02565396 -0.081650436 -0.026275996 -0.11069945 0.10730434 -0.048525862 -0.09649542 -0.16895926
-0.08615301 0.04684367 0.0059413696 0.039631765 0.052754447 -0.099369034 -0.119807236 0.09786431
0.06454729 0.028484536 -0.032776058 0.09407375 0.06215263 0.040491037 0.09233343 0.1579921
0.07762814 -0.1818888 0.09894669 0.03656105 -0.14679179 0.0078645265 -0.10871101 0.09265928
0.04413363 -0.18159547 -0.04935572 -0.0098025305 0.2714875 -0.12335986 -0.13319786 -0.07491088
00000000: c8d2 39bd efa3 f93d 8bca 4e3d c0a0 4d3b
00000010: 3b59 eb3c e2da e4b8 7f61 503c 77eb 443d
00000020: b022 263d 454f ac3d 9da4 733b e629 d63d
00000030: 98a4 b8bc 9be5 933d 4b21 ef3c 91e6 893d
00000040: 0f22 1bbd bbdb dcbd 59b7 2d3c 05b7 c9bd
00000050: f180 9e3d 0460 433d d3a1 02be c92b 533b
00000060: 8927 0f3d 44b2 523d 7551 e4bd ed05 c63c
00000070: 4d52 073e bf45 0f3e 8a06 9d3d 7e1e 89bc
00000080: 3015 15bd 38ab 4ebd 3bfe d5bc e441 4a3d
00000090: 3f9b e2bd bdc9 a53d a0ae 83bd 9310 c4bb
000000a0: 830a 3c3c 79d5 1fbd f4d4 ccbc 2d68 12bc
000000b0: d7ab cebd 2b45 a73d be77 c13c 2063 343d
000000c0: 7f47 bdbd 92db 75bd 3cdd a53d f9a4 debd
000000d0: 87ef b33d 5e78 a8bd 8fa6 bebd 2204 533d
000000e0: 2f84 1abe cdd6 43bc 16c7 bdbd 4768 9abd
000000f0: dc9d 873d c4a2 cdbc 4fc3 923d a34b 133e
00000100: 4656 203e 6395 e1bc bc9f 17be 8750 d9bc
00000110: 9844 c8bd cfed 01bd 12a7 873d 4e99 ef3c
00000120: 6b35 c03d 8ee5 8c3d f88c 113d 1dbf 103d
00000130: bf8d 3cbd 35e9 a13d 5172 303d 1e2e 9cbd
00000140: 2d37 4e3d 3aa1 3c3e a482 d43c 4e07 51bd
00000150: 8f27 c5bd f059 853d b835 fcbc b16a 23bd
00000160: 61f1 bc3d ce17 953d f548 dabb 764b 9dbd
00000170: 3198 b2bd c858 be3d 0d7d 57be 99ae edbd
00000180: 2170 c2bc 6f49 e1bc 602d 1a3b 26bd 51be
00000190: f6b6 c73c cb0a 873d f9e7 80bd 13fe c4bd
000001a0: bc54 b2bd 5061 fabd 52db dfbd 34ea c8bd
000001b0: bc2a 0bbd 69f2 b9bd 3d08 2e3d 8fb4 57bd
000001c0: c9db 583d c6e3 b63d fb93 0b3d 092c 843d
000001d0: 4171 17be e874 ce3d 4acd 483d 0073 433d
000001e0: a390 41bc 323c af3d 3939 12be be4e 133e
000001f0: 7a6c f93d 0594 3e3d cabe 793d 3161 0c3e
00000200: 69bf fd3c 4e9f c8bd f499 f0bd 4c25 8ebd
00000210: d296 39ba a456 ad3d eb92 6f3d 8f06 a4bd
00000220: 3f67 4f3d f089 1f3c 299c 15bc 00aa 783d
00000230: f134 a9bd e458 e13d 6584 3f3e b6ca 433e
00000240: abe8 403e 5b7a c63d b37a 413d 5971 1cbe
00000250: c298 ad3d 3593 ad3d 9074 213e 1d76 bf3d
00000260: 1fbe ff3d e9e1 f1bc d328 04bd 5d2b 1cbd
00000270: b13a c5bd e7f9 1c3e 0069 7a3d 7a6c b9bd
00000280: bfab 903c 0c8c 4c3e 8b9d a7bd 261b f43d
00000290: d006 e53b e203 303e 6261 7a3d 15fa e3bd
000002a0: 0691 e7bd e667 61bc 2242 563d f2ff 693d
000002b0: 765a eebd 0987 f13b 716a 71bd d4cf 653d
000002c0: 2dbb debd 5da8 8abd 5fab b63d 8e2d fdbb
000002d0: 2a4c a6bd 4dd0 59bd ebbd b4bc 1335 c43d
000002e0: b8d8 1a3d 2e3a 243d dd93 10be 8a99 0cbe
000002f0: 9d38 39bd f4d2 5d3e b74f 033e 1cea 0ebe
00000300: 8d90 1bbd 9bbf 8cbd 66c0 0abe b674 9e3d
00000310: 7634 f73c 25ce 43bd 33ff 023e bbc1 f23d
00000320: 9c05 20bd f3f4 efbd 52b8 523d 4137 bebc
00000330: fba5 a5bd 0f16 07bd 1d3e 1b3e 5a68 e6bd
00000340: f1c7 963d efff 36bd e266 153d b72c 543d
00000350: aaef 093e 2b57 afbd 61c6 e3bd 3bba 3c3e
00000360: 4128 d23c 5838 a7bd c240 d7bc 65b6 e2bd
00000370: 61c2 db3d 0ec3 46bd 649f c5bd a803 2dbe
00000380: fd70 b0bd 26df 3f3d d2af c23b eb54 223d
00000390: 0c15 583d fe81 cbbd 7f5d f5bd 156d c83d
000003a0: 5f31 843d 6758 e93c 3040 06bd bda9 c03d
000003b0: c293 7e3d eed9 253d 4f19 bd3d aec8 213e
000003c0: 81fb 9e3d 0f41 3abe 90a4 ca3d 0ac1 153d
000003d0: 9650 16be 37da 003c e1a3 debd 26c4 bd3d
000003e0: 77c5 343d 2af4 39be 3929 4abd cb9a 20bc
000003f0: 6900 8b3e 18a4 fcbd 0565 08be e06a 99bd

encoder.linear.bias f4 [40]
-0.009314348 -0.011627843 0.002937265 -0.0030809785 0.0108066695 0.0077554905 0.00076278474 0.0026629402
-0.014216338 0.0036552954 0.006622166 0.007455266 0.0013738378 -0.008501532 -0.008052668 0.017653624
0.0031398742 -0.0040011457 -0.006211028 0.010601497 -0.0066054035 0.01732808 0.0050693783 -0.0018826574
-0.00060150557 0.0109659685 0.008207675 0.023668783 0.0033701279 -0.0027068313 0.0069316914 0.0052250004
-0.0033288028 0.0015948463 -0.007880991 0.009271413 -0.0047696033 0.011180894 -0.006169219 -0.0016826763
00000000: 359b 18bc b582 3ebc 217f 403b 3eea 49bb
00000010: 750e 313c c521 fe3b 9ef5 473a b984 2e3b
00000020: a5eb 68bc ae8d 6f3b c1fe d83b 4e4b f43b
00000030: 5912 b43a 024a 0bbc 56ef 03bc 559e 903c
00000040: 59c6 4d3b 0b1c 83bb e185 cbbb e7b1 2d3c
00000050: 2472 d8bb 9ef3 8d3c 071d a63b 80c3 f6ba
00000060: 5bae 1dba 9baa 333c 7c79 063c 09e5 c13c
00000070: 5ddd 5c3b 1865 31bb 3e23 e33b 7b36 ab3b
00000080: 0b28 5abb 290a d13a 461f 01bc 20e7 173c
00000090: 554a 9cbb 1230 373c 2927 cabb 3f8d dcba

encoder.linear_.weight f4 [40, 2500]
-0.42868963 -0.6001429 -0.6381476 -0.5007184 -0.5611973 -0.53387165 -0.38869318 -0.28717488
-0.42169723 -0.4968552 -0.51989156 -0.44029355 -0.6671296 -0.68006384 -0.4816921 -0.58250505
-0.52036893 -0.4204122 -0.38306987 -0.31810886 -0.5297646 -0.52959985 -0.30725172 -0.32263058
-0.38875088 -0.31839496 -0.2970983 -0.4487448 -0.49877182 -0.6320179 -0.5826267 -0.5229553
-0.33013177 -0.5358765 -0.62316465 -0.43172082 -0.51572835 -0.48959738 -0.18809797 -0.6001983
-0.5709161 -0.30635384 -0.46722025 -0.54943544 -0.4690068 -0.14413099 -0.55096656 -0.5678913
-0.55535495 -0.4347454 -0.49767527 -0.6181791 -0.57891554 -0.6224866 -0.36486003 -0.40506378
-0.5225251 -0.41946843 -0.398205 -0.53188616 -0.5228995 -0.43495378 -0.4583462 -0.38510284
-0.6052198 -0.5314036 -0.55343056 -0.44269162 -0.49277943 -0.6019418 -0.50882393 -0.5298574
-0.6290152 -0.54914093 -0.50656015 -0.4499428 -0.32776374 -0.5328751 -0.47405428 -0.36478898
-0.49684715 -0.4674993 -0.5188727 -0.41689953 -0.4415721 -0.5195653 -0.36876485 -0.3874976
-0.3661398 -0.38510707 -0.5196628 -0.5794449 -0.55545986 -0.35380074 -0.5515483 -0.33110043
-0.56136674 -0.41326556 -0.3870501 -0.43080232 -0.65615034 -0.36313704 -0.38959727 -0.23473592
-0.3937531 -0.4592513 -0.4331794 -0.46409747 -0.3675713 -0.35364592 -0.5868569 -0.32002553
-0.42565942 -0.4563373 -0.4867509 -0.6113507 -0.40480417 -0.4617794 -0.5661097 -0.57014227
-0.39259613 -0.53731847 -0.33487844 -0.5594405 -0.5191328 -0.58567846 -0.47191826 -0.4755159
-0.57787424 -0.44337657 -0.55013853 -0.58198196 -0.48203266 -0.51618487 -0.49124467 -0.47562414
-0.45939544 -0.41160974 -0.47474492 -0.55555326 -0.5488869 -0.44652948 -0.49669853 -0.4107816
-0.45363835 -0.5217101 -0.43960863 -0.3011309 -0.62755615 -0.30533785 -0.43394503 -0.48175955
-0.56449056 -0.446272 -0.519728 -0.43351823 -0.5607025 -0.42848045 -0.6058764 -0.56171477
-0.56457657 -0.51689893 -0.57310206 -0.42869535 -0.35942233 -0.44786015 -0.52601695 -0.45458552
-0.36942136 -0.4940228 -0.46483827 -0.53158987 -0.369332 -0.46978298 -0.47065502 -0.47216788
-0.34230813 -0.58578056 -0.42664048 -0.46779653 -0.5949193 -0.48934767 -0.41158083 -0.44373563
-0.5002137 -0.5662964 -0.6108655 -0.4199748 -0.5557575 -0.3840499 -0.48241132 -0.482638
-0.54873055 -0.6273167 -0.41277078 -0.30032718 -0.47220862 -0.4511267 -0.43250778 -0.36295375
-0.37176362 -0.47946802 -0.6209834 -0.25579047 -0.37311363 -0.4289971 -0.50177395 -0.45533842
-0.5176382 -0.6404512 -0.3557102 -0.46208993 -0.19529319 -0.24080923 -0.5198942 -0.6537213
-0.2861809 -0.6075389 -0.55198866 -0.3711579 -0.5243182 -0.49716234 -0.5286206 -0.46666133
-0.5141902 -0.2582539 -0.57320344 -0.42241722 -0.5239923 -0.5209364 -0.47909477 -0.28426656
-0.2991919 -0.49175233 -0.5833138 -0.4661841 -0.4472823 -0.5435762 -0.49277166 -0.5191561
-0.4915193 -0.53967524 -0.43080646 -0.52990615 -0.54825115 -0.57835597 -0.4084151 -0.6493169
-0.47854036 -0.497087 -0.39064586 -0.3934867 -0.24136211 -0.2728317 -0.44550994 -0.42434743
00000000: 357d dbbe f7a2 19bf a45d 23bf 152f 00bf
00000010: a0aa 0fbf d0ab 08bf cb02 c7be 9608 93be
00000020: b3e8 d7be ce63 febe 9d17 05bf 286e e1be
00000030: 01c9 2abf aa18 2ebf 59a0 f6be 0d1f 15bf
00000040: e636 05bf 4540 d7be bc21 c4be 2adf a2be
00000050: a79e 07bf db93 07bf 1950 9dbe d62f a5be
00000060: 5b0a c7be aa04 a3be 451d 98be e1c1 e5be
00000070: 055f ffbe edcb 21bf 0627 15bf 66e0 05bf
00000080: 0807 a9be 342f 09bf b887 1fbf 830a ddbe
00000090: c606 04bf 82ac fabe c19c 40be 99a6 19bf
000000a0: 8f27 12bf 69da 9cbe 7e37 efbe cda7 0cbf
000000b0: a921 f0be 1397 13be 250c 0dbf 5361 11bf
000000c0: be2b 0ebf f396 debe 4bcf febe fc40 1ebf
000000d0: cf33 14bf 485b 1fbf efce babe 8564 cfbe
000000e0: 34c4 05bf 91c4 d6be 87e1 cbbe b129 08bf
000000f0: bedc 05bf 43b2 debe 5aac eabe 332c c5be
00000100: afef 1abf 110a 08bf a0ad 0dbf 7aa8 e2be
00000110: 964d fcbe dc18 1abf 4942 02bf bca4 07bf
00000120: 2407 21bf 8094 0cbf edad 01bf e75e e6be
00000130: a6d0 a7be 816a 08bf 3eb7 f2be 9fc5 babe
00000140: c062 febe 115c efbe d7d4 04bf db73 d5be
00000150: bd15 e2be 3b02 05bf bfce bcbe 1666 c6be
00000160: ad76 bbbe c12c c5be 9f08 05bf 8056 14bf
00000170: 9e32 0ebf 5f25 b5be 4532 0dbf ff85 a9be
00000180: bbb5 0fbf 8b97 d3be 6e2b c6be 1f92 dcbe
00000190: 78f9 27bf 19ed b9be 4b79 c7be 9d5e 70be
000001a0: 029a c9be fd22 ebbe b1c9 ddbe 2f9e edbe
000001b0: 4e32 bcbe 1411 b5be 413c 16bf 63da a3be
000001c0: 08f0 d9be 0ba5 e9be 6a37 f9be 7b81 1cbf
000001d0: 7e42 cfbe 596e ecbe 91ec 10bf d8f4 11bf
000001e0: 5c02 c9be b48d 09bf 3075 abbe 7e37 0fbf
000001f0: e3e5 04bf 06ef 15bf 459f f1be d276 f3be
00000200: 91ef 13bf 4102 e3be e1d5 0cbf c5fc 14bf
00000210: fccc f6be b124 04bf 6c84 fbbe 0285 f3be
00000220: e135 ebbe 83be d2be c411 f3be bd38 0ebf
00000230: da83 0cbf 839f e4be 454f febe f751 d2be
00000240: 4943 e8be cb8e 05bf 6214 e1be d42d 9abe
00000250: 85a7 20bf 3e55 9cbe 0b2e debe 30a9 f6be
00000260: 7482 10bf c37d e4be e50c 05bf 1af6 ddbe
00000270: 338a 0fbf ca61 dbbe b71a 1bbf 8acc 0fbf
00000280: 1788 10bf 7d53 04bf d1b6 12bf f57d dbbe
00000290: 3406 b8be ed4d e5be 0ca9 06bf 6fbf e8be
000002a0: cc24 bdbe 8ef0 fcbe 48ff edbe 4616 08bf
000002b0: 1519 bdbe 6587 f0be b2f9 f0be fdbf f1be
000002c0: 0343 afbe b7f5 15bf 9f70 dabe 0783 efbe
000002d0: a24c 18bf c78b fabe b9ba d2be 5131 e3be
000002e0: 010e 00bf cdf8 10bf ae61 1cbf f006 d7be
000002f0: 2046 0ebf 30a2 c4be 9efe f6be 541c f7be
00000300: 9b79 0cbf d497 20bf b156 d3be 7cc4 99be
00000310: 54c5 f1be 14fa e6be a971 ddbe 13d5 b9be
00000320: cd57 bebe d57c f5be c5f8 1ebf f8f6 82be
00000330: c008 bfbe 82a5 dbbe 4274 00bf 1e22 e9be
00000340: f083 04bf 9cf4 23bf a61f b6be 0d97 ecbe
00000350: f0fa 47be b296 76be c917 05bf 475a 27bf
00000360: 4e86 92be ab87 1bbf 214f 0dbf 6908 bebe
00000370: b839 06bf 108c febe ae53 07bf 3cee eebe
00000380: f8a1 03bf db39 84be 76bd 12bf 1247 d8be
00000390: 5c24 06bf 175c 05bf e94b f5be 638b 91be
000003a0: ae2f 99be f6c6 fbbe 0e54 15bf afaf eebe
000003b0: 3002 e5be cf27 0bbf 914c fcbe 6ae7 04bf
000003c0: 6ba8 fbbe 2828 0abf aa92 dcbe eea7 07bf
000003d0: 305a 0cbf 230f 14bf c91b d1be a239 26bf
000003e0: 3e03 f5be 3082 febe bc02 c8be 1777 c9be
000003f0: a127 77be 99b0 8bbe e119 e4be 1144 d9be

encoder.linear_.bias f4 [40]
-0.75686085 -0.6845766 -0.71875006 -0.72274053 -0.71632993 -0.6381204 -0.6758304 -0.7155646
-0.6860772 -0.72138906 -0.66662025 -0.70147085 -0.705412 -0.7263955 -0.6595179 -0.7652755
-0.6886984 -0.7277293 -0.6608333 -0.70648146 -0.7273595 -0.69090337 -0.6776934 -0.7346711
-0.7031931 -0.72803354 -0.7041337 -0.7561063 -0.660487 -0.72798 -0.6475809 -0.7003649
-0.6542355 -0.6658438 -0.669172 -0.72021157 -0.69833785 -0.70692015 -0.6639693 -0.7773983
00000000: a2c1 41bf 6940 2fbf 0100 38bf 8605 39bf
00000010: 6661 37bf dc5b 23bf 3903 2dbf 3e2f 37bf
00000020: c1a2 2fbf f4ac 38bf a0a7 2abf 9893 33bf
00000030: e195 34bf 0ef5 39bf 2ad6 28bf 18e9 43bf
00000040: 8a4e 30bf 784c 3abf 5f2c 29bf f8db 34bf
00000050: 3b34 3abf 0bdf 30bf 517d 2dbf 6813 3cbf
00000060: 7704 34bf 6860 3abf 1b42 34bf 2f90 41bf
00000070: ad15 29bf e65c 3abf ddc7 25bf 1d4b 33bf
00000080: fa7b 27bf bd74 2abf db4e 2bbf c95f 38bf
00000090: 45c6 32bf b8f8 34bf e4f9 29bf 9303 47bf
