VGDAE_tnnls/feat_hecheng/DisenGCN/syn_disengcn.pth (torch, 801951 bytes, 4 tensors)

encoder.linear.weight f4 [40, 2500]
-0.13035807 -0.039261673 -0.06261529 0.028127022 -0.06231401 -0.0010099922 -0.05268304 0.119536296
-0.009556889 -0.028978355 -0.022991829 -0.07498698 -0.10947086 -0.13342649 0.025659982 0.0026258356
-0.061636254 0.021251306 0.22965583 0.020250132 -0.02277426 0.1808786 0.19480647 -0.1491
-0.051783852 0.06371036 -0.14674002 0.013405602 0.0047486485 0.091349624 0.00068659114 0.1840793
-0.2358497 -0.041138425 -0.09643384 0.15107594 0.12829782 -0.10170142 -0.018952388 -0.014411973
0.12369101 -0.038650993 -0.065275855 -0.014291256 0.20288628 -0.09377942 0.09037701 -0.043338362
0.17584747 -0.075303614 0.028369159 -0.14308037 -0.024119198 -0.007797889 0.18375392 -0.027020425
0.061188232 0.03492682 -0.105538204 -0.023942897 0.101800226 0.1350115 0.08657586 0.118597955
-0.0474258 0.029688897 -0.102842055 -0.14518969 0.089237854 -0.13490742 -0.16275406 0.16972387
0.0048431377 0.1234943 -0.06646128 -0.057610504 -0.030416893 -0.09128151 -0.033719044 -0.14092143
-0.014492745 0.13751547 0.06853392 0.14859435 -0.09832107 -0.17516577 0.13768062 -0.034752835
0.10219824 0.12027596 -0.05169719 -0.041649 -0.12892589 0.07627554 -0.11089647 -0.025178755
-0.07586012 -0.0884274 0.041403253 0.09606692 -0.07820152 -0.06887105 0.0068216543 -0.051785983
0.1526456 -0.08418597 -0.043071657 0.0051764636 -0.13866447 0.05337792 0.05752069 0.029089749
0.100773185 0.0070562754 -0.03206557 -0.061168384 -0.015335315 -0.044746343 -0.06663279 -0.0256571
0.0070131468 0.026962591 -0.03822464 -0.053156003 -0.07108256 0.0068840915 -0.0498965 0.027064936
-0.055916984 -0.1398968 -0.0023339298 0.06978388 0.039097395 0.015642595 0.08062316 0.0033984962
0.053841785 0.074952066 0.16956852 -0.12837763 -0.06212902 0.083135925 -0.049866255 -0.1602016
-0.17035481 -0.061521575 -0.028933752 0.06446004 -0.06030461 -0.10855619 0.030278992 0.06445653
0.15886459 0.034913164 -0.15955548 0.03204028 -0.15160726 -0.015801439 -0.039708074 -0.031151623
-0.13914888 0.0070540304 -0.038681593 -0.11115724 0.08564114 0.08433273 -0.06510168 -0.024997259
0.19344254 -0.008187851 0.10703401 0.108108856 -0.12191071 0.006411962 0.102522194 0.17629835
-0.079574436 -0.041591834 -0.11635363 -0.12923767 -0.08432061 -0.12624925 0.08955689 0.10217084
0.08839386 -0.13131802 -0.07084802 -0.12766969 -0.0057032844 0.1230702 0.06832286 0.008251621
0.17717977 0.0038061633 -0.061088882 -0.033516183 -0.046453755 6.5262655e-05 -0.06562288 0.09797486
-0.02877914 -0.13334337 -0.13616075 -0.038465448 -0.08408837 -0.04053092 -0.054735012 0.0066711917
-0.06788004 0.025657803 0.19540936 0.19036493 -0.020186694 -9.409216e-05 0.049983267 0.07544827
-0.11894939 -0.09176382 -0.01915196 -0.026335696 -0.049484674 -0.05366725 -0.030230742 0.03874542
0.07387933 0.06643085 -0.05665954 -0.03806365 -0.025075391 0.005080697 -0.033386067 -0.062021334
-0.047946427 -0.11125922 0.1295446 0.13543652 -0.040218815 -0.017566534 0.12730278 0.010986014
-0.03681207 -0.13999149 -0.07603266 0.18643044 0.14602466 -0.09025066 0.016844178 -0.027171902
0.045822468 -0.03851122 0.10522648 -0.097671635 -0.018461902 -0.1468992 -0.028287902 -0.1076383
00000000: 967c 05be d9d0 20bd 723c 80bd a46a e63c
00000010: fa3c 7fbd b761 84ba 2cca 57bd 72cf f43d
00000020: 7f94 1cbc 0464 edbc 5c59 bcbc c692 99bd
00000030: 4232 e0bd f4a0 08be e234 d23c 3616 2c3b
00000040: 4c76 7cbd 3817 ae3c e62a 6b3e 9be3 a53c
00000050: 1691 babc 3d38 393e 597b 473e acad 18be
00000060: 4e1b 54bd 947a 823d 0443 16be 2ca3 5b3c
00000070: 8d9a 9b3b 8315 bb3d 5afc 333a 497f 3c3e
00000080: 9582 71be c480 28bd 1b7f c5bd a7b3 1a3e
00000090: 8160 033e d648 d0bd 0a42 9bbc 3220 6cbc
000000a0: b651 fd3d 8150 1ebd 59af 85bd df25 6abc
000000b0: 6cc1 4f3e 6d0f c0bd 9517 b93d 9183 31bd
000000c0: 5c11 343e c838 9abd 7066 e83c a983 12be
000000d0: a095 c5bc 6f85 ffbb fd29 3c3e f059 ddbc
000000e0: 83a0 7a3d 6d0f 0f3d 6a24 d8bd e523 c4bc
000000f0: a37c d03d 7440 0a3e af4e b13d 7ce3 f23d
00000100: 8e41 42bd 2136 f33c db9e d2bd 9bac 14be
00000110: 56c2 b63d 2c25 0abe 00a9 26be 18cc 2d3e
00000120: 2fb3 9e3b 94ea fc3d da1c 88bd fef8 6bbd
00000130: d92c f9bc cdf1 babd fb1c 0abd b54d 10be
00000140: fa72 6dbc dbd0 0c3e 835b 8c3d 1e29 183e
00000150: 8f5c c9bd a85e 33be 26fc 0c3e fd58 0ebd
00000160: 504d d13d 3e53 f63d 6fc0 53bd 2498 2abd
00000170: 2605 04be 5a36 9c3d b01d e3bd ad43 cebc
00000180: 8d5c 9bbd 6d19 b5bd 7596 293d bcbe c43d
00000190: 1e28 a0bd 440c 8dbd 2f88 df3b 8a1d 54bd
000001a0: 214f 1c3e b269 acbd e86b 30bd 539f a93b
000001b0: 0ffe 0dbe cea2 5a3d d19a 6b3d a04d ee3c
000001c0: 2c62 ce3d 5438 e73b 3057 03bd b38b 7abd
000001d0: f940 7bbc f147 37bd c676 88bd d72e d2bc
000001e0: 8ace e53b a7e0 dc3c 7191 1cbd 1cba 59bd
000001f0: bc93 91bd f293 e13b 4660 4cbd 49b7 dd3c
00000200: 3509 65bd 1b41 0fbe d8f4 18bb daea 8e3d
00000210: 9724 203d e624 803c c11d a53d 4eb9 5e3b
00000220: 3489 5c3d 7880 993d 5fa3 2d3e 6d75 03be
00000230: 007b 7ebd 2b43 aa3d 8f40 4cbd e30b 24be
00000240: 7e71 2ebe 0cfe 7bbd 7a06 edbc a003 843d
00000250: f701 77bd b552 debd a60b f83c c901 843d
00000260: 66ad 223e 1b01 0f3d 8362 23be ab3c 033d
00000270: ef3e 1bbe 0572 81bc efa4 22bd b031 ffbc
00000280: 0b7d 0ebe 7f25 e73b 9770 1ebd 68a6 e3bd
00000290: 9f64 af3d a3b6 ac3d 0854 85bd 0dc7 ccbc
000002a0: cd15 463e 5626 06bc a634 db3d 2d68 dd3d
000002b0: 53ac f9bd 701b d23b 28f7 d13d 8e87 343e
000002c0: ecf7 a2bd 335c 2abd d04a eebd e156 04be
000002d0: 49b0 acbd 7c47 01be 9a69 b73d f23e d13d
000002e0: d707 b53d 3b78 06be c418 91bd d8bb 02be
000002f0: 9ee2 babb 3b0c fc3d dbec 8b3d cf31 073c
00000300: 9d6e 353e d370 793b 5638 7abd 4448 09bd
00000310: 4b46 3ebd 9fdd 8838 4a65 86bd 0ba7 c83d
00000320: 3bc2 ebbc 2a8b 08be b96d 0bbe f28d 1dbd
00000330: 8636 acbd c003 26bd d231 60bd 039a da3b
00000340: b104 8bbd 5030 d23c 6419 483e 06ef 423e
00000350: 915e a5bc 5853 c5b8 41bb 4c3d 9f84 9a3d
00000360: bd9b f3bd abee bbbd 92e4 9cbc f5bd d7bc
00000370: 71b0 4abd 31d2 5bbd 76a6 f7bc 84b3 1e3d
00000380: 0c4e 973d e60c 883d d513 68bd a1e8 1bbd
00000390: e86a cdbc fa7b a63b d4bf 08bd 150a 7ebd
000003a0: 7963 44bd e0db e3bd 57a7 043e dfaf 0a3e
000003b0: 7cbc 24bd b1e7 8fbc a95b 023e affe 333c
000003c0: 41c8 16bd ee59 0fbe 03b7 9bbd 9fe7 3e3e
000003d0: 7d87 153e 57d5 b8bd cdfc 893c 9c97 debc
000003e0: 57b0 3b3d f1bd 1dbd fb80 d73d 1108 c8bd
000003f0: 6a3d 97bc be6c 16be 08bc e7bc 7871 dcbd

encoder.linear.bias f4 [40]
-0.0045222575 -0.0041137305 -0.0114939 -0.00762454 0.008494616 0.023594998 0.010213444 0.0065224916
0.004015156 -0.00327809 0.011055932 0.015222464 0.005211627 0.002537138 -0.014317376 0.01609074
-0.0052303676 -0.016371485 0.014255214 -0.0044373507 0.0043559032 -0.019423096 -0.02027062 0.00040429988
0.0017804214 -0.013894991 -0.020625371 -0.012336188 -0.010366707 -0.00832278 0.0031824252 -0.003639893
0.0121576395 -0.004779217 0.004868317 0.008125158 -0.0016962126 0.004746493 -0.0024385853 -0.0053763255
00000000: 722f 94bb 79cc 86bb e950 3cbc 47d7 f9bb
00000010: 002d 0b3c 4c4a c13c 4a56 273c a0ba d53b
00000020: 9291 833b 39d5 56bb f123 353c a467 793c
00000030: 4cc6 aa3b 1d46 263b 6d93 6abc bad0 833c
00000040: 8163 abbb 7e1d 86bc b38e 693c 3267 91bb
00000050: f7bb 8e3b 2f1d 9fbc 920e a6bc 36f8 d339
00000060: 075d e93a d1a7 63bc 8af6 a8bc b91d 4abc
00000070: 1fd9 29bc 455c 08bc 3c90 503b 458b 6ebb
00000080: d630 473c fa9a 9cbb 6786 9f3b 621f 053c
00000090: 7353 deba 7888 9b3b acd0 1fbb e32b b0bb

encoder.linear_.weight f4 [40, 2500]
-0.33823395 -0.3929597 -0.40005395 -0.4382017 -0.57766575 -0.38885182 -0.35965997 -0.29168475
-0.32160938 -0.42070362 -0.33534434 -0.42912015 -0.50826836 -0.4977102 -0.43054348 -0.4169987
-0.37097076 -0.32779485 -0.32391095 -0.35993567 -0.45884725 -0.41344383 -0.2890438 -0.38102525
-0.4168068 -0.26010966 -0.23045841 -0.34748963 -0.4812823 -0.4615296 -0.5066777 -0.36503372
-0.29280302 -0.48687905 -0.46160486 -0.41098666 -0.33508092 -0.36691234 -0.5137893 -0.43892035
-0.46406868 -0.34722537 -0.26858553 -0.4754643 -0.52261484 -0.27288398 -0.37927803 -0.51251274
-0.4743961 -0.4325552 -0.38606238 -0.33284682 -0.4714245 -0.50664604 -0.34294754 -0.41645494
-0.4653476 -0.37943095 -0.5347149 -0.41706282 -0.38754585 -0.36611104 -0.28228715 -0.41564175
-0.47376314 -0.4318793 -0.3871236 -0.36202285 -0.41962418 -0.50237125 -0.4283552 -0.45179254
-0.3851431 -0.3210255 -0.38536263 -0.4159119 -0.34855133 -0.3949536 -0.34977192 -0.33480656
-0.36995316 -0.4452989 -0.3164518 -0.28733575 -0.43907824 -0.3407396 -0.2686327 -0.44442534
-0.3951094 -0.2961361 -0.49813208 -0.47583476 -0.4817418 -0.40345323 -0.47033963 -0.34462327
-0.55172616 -0.34705746 -0.4131981 -0.5422731 -0.3868337 -0.34621653 -0.4116634 -0.34287125
-0.41225737 -0.42171773 -0.3310141 -0.4704702 -0.42651555 -0.29037312 -0.48445126 -0.3191413
-0.32990742 -0.3579583 -0.34064704 -0.43321547 -0.40928274 -0.4740843 -0.4093893 -0.5107038
-0.44483453 -0.43091437 -0.35261723 -0.34961438 -0.37416062 -0.35711098 -0.48193526 -0.45983413
-0.43162715 -0.37916186 -0.33102122 -0.35197312 -0.26369262 -0.5092115 -0.458795 -0.47893283
-0.23285598 -0.37906444 -0.41496843 -0.3728138 -0.4576116 -0.3926108 -0.4596062 -0.40624508
-0.4154292 -0.40599865 -0.30586246 -0.2710706 -0.36216015 -0.40413377 -0.43533394 -0.43642995
-0.49338165 -0.33701956 -0.4186191 -0.40849546 -0.49254805 -0.28189585 -0.48869193 -0.46475947
-0.48013294 -0.43616727 -0.5410261 -0.26404917 -0.3767644 -0.3997065 -0.5239062 -0.28328317
-0.2804198 -0.4309283 -0.38589337 -0.41988578 -0.4394174 -0.35642996 -0.24089678 -0.3722731
-0.38707787 -0.4296922 -0.4826278 -0.38765734 -0.24622388 -0.38019198 -0.3038018 -0.5350637
-0.31393644 -0.36775804 -0.5444986 -0.40451837 -0.3819084 -0.45300442 -0.3286982 -0.42824766
-0.4005707 -0.27069044 -0.21258073 -0.09917459 -0.48309526 -0.4602559 -0.48419607 -0.31214517
-0.36877698 -0.40212366 -0.39036295 -0.13763319 -0.46650672 -0.32325864 -0.44051448 -0.28458548
-0.40926927 -0.58677083 -0.34303543 -0.31585988 -0.09289923 -0.37426654 -0.27144042 -0.5123782
-0.28913194 -0.54061556 -0.35896516 -0.38372913 -0.37601623 -0.3793701 -0.32072788 -0.4533805
-0.4655847 -0.30343556 -0.39260867 -0.43133667 -0.36466685 -0.39066726 -0.44045934 -0.22289114
-0.21239619 -0.27401474 -0.46933708 -0.3245258 -0.46634588 -0.40243012 -0.2602976 -0.48619118
-0.39712358 -0.4173466 -0.25008643 -0.36736754 -0.39654747 -0.4277406 -0.43522862 -0.49517927
-0.41789004 -0.34371677 -0.52133125 -0.37402362 -0.3069226 -0.30814996 -0.49697894 -0.31490716
00000000: 002d adbe 0432 c9be dfd3 ccbe f95b e0be
00000010: e7e1 13bf 9617 c7be 5a25 b8be b457 95be
00000020: fca9 a4be 7766 d7be 41b2 abbe a3b5 dbbe
00000030: e01d 02bf dfd3 febe 3270 dcbe db80 d5be
00000040: e1ef bdbe bad4 a7be a8d7 a5be 7d49 b8be
00000050: 07ee eabe e9ae d3be 8dfd 93be be15 c3be
00000060: b367 d5be 182d 85be 4afd 6bbe 29ea b1be
00000070: a26a f6be 9c4d ecbe a1b5 01bf b3e5 babe
00000080: 47ea 95be 3648 f9be 7957 ecbe d86c d2be
00000090: ba8f abbe efdb bbbe b287 03bf 2bba e0be
000000a0: 699a edbe 86c7 b1be 0b84 89be 0f70 f3be
000000b0: 16ca 05bf 73b7 8bbe bb30 c2be 0934 03bf
000000c0: 0ce4 f2be e077 ddbe f8a9 c5be e66a aabe
000000d0: 8d5e f1be 8eb3 01bf d296 afbe 9539 d5be
000000e0: 0a42 eebe c644 c2be 13e3 08bf 4289 d5be
000000f0: 696c c6be e872 bbbe f187 90be ffce d4be
00000100: 1591 f2be 491f ddbe 1135 c6be 0f5b b9be
00000110: fbd8 d6be 679b 00bf 5f51 dbbe 5a51 e7be
00000120: 7a31 c5be 745d a4be 404e c5be 68f2 d4be
00000130: 5275 b2be 5c37 cabe 4e15 b3be c46b abbe
00000140: 806a bdbe 38fe e3be f805 a2be ac1d 93be
00000150: ddce e0be 6c75 aebe 3a8a 89be b88b e3be
00000160: c74b cabe 279f 97be 2b0b ffbe 9da0 f3be
00000170: dca6 f6be 6c91 cebe 5bd0 f0be 7672 b0be
00000180: ed3d 0dbf 84b1 b1be b48e d3be 69d2 0abf
00000190: 110f c6be 4b43 b1be 8cc5 d2be d28c afbe
000001a0: 6613 d3be 63eb d7be ae7a a9be 78e1 f0be
000001b0: 3f60 dabe c9ab 94be ff09 f8be 7d66 a3be
000001c0: a0e9 a8be 4f46 b7be 4a69 aebe 6bce ddbe
000001d0: 828d d1be 2dbb f2be 799b d1be 7cbd 02bf
000001e0: 5ac1 e3be cfa0 dcbe 3f8a b4be a800 b3be
000001f0: fb91 bfbe 40d7 b6be 38c0 f6be 616f ebbe
00000200: 3cfe dcbe 8121 c2be 9d7b a9be d235 b4be
00000210: b802 87be af5b 02bf 2ee7 eabe af36 f5be
00000220: cc71 6ebe bc14 c2be be76 d4be 73e1 bebe
00000230: 114c eabe 4804 c9be 8151 ebbe 5bff cfbe
00000240: 23b3 d4be 0edf cfbe 019a 9cbe c4c9 8abe
00000250: 0e6d b9be 9fea cebe 17e4 debe bf73 dfbe
00000260: 859c fcbe d48d acbe 3e55 d6be 5126 d1be
00000270: 422f fcbe a754 90be d435 fabe f4f4 edbe
00000280: fcd3 f5be 5151 dfbe b080 0abf 7431 87be
00000290: 43e7 c0be 55a6 ccbe b71e 06bf 7e0a 91be
000002a0: 2f93 8fbe a2a2 dcbe d193 c5be 45fb d6be
000002b0: 51fb e0be fd7d b6be a5ad 76be 949a bebe
000002c0: 122f c6be 9e00 dcbe fe1a f7be 067b c6be
000002d0: 1d22 7cbe 86a8 c2be e98b 9bbe eff9 08bf
000002e0: 47bc a0be c84a bcbe 4364 0bbf 081d cfbe
000002f0: 7f89 c3be 32f0 e7be 214b a8be 4743 dbbe
00000300: 9a17 cdbe f097 8abe c3ae 59be 0c1c cbbd
00000310: 4358 f7be a9a6 ebbe 8ce8 f7be 7ed1 9fbe
00000320: 56d0 bcbe 27e3 cdbe a7dd c7be b7ef 0cbe
00000330: f8d9 eebe 2882 a5be 1d8b e1be 30b5 91be
00000340: be8b d1be 9d36 16bf 57a2 afbe 63b8 a1be
00000350: f441 bebd dd9f bfbe 3dfa 8abe 382b 03bf
00000360: 1a09 94be c865 0abf 48ca b7be 2578 c4be
00000370: 3385 c0be cc3c c2be 7236 a4be 7d21 e8be
00000380: 1e61 eebe e85b 9bbe 0104 c9be 29d8 dcbe
00000390: 9db5 babe 8a05 c8be e383 e1be 933d 64be
000003a0: 637e 59be a94b 8cbe f34c f0be 3f28 a6be
000003b0: e3c4 eebe 520b cebe ba45 85be 0dee f8be
000003c0: c853 cbbe 74ae d5be 540b 80be 9917 bcbe
000003d0: 4508 cbbe d100 dbbe 49d6 debe 2388 fdbe
000003e0: aff5 d5be a5fb afbe f775 05bf 0680 bfbe
000003f0: f624 9dbe d5c5 9dbe 0674 febe 833b a1be

encoder.linear_.bias f4 [40]
-0.56632215 -0.5931261 -0.6104445 -0.60720664 -0.5738658 -0.6101 -0.58106285 -0.59017813
-0.59002507 -0.6449423 -0.63131905 -0.60131425 -0.6240711 -0.5906747 -0.5676128 -0.59890556
-0.5696974 -0.61812294 -0.60393876 -0.553866 -0.6001145 -0.6349017 -0.6130332 -0.6053131
-0.5695875 -0.6061138 -0.5999132 -0.5924369 -0.5801314 -0.6379716 -0.56306094 -0.60539174
-0.61898214 -0.59868324 -0.6023237 -0.6421543 -0.56865084 -0.58510417 -0.60114664 -0.6092563
00000000: 7dfa 10bf 1dd7 17bf 1746 1cbf e571 1bbf
00000010: dee8 12bf 832f 1cbf 89c0 14bf ea15 17bf
00000020: e20b 17bf f01a 25bf 209e 21bf bbef 19bf
00000030: 20c3 1fbf 7536 17bf 134f 11bf e051 19bf
00000040: b0d7 11bf 4e3d 1ebf bb9b 1abf 2aca 0dbf
00000050: 1ba1 19bf eb88 22bf beef 1cbf cdf5 1abf
00000060: 7dd0 11bf 462a 1bbf e993 19bf f2a9 17bf
00000070: 7e83 14bf 1b52 23bf c324 10bf f4fa 1abf
00000080: 9d75 1ebf 4e43 19bf e331 1abf 3964 24bf
00000090: 1a93 11bf 63c9 15bf bfe4 19bf 39f8 1bbf
