VGDAE_tnnls/feat_hecheng/DisenGCN/sys_disengcn.pth (torch, 801951 bytes, 4 tensors)

encoder.linear.weight f4 [40, 2500]
0.04484381 -0.12586862 0.025753738 0.035708778 0.12164871 -0.09687789 -0.1135596 0.17614017
-0.085196495 0.02726964 -0.18138866 0.1867153 -0.14668946 -0.09726241 0.07665197 -0.059677433
0.0973593 0.18790223 0.0033283425 -0.075677924 -0.19698799 -0.1454752 -0.08914798 -0.039778605
-0.011568208 0.04940374 -0.086354695 -0.0018139812 0.041761365 -0.12597755 -0.023980834 -0.24564432
0.05120775 -0.08624667 0.028040038 0.048432384 0.0745679 0.06387972 0.09421517 -0.06344168
0.0152725605 -0.023791622 0.103077956 0.0024818445 0.102246374 0.20417841 -0.113468 -0.20371974
-0.003917636 -0.059837185 -0.12198031 0.10937043 -0.13588876 0.15008165 0.21783023 -0.020138795
-0.0898955 -0.11212074 0.113303006 0.04768295 0.112115964 -0.047969025 -0.02040297 -0.12914425
-0.09611519 -0.1317543 -0.106252514 -0.10237312 0.24902524 -0.25251064 -0.23663993 0.19430713
0.1371241 -0.103108615 0.015314307 0.030109381 -0.05034958 -0.09081744 0.07480366 0.059239738
-0.22641563 -0.10035273 -0.19132102 0.10319153 -0.13648115 0.055114884 -0.23364747 0.099263825
0.08271225 -0.2415283 -0.04875448 -0.021452978 -0.08911516 -0.01573624 0.14415242 -0.113217585
-0.034700423 0.0141289765 0.18414122 0.026178377 -0.2318543 -0.10594218 -0.12825428 -0.046406843
-0.23350543 0.10441526 -0.07365968 0.07957522 -0.14481607 0.13824192 0.07454567 0.1386586
0.06789209 0.21843848 0.31693727 -0.12842989 0.14380687 -0.04009276 -0.08975851 -0.07284502
0.1900916 0.16867104 0.059095982 -0.1591516 0.091008656 0.069537245 -0.044346232 0.20475703
0.023483815 -0.04185247 -0.024031 -0.036327876 -0.349491 0.09535326 -0.025038827 0.009843949
0.025451045 0.06107129 -0.0126768295 0.1994041 -0.06313663 0.07227041 -0.16655225 -0.10265574
0.005612923 -0.13255265 0.084213085 -0.07458808 0.20093538 0.17851503 -0.21479037 -0.101841524
0.05710573 -0.046412222 -0.14754651 0.0059981355 -0.20461762 -0.2364247 -0.08155005 0.08677664
0.17565608 -0.041979473 -0.055412572 -0.24897271 0.16484576 -0.1668426 -0.118099295 -0.25251263
0.18276143 -0.053520147 -0.024564017 -0.19508962 0.019010125 -0.12823306 0.15878116 -0.027170105
-0.06213911 0.056071535 -0.14965305 -0.27825013 0.15987486 -0.027157277 -0.22703676 0.23093668
-0.1849312 0.0645558 0.12502794 0.24650091 0.04731352 0.033518363 -0.0064742584 0.07392268
-0.014721196 0.11856158 0.11241758 0.10313588 0.1023614 -0.06459735 -0.2758301 -0.058078915
0.0966725 -0.09226217 0.12778106 0.14997186 0.026521673 0.2277037 -0.104835935 -0.22488959
-0.20134479 0.16335231 -0.15818873 -0.04831413 -0.075525865 0.03928736 -0.115582466 -0.24653505
0.18126243 -0.11423762 -0.004351161 0.18810488 -0.0035621133 -0.060649175 0.18766867 0.22939885
0.20325181 -0.10318412 0.06730586 -0.052699734 0.086962104 -0.21332699 0.13552068 -0.24095875
-0.19264391 -0.10005227 0.031692315 -0.1724939 0.03345904 0.0030385612 0.07162928 0.12060341
-0.00081479 -0.06990036 0.039138243 -0.09445239 -0.048845265 0.12490737 0.040006116 -0.09189281
-0.09189877 0.18531285 0.117658116 0.059856877 -0.09756278 -0.09398127 0.09721612 0.11828867
00000000: 25ae 373d b4e3 00be 81f9 d23c 5e43 123d
00000010: f522 f93d ea67 c6bd f091 e8bd 175e 343e
00000020: 807b aebd 9464 df3c f3bd 39be 4c32 3f3e
00000030: c335 16be 8431 c7bd b5fb 9c3d 5370 74bd
00000040: 5064 c73d 7169 403e 5220 5a3b 07fd 9abd
00000050: 38b7 49be 73f7 14be 3793 b6bd e4ee 22bd
00000060: 9588 3dbc 935b 4a3d bbda b0bd 1cc3 edba
00000070: f70d 2b3d 4200 01be 7473 c4bc 2f8a 7bbe
00000080: 38bf 513d 18a2 b0bd 39b4 e53c 0961 463d
00000090: 0eb7 983d 5fd3 823d e2f3 c03d b6ed 81bd
000000a0: c339 7a3c a6e6 c2bc 891a d33d 71a6 223b
000000b0: 8c66 d13d 2514 513e e961 e8bd e89b 50be
000000c0: 835f 80bb d617 75bd d0d0 f9bd 9bfd df3d
000000d0: 6c26 0bbe 01af 193e e30e 5f3e 1dfa a4bc
000000e0: 221b b8bd 8f9f e5bd 680b e83d 324f 433d
000000f0: 0e9d e53d 2b7b 44bd 2124 a7bc 643e 04be
00000100: 0ad8 c4bd 99ea 06be eb9a d9bd 00a9 d1bd
00000110: 7900 7f3e 1349 81be bd51 72be 73f8 463e
00000120: 436a 0c3e 9c2a d3bd dce8 7a3c f3a7 f63c
00000130: 5c3b 4ebd 7efe b9bd a932 993d 5ea5 723d
00000140: 80d9 67be bb85 cdbd a8e9 43be 1556 d33d
00000150: b7c1 0bbe 25c0 613d 4841 6fbe d54a cb3d
00000160: 0a65 a93d 3253 77be c7b2 47bd 28be afbc
00000170: 0282 b6bd 4ae9 80bc b19c 133e 9fde e7bd
00000180: 0822 0ebd 397d 673c 848f 3c3e 0974 d63c
00000190: 376b 6dbe 37f8 d8bd 1755 03be 1a15 3ebd
000001a0: 0c1c 6fbe abd7 d53d e3da 96bd 55f8 a23d
000001b0: aa4a 14be 4a8f 0d3e 66ab 983d 85fc 0d3e
000001c0: 020b 8b3d 56ae 5f3e 9a45 a23e 2083 03be
000001d0: 1c42 133e 4e38 24bd 4fd3 b7bd c52f 95bd
000001e0: 5fa7 423e 1ab8 2c3e a10e 723d a3f8 22be
000001f0: bf62 ba3d 8b69 8e3d 65a4 35bd d4ab 513e
00000200: 2161 c03c 7f6d 2bbd a9dc c4bc 8acc 14bd
00000210: 7cf0 b2be 9248 c33d 3a1e cdbc 8448 213c
00000220: b67e d03c e425 7a3d 7ab2 4fbc 9730 4c3e
00000230: c74d 81bd 8202 943d ac8c 2abe 2c3d d2bd
00000240: 9cec b73b e2bb 07be e977 ac3d a3c1 98bd
00000250: 01c2 4d3e a5cc 363e 02f2 5bbe 4a92 d0bd
00000260: b3e7 693d be1a 3ebd 6f16 17be 028c c43b
00000270: 4887 51be 5119 72be b603 a7bd f3b7 b13d
00000280: 30df 333e abf2 2bbd 4bf8 62bd b4f2 7ebe
00000290: 54cd 283e c9d8 2abe 0bde f1bd 5649 81be
000002a0: d025 3b3e f137 5bbd 7a3a c9bc 93c5 47be
000002b0: 1fbb 9b3c 874f 03be 8797 223e d793 debc
000002c0: 9485 7ebd 44ab 653d a63e 19be cd76 8ebe
000002d0: 3cb6 233e f078 debc 537c 68be aa7a 6c3e
000002e0: 9b5e 3dbe d535 843d 5307 003e bc6a 7c3e
000002f0: d2cb 413d 8d4a 093d 0426 d4bb c664 973d
00000300: 2c31 71bc 6ad0 f23d 303b e63d e738 d33d
00000310: dba2 d13d 9e4b 84bd 9a39 8dbe 28e4 6dbd
00000320: 3bfc c53d f3f3 bcbd 0ad9 023e 3992 193e
00000330: fb43 d93c 292b 693e 39b4 d6bd 7549 66be
00000340: 542d 4ebe d445 273e 3afc 21be 0ae5 45bd
00000350: 4ead 9abd c8eb 203d 80b6 ecbd af73 7cbe
00000360: dc9c 393e 6af5 e9bd 2f94 8ebb 919e 403e
00000370: 5872 69bb 456b 78bd 372c 403e 88e7 6a3e
00000380: 3e21 503e 3252 d3bd a8d7 893d addb 57bd
00000390: 3019 b23d 6472 5abe efc5 0a3e e4bd 76be
000003a0: 7244 45be 34e8 ccbd cdcf 013d 3ea2 30be
000003b0: 590c 093d 9922 473b 5fb2 923d ecfe f63d
000003c0: a297 55ba ec27 8fbd 6c4f 203d 4170 c1bd
000003d0: f911 48bd 6fcf ff3d 74dd 233d 4c32 bcbd
000003e0: 6c35 bcbd a7c2 3d3e bdf6 f03d 7c2c 753d
000003f0: ffce c7bd 4179 c0bd 3f19 c73d 5541 f23d

encoder.linear.bias f4 [40]
0.005181386 -0.02103079 0.0030659845 -0.0048869397 0.0014127183 -0.005665939 0.00017874611 -0.0075094635
0.016543081 -0.0026717328 -0.017339785 -0.014257184 0.008905399 0.0011807013 -0.010465432 -0.009901775
0.014996469 -0.0049708025 0.014002083 0.0006306072 0.00084882963 0.004464802 0.0039626677 -0.0003084606
-0.0073603075 0.0051511857 -0.008183408 -0.0033880041 0.017834092 0.04382538 -0.0016243468 -0.00065655546
0.0005280277 0.00017452084 -0.009859505 -0.010229697 0.0020478212 0.001437292 0.0031163618 0.011789562
00000000: 9ec8 a93b c348 acbc afee 483b 9f22 a0bb
00000010: f62a b93a 57a9 b9bb cb6d 3b39 f211 f6bb
00000020: 5b85 873c 3d18 2fbb 2a0c 8ebc f796 69bc
00000030: f3e7 113c c3c1 9a3a 3477 2bbc 0e3b 22bc
00000040: c0b3 753c 1de2 a2bb fe68 653c 554f 253a
00000050: fe83 5e3a 794d 923b 44d9 813b e2b8 a1b9
00000060: bc2e f1bb 47cb a83b b313 06bc 4709 5ebb
00000070: cd18 923c 3e82 333d 09e8 d4ba b11c 2cba
00000080: 576b 0a3a 95ff 3639 c389 21bc 769a 27bc
00000090: bd34 063b 8463 bc3a e03b 4c3b 0229 413c

encoder.linear_.weight f4 [40, 2500]
-0.73824066 -0.69801825 -0.5834541 -0.6435936 -0.65754074 -0.7190406 -0.5228907 -0.5700616
-0.60703295 -0.78258365 -0.46947384 -0.72872066 -0.7712245 -0.724714 -0.642055 -0.69125694
-0.6809736 -0.31715143 -0.54907924 -0.5531734 -0.70309556 -0.5270903 -0.45965788 -0.43589735
-0.5920998 -0.7060287 -0.41191888 -0.6581053 -0.5196086 -0.7046566 -0.6145223 -0.5371247
-0.30093408 -0.5263336 -0.70780593 -0.7475612 -0.5185275 -0.53523505 -0.5733531 -0.51569533
-0.5937299 -0.5263923 -0.7044311 -0.47391513 -0.6560327 -0.44981283 -0.58450025 -0.76532257
-0.85190624 -0.7299094 -0.6893336 -0.46679094 -0.8333669 -0.7752094 -0.47714004 -0.44340056
-0.61594254 -0.5172994 -0.63358134 -0.8720656 -0.60559475 -0.47809502 -0.69400114 -0.5215005
-0.7322174 -0.7199213 -0.4437745 -0.71314305 -0.62985545 -0.7866753 -0.6592998 -0.77271116
-0.5512658 -0.4449399 -0.69623077 -0.69093275 -0.5644686 -0.66798764 -0.51231235 -0.47655395
-0.5278552 -0.57455504 -0.5473924 -0.47899425 -0.78176636 -0.5561118 -0.75483507 -0.80267817
-0.4580959 -0.5268804 -0.56861514 -0.68502474 -0.6570655 -0.3439218 -0.79949754 -0.70197743
-0.8090294 -0.5086507 -0.68334705 -0.46016523 -0.734301 -0.5938088 -0.6788993 -0.5014661
-0.56976944 -0.35567328 -0.68992835 -0.7402366 -0.64115494 -0.67090696 -0.5613698 -0.46871692
-0.52446324 -0.4778071 -0.61909485 -0.7143231 -0.6511477 -0.70425695 -0.576097 -0.9018963
-0.6634188 -0.7512517 -0.67073613 -0.6251466 -0.897773 -0.59460837 -0.51219416 -0.6539118
-0.72141653 -0.65612626 -0.7028801 -0.6071614 -0.59252745 -0.777217 -0.80199796 -0.76893824
-0.5602718 -0.73449314 -0.50178486 -0.6325642 -0.63927037 -0.46900827 -0.7859772 -0.71092856
-0.74910265 -0.7502902 -0.63723266 -0.33633357 -0.575351 -0.55910176 -0.6160083 -0.77634573
-0.82441205 -0.6782287 -0.559911 -0.6853806 -0.78256917 -0.6396559 -0.7343361 -0.67346376
-0.67576635 -0.80036587 -0.61069226 -0.52310324 -0.5206851 -0.34187034 -0.56949043 -0.66718775
-0.45622623 -0.71323586 -0.734624 -0.63194925 -0.59453183 -0.64750206 -0.49907565 -0.7452268
-0.55324274 -0.86099625 -0.669819 -0.8189289 -0.38764107 -0.4903829 -0.6619199 -0.5561394
-0.7493516 -0.6279307 -0.67799187 -0.56155074 -0.44945177 -0.6705212 -0.695327 -0.601758
-0.7913863 -0.5416164 -0.37154213 -0.42601976 -0.623612 -0.7015428 -0.5700418 -0.5189014
-0.51165134 -0.5881502 -0.63254285 -0.46255156 -0.8428502 -0.72153544 -0.6651919 -0.6703078
-0.6218298 -0.8050124 -0.49582985 -0.5753002 -0.29653767 -0.3838367 -0.7364553 -0.66059774
-0.5999812 -0.7968422 -0.63204914 -0.6267178 -0.6647615 -0.4697723 -0.62909526 -0.5817787
-0.5707906 -0.28300634 -0.58344114 -0.39530155 -0.55345327 -0.6312968 -0.64295393 -0.76582825
-0.41296673 -0.3943142 -0.5576415 -0.6921199 -0.83827287 -0.69815683 -0.7384295 -0.6800549
-0.73202664 -0.68051654 -0.5027212 -0.50946146 -0.82380456 -0.71451706 -0.6489268 -0.8071494
-0.6161195 -0.3966804 -0.6928601 -0.6812867 -0.26334298 -0.54802394 -0.7681946 -0.60047853
00000000: 57fd 3cbf 53b1 32bf 3f5d 15bf 8dc2 24bf
00000010: 9754 28bf 0b13 38bf 2adc 05bf 8fef 11bf
00000020: 8366 1bbf 6757 48bf e05e f0be 708d 3abf
00000030: f86e 45bf db86 39bf b75d 24bf 37f6 30bf
00000040: 4954 2ebf ac61 a2be 7590 0cbf c69c 0dbf
00000050: 12fe 33bf 64ef 06bf 4758 ebbe f02d dfbe
00000060: da93 17bf 4cbe 34bf 08e7 d2be 9779 28bf
00000070: 1205 05bf 6064 34bf 5551 1dbf 0181 09bf
00000080: 0814 9abe ccbd 06bf c532 35bf 2c60 3fbf
00000090: 38be 04bf 2a05 09bf 45c7 12bf 9c04 04bf
000000a0: affe 17bf a5c1 06bf 9955 34bf 01a5 f2be
000000b0: c2f1 27bf de4d e6be cfa1 15bf 2eec 43bf
000000c0: 8716 5abf 58db 3abf 2b78 30bf 39ff eebe
000000d0: 8857 55bf 2074 46bf b34b f4be 6605 e3be
000000e0: 69ae 1dbf bc6d 04bf 6332 22bf b13f 5fbf
000000f0: 4208 1bbf dfc8 f4be 0faa 31bf 0f81 05bf
00000100: 9972 3bbf c34c 38bf 6936 e3be 8b90 36bf
00000110: 353e 21bf 8d63 49bf dfc7 28bf 66d0 45bf
00000120: c11f 0dbf 2acf e3be 2e3c 32bf f8e0 30bf
00000130: 0481 10bf 3d01 2bbf e726 03bf e1fe f3be
00000140: 8521 07bf 0a16 13bf e921 0cbf bc3e f5be
00000150: d721 48bf 585d 0ebf df3c 41bf 517c 4dbf
00000160: 8c8b eabe a2e1 06bf c390 11bf c85d 2fbf
00000170: 7235 28bf 8516 b0be dfab 4cbf cbb4 33bf
00000180: 8d1c 4fbf ef36 02bf d5ef 2ebf c79a ebbe
00000190: 26fb 3bbf db03 18bf 58cc 2dbf 1560 00bf
000001a0: 69dc 11bf cf1a b6be 259f 30bf 2580 3dbf
000001b0: bb22 24bf 8fc0 2bbf eeb5 0fbf aafb efbe
000001c0: 3943 06bf 22a3 f4be 007d 1ebf e1dd 36bf
000001d0: 9eb1 26bf 2f4a 34bf 187b 13bf ade2 66bf
000001e0: d1d5 29bf 0852 40bf 5db5 2bbf 9c09 20bf
000001f0: 74d4 65bf 4138 18bf 281f 03bf c466 27bf
00000200: c1ae 38bf e4f7 27bf f3ef 33bf ee6e 1bbf
00000210: e1af 17bf b1f7 46bf bd4f 4dbf 23d9 44bf
00000220: f96d 0fbf be07 3cbf f974 00bf baef 21bf
00000230: 39a7 23bf da21 f0be cd35 49bf 6aff 35bf
00000240: 31c5 3fbf 0513 40bf ae21 23bf ea33 acbe
00000250: 344a 13bf 4b21 0fbf b8b2 1dbf 98be 46bf
00000260: ab0c 53bf 65a0 2dbf 5456 0fbf 1a75 2fbf
00000270: 7456 48bf 7dc0 23bf 73fd 3bbf 1f68 2cbf
00000280: 06ff 2cbf c7e4 4cbf 5456 1cbf 18ea 05bf
00000290: 9e4b 05bf a109 afbe 20ca 11bf d1cc 2abf
000002a0: 7c96 e9be a096 36bf 5210 3cbf 6dc7 21bf
000002b0: 3d33 18bf b2c2 25bf d886 ffbe 2fc7 3ebf
000002c0: 51a1 0dbf 406a 5cbf 4279 2bbf 53a5 51bf
000002d0: e478 c6be 7813 fbbe 9573 29bf 275f 0ebf
000002e0: 82d5 3fbf 11c0 20bf e090 2dbf cac1 0fbf
000002f0: 8b1e e6be 47a7 2bbf f300 32bf d00c 1abf
00000300: 4b98 4abf 5fa7 0abf c53a bebe 431f dabe
00000310: 09a5 1fbf 4f98 33bf 42ee 11bf b9d6 04bf
00000320: 95fb 02bf 0391 16bf 54ee 21bf 8fd3 ecbe
00000330: 08c5 57bf 8cb6 38bf 044a 2abf 4b99 2bbf
00000340: 3d30 1fbf 4b15 4ebf 69dd fdbe e046 13bf
00000350: c9d3 97be 3e86 c4be 5688 3cbf ef1c 29bf
00000360: 5e98 19bf dafd 4bbf f9cd 21bf 9470 20bf
00000370: cf2d 2abf ff85 f0be 630c 21bf 73ef 14bf
00000380: 551f 12bf 35e6 90be 665c 15bf f764 cabe
00000390: 1daf 0dbf ab9c 21bf a198 24bf 520d 44bf
000003a0: 6070 d3be 8de3 c9be 98c1 0ebf c52e 31bf
000003b0: 0d99 56bf 68ba 32bf b709 3dbf 1418 2ebf
000003c0: 1966 3bbf 5536 2ebf 56b2 00bf 116c 02bf
000003d0: dbe4 52bf 97ea 36bf 1120 26bf 58a1 4ebf
000003e0: 02ba 1dbf b219 cbbe 485f 31bf ce68 2ebf
000003f0: e4d4 86be 4c4b 0cbf 67a8 44bf f6b8 19bf

encoder.linear_.bias f4 [40]
-0.9756383 -1.0344639 -1.048212 -1.0375787 -1.1066358 -1.0835221 -1.0132856 -0.939735
-1.0781605 -1.0144991 -0.9941937 -1.1622288 -0.96555156 -0.938717 -1.0239279 -0.94273823
-0.98246795 -1.0032762 -1.1981381 -0.9251887 -0.95282793 -0.95469916 -1.0289749 -0.9538325
-0.9812963 -0.97164106 -0.97120136 -1.0274419 -1.0183641 -1.1760609 -1.008604 -0.95378363
-1.1015259 -0.91916275 -1.0205909 -1.0890385 -1.0544611 -0.95494974 -1.0086006 -1.0523617
00000000: 6ec3 79bf 5069 84bf d02b 86bf 61cf 84bf
00000010: 3ea6 8dbf dab0 8abf 58b3 81bf 7992 70bf
00000020: 2a01 8abf 1bdb 81bf 7a83 7ebf eac3 94bf
00000030: 632e 77bf c24f 70bf 1210 83bf 4b57 71bf
00000040: 0583 7bbf 5b6b 80bf 975c 99bf 2bd9 6cbf
00000050: 88ec 73bf 2a67 74bf 73b5 83bf 5e2e 74bf
00000060: 3c36 7bbf 78bd 78bf a7a0 78bf 3783 83bf
00000070: c159 82bf 2a89 96bf f019 81bf 2a2b 74bf
00000080: cdfe 8cbf 404e 6bbf b9a2 82bf 9d65 8bbf
00000090: 95f8 86bf 9677 74bf d319 81bf cab3 86bf
