VGDAE/baseline/VGNAE-main/gae_cora_bias.pth (torch, 514655 bytes, 4 tensors)

encoder.linear1.weight f4 [128, 500]
-0.03412619 -0.0018073253 0.04411619 0.0069786543 -0.014571293 -0.027508093 -0.009553817 -0.009618806
-0.082903415 -0.021259133 -0.06862801 0.040027764 -0.015298874 0.030085163 -0.06454001 -0.038696673
0.045039482 0.0015756848 0.0028967094 -0.015844889 -0.009531363 -0.069379665 -0.011012582 -0.063725315
-0.08249657 -0.081579834 -0.030533545 -0.034080055 -0.040200703 -0.10114878 -0.13545854 -0.0705714
0.011774952 -0.06745731 0.0108794095 -0.05251842 -0.026637154 -0.06668309 -0.03173154 -0.1199354
-0.14461692 -0.010999924 0.06874416 -0.042638544 0.015519854 0.038190905 -0.074180335 -0.040924862
0.0037782427 -0.019292159 0.008674546 -0.008414193 0.027935332 -0.053935636 -0.002695814 -0.018350298
0.0054676817 -0.025009189 0.027673861 -0.027404996 -0.012419954 0.002565422 -0.040942907 0.07701685
-0.056224894 -0.021618424 0.010309321 0.029003466 0.040439673 0.042028856 -0.020904215 -0.026095547
0.016960666 0.023159955 0.01516584 0.047598857 -0.015532573 -0.029325396 0.038553853 0.050967596
-0.005350993 -0.0055670366 -0.040112812 -0.04050068 0.017380962 0.09950581 -0.07211208 0.045028966
-0.056747645 0.013982275 0.03832903 0.014504979 0.11548574 -0.08655221 0.013749908 0.07814831
-0.023307757 -0.02741884 -0.053362105 -0.049943548 -0.033925515 -0.06264399 -0.0062127355 0.04346214
-0.0030703607 -0.05279085 0.02611499 -0.058683325 0.011671206 0.032407418 0.055583723 -0.008299912
-0.00217189 0.02488365 -0.06512269 -0.030903392 0.011501271 -0.037244402 -0.022469841 0.05996585
-0.00611153 0.035021074 0.022724556 0.021686079 -0.013204815 0.02812148 0.03645571 0.051791985
0.024788482 0.018820895 0.0027853674 -0.022675404 0.06108291 -0.04268008 -0.031433236 0.03988331
-0.056387097 -0.020069592 -0.013551036 -0.025824416 0.0037677782 -0.02735824 0.08203698 0.020884868
0.007005594 -0.014402962 0.038817912 -0.0058835275 -0.009087107 0.013457614 -0.0090844 0.0034250342
0.032543037 -0.004150477 -0.007531477 0.008593065 0.027748175 -0.017475411 -0.016922167 -0.08558675
0.00047818373 -0.060834583 0.07062797 0.023019746 -0.02752766 -0.032759532 -0.026801404 -0.031536914
-0.086941615 0.0024425888 -0.03692147 -0.1916189 0.029694067 -0.054473016 -0.014434639 -0.054059025
0.07381815 0.086293176 -0.047126524 -0.0127187045 -0.032770917 -0.008734575 -0.018276747 0.018432684
-0.10072557 -0.05011672 0.028971475 -0.04930808 -0.0024245686 0.005921415 0.00096757687 0.018029505
-0.017504968 -0.07602988 0.007993079 -0.0031696428 0.03314068 0.026923353 0.014517551 -0.02506077
-0.07179331 -0.008080501 -0.010043266 0.043834604 -0.0050240243 0.023371864 0.06892275 0.00037711792
0.021378905 0.0057913647 -0.011704939 0.14706443 0.22242399 0.0394036 -0.07223707 -0.011921614
0.009752992 0.0414463 0.008730587 -0.018778065 -0.029178165 0.058759503 -0.010504031 0.025347482
-0.0510741 -0.0034823949 0.0032502979 -0.026456993 0.0068572825 0.06191777 0.04836302 -0.042689662
-0.0050347648 0.032250725 -0.05953084 -0.008023359 0.16583909 0.026191263 0.081501625 0.09284997
-0.049587145 -0.016496481 0.045754183 0.03452292 0.1368814 -0.03809189 -0.017550964 -0.006418633
0.027650198 -0.0444426 -0.050498087 0.0075906944 -0.036781233 0.024056273 -0.0036905382 0.0034094448
00000000: e7c7 0bbd c6e3 ecba 2eb3 343d 32ad e43b
00000010: 6fbc 6ebc a758 e1bc 9d87 1cbc 3298 1dbc
00000020: 44c9 a9bd a227 aebc d88c 8cbd 27f4 233d
00000030: 21a8 7abc 2975 f63c 8e2d 84bd 6780 1ebd
00000040: 527b 383d 3587 ce3a b8d6 3d3b 24cd 81bc
00000050: 6f29 1cbc ed16 8ebd 1e6e 34bc 6b82 82bd
00000060: f6f3 a8bd 5413 a7bd 7c21 fabc 8797 0bbd
00000070: 7ea9 24bd 1727 cfbd a5b5 0abe bd87 90bd
00000080: baeb 403c 0f27 8abd 8d3f 323c 8e1d 57bd
00000090: 2936 dabc 2591 88bd eef8 01bd b1a0 f5bd
000000a0: 7516 14be 0639 34bc bdc9 8c3d c1a5 2ebd
000000b0: fc46 7e3c 116e 1c3d dceb 97bd d4a0 27bd
000000c0: 659c 773b 970a 9ebc af1f 0e3c afdb 09bc
000000d0: a3d8 e43c 9deb 5cbd 41ac 30bb 5d53 96bc
000000e0: 3d2a b33b 12e0 ccbc 4bb4 e23c 7180 e0bc
000000f0: 107d 4bbc a420 283b c0b3 27bd 03bb 9d3d
00000100: 134c 66bd 1f19 b1bc 6de8 283c ad98 ed3c
00000110: 12a4 253d 7326 2c3d 513f abbc 54c6 d5bc
00000120: 18f1 8a3c f2b9 bd3c 257a 783c 05f7 423d
00000130: 557c 7ebc d03b f0bc a5ea 1d3d 66c3 503d
00000140: 6257 afbb b06b b6bb 554d 24bd 0be4 25bd
00000150: 8562 8e3c b4c9 cb3d 80af 93bd 4b70 383d
00000160: 3870 68bd e915 653c e7fe 1c3d 4ba6 6d3c
00000170: ca83 ec3d 4942 b1bd 4b47 613c 390c a03d
00000180: e9ef bebc 7a9d e0bc 3992 5abd 9b91 4cbd
00000190: 7bf5 0abd 7e4b 80bd 3494 cbbb 5b05 323d
000001a0: 1b38 49bb 383b 58bd 1aef d53c ed5d 70bd
000001b0: 9638 3f3c a4bd 043d c2ab 633d 5bfc 07bc
000001c0: 4556 0ebb ccd8 cb3c 0b5f 85bd 1c29 fdbc
000001d0: d46f 3c3c 968d 18bd ac12 b8bc c09e 753d
000001e0: 3b43 c8bb 4272 0f3d d928 ba3c 01a7 b13c
000001f0: 0259 58bc 055f e63c 9552 153d d523 543d
00000200: 3711 cb3c 472e 9a3c b68a 363b c5c1 b9bc
00000210: 1332 7a3d 4fd1 2ebd 23c0 00bd af5c 233d
00000220: 28f6 66bd fc68 a4bc 2a05 5ebc ba8d d3bc
00000230: d4ec 763b 631e e0bc 0103 a83d be16 ab3c
00000240: 2f8f e53b 67fa 6bbc 88ff 1e3d 9bca c0bb
00000250: 17e2 14bc 537d 5c3c bcd6 14bc 8a76 603b
00000260: d94b 053d b900 88bb 9cca f6bb edc9 0c3c
00000270: 2450 e33c 9828 8fbc 5ba0 8abc 1b48 afbd
00000280: bcb4 fa39 af2d 79bd 66a5 903d e893 bc3c
00000290: b081 e1bc dc2e 06bd 9e8e dbbc da2c 01bd
000002a0: 720e b2bd d713 203b f83a 17bd bf37 44be
000002b0: f940 f33c 191f 5fbd 447f 6cbc ff6c 5dbd
000002c0: f82d 973d 7aba b03d be07 41bd 1d62 50bc
000002d0: cc3a 06bd 761b 0fbc 1eb9 95bc 2400 973c
000002e0: 3549 cebd 3147 4dbd 9655 ed3c 45f7 49bd
000002f0: 83e5 1ebb 6e08 c23b fca4 7d3a 9db2 933c
00000300: 9466 8fbc 8eb5 9bbd 67f5 023c c8b9 4fbb
00000310: 86be 073d 5d8e dc3c 06db 6d3c 3e4c cdbc
00000320: 5f08 93bd 1464 04bc 838c 24bc ea8b 333d
00000330: 92a0 a4bb 5a76 bf3c 5f27 8d3d e9b7 c539
00000340: d022 af3c 7dc5 bd3b 13c6 3fbc 0f98 163e
00000350: 1dc3 633e ab65 213d 07f1 93bd e052 43bc
00000360: 03cb 1f3c 98c3 293d bc0a 0f3c 75d4 99bc
00000370: 0c07 efbc cead 703d 1919 2cbc 86a5 cf3c
00000380: 1333 51bd e438 64bb f302 553b 56bc d8bc
00000390: 0eb3 e03b 7d9d 7d3d 4d18 463d 5bdb 2ebd
000003a0: abfa a4bb 5619 043d 9cd6 73bd 6874 03bc
000003b0: b9d1 293e 0f8f d63c 53ea a63d 2028 be3d
000003c0: e41b 4bbd a123 87bc bd68 3b3d e867 0d3d
000003d0: a32a 0c3e 3e06 1cbd 0ac7 8fbc 6553 d2bb
000003e0: ab82 e23c 7209 36bd 15d7 4ebd 5cbb f83b
000003f0: eba7 16bd a911 c53c f5dc 71bb fe70 5f3b

encoder.linear1.bias f4 [128]
0.0042255614 0.00626361 -0.008439488 -0.006079748 0.017330365 0.0101836985 -0.0072248755 0.006569725
0.015592863 -0.015483111 0.020813646 -0.00096630445 -0.00062611484 -0.021364912 -0.008749155 0.0016051934
0.013872495 -0.0058287764 -0.0093076555 -0.0013109234 -0.005585245 0.0144330505 -0.006048139 0.0024757958
0.01679399 -0.0066445326 -0.016658941 -0.013079434 0.0035094626 -0.006687682 0.011501905 0.0024288544
0.007947343 -0.005856079 0.011454807 0.008625284 0.00071800186 -0.008072131 -0.0048284857 0.019007461
-0.007180155 0.000832068 -0.009716258 0.0071578077 -0.007685688 0.0009923164 0.014999715 0.006595309
-0.0048473245 -0.012314193 0.015182543 0.017988827 -0.018005589 -0.004844699 -0.01565839 0.017603416
0.015627326 -0.0014011376 0.016959006 -0.0050247135 -0.0022598756 0.005532945 -0.013389223 0.00025697445
-0.019362405 -0.013706313 -0.008144799 0.0057053086 0.012408274 -0.002770109 -0.020698465 0.005480713
0.01726361 -0.013048567 0.009080698 -0.013894941 -0.013635624 0.010621782 -0.0030015795 -0.019334706
-0.0035316835 0.008215723 -0.022015434 -0.007774252 -0.018210271 0.012610674 0.0028211458 -0.004601868
0.014857688 0.0034419543 -0.0027751185 0.01066639 0.003290515 0.0032357408 -0.013435076 0.011013874
-0.019911261 0.0016809172 0.004496058 -0.012706287 -0.0022343376 -0.007028133 -0.0071322084 -0.018940896
-0.0051372424 0.014584749 -0.0022713905 0.0066122347 -0.007481473 -0.011509 -0.009906932 -0.007804813
0.015513658 -0.013700414 -0.0100938985 0.014138613 0.016389597 0.0025376792 0.020365834 -0.010543074
-0.0030481522 -0.003962907 -0.0038242177 -0.0027198317 -0.009889898 -0.018285647 0.009932324 0.011100196
00000000: 9476 8a3b f83e cd3b c745 0abc 9f38 c7bb
00000010: 69f8 8d3c 87d9 263c a6be ecbb d946 d73b
00000020: 3579 7f3c e0ac 7dbc 6181 aa3c 984f 7dba
00000030: db21 24ba 7805 afbc 9e58 0fbc 5a65 d23a
00000040: 7649 633c 52ff bebb 237f 18bc 4ad3 abba
00000050: 6e04 b7bb 9a78 6c3c 782f c6bb f640 223b
00000060: 8d93 893c 61ba d9bb 5578 88bc 1f4b 56bc
00000070: 03ff 653b 5824 dbbb 7c72 3c3c 6a2d 1f3b
00000080: 9335 023c 5ae4 bfbb f1ac 3b3c 1051 0d3c
00000090: 4a38 3c3a f940 04bc 4638 9ebb 89b5 9b3c
000000a0: 8147 ebbb 231f 5a3a f130 1fbc 0b8c ea3b
000000b0: 39d8 fbbb 9d10 823a 5dc1 753c 761d d83b
000000c0: 4ed6 9ebb 78c1 49bc 33c0 783c 4e5d 933c
000000d0: 7580 93bc 48c0 9ebb 0646 80bc 0a35 903c
000000e0: e104 803c 60a6 b7ba 9ded 8a3c 5aa6 a4bb
000000f0: 6c1a 14bb b54d b53b 795e 5bbc 87ba 8639
00000100: e89d 9ebc 7290 60bc c371 05bc 99f3 ba3b
00000110: 134c 4b3c b88a 35bb d48f a9bc 8e97 b33b
00000120: 6a6c 8d3c a8c9 55bc 35c7 143c 9ba7 63bc
00000130: f467 5fbc fc06 2e3c 26b6 44bb d163 9ebc
00000140: d173 67bb 3d9b 063c b659 b4bc 27bf febb
00000150: b52d 95bc 009d 4e3c f9e2 383b 44cb 96bb
00000160: a96d 733c 6992 613b c3de 35bb 15c2 2e3c
00000170: aea5 573b b90e 543b cb1e 5cbc 8973 343c
00000180: f11c a3bc 3952 dc3a ab53 933b 082e 50bc
00000190: f76d 12bb 414c e6bb 4db5 e9bb f029 9bbc
000001a0: 5056 a8bb dff4 6e3c 9cdb 14bb 72ab d83b
000001b0: 2527 f5bb 3f90 3cbc af50 22bc 84bf ffbb
000001c0: ff2c 7e3c b477 60bc e160 25bc a4a5 673c
000001d0: 7a43 863c 314f 263b 40d6 a63c dcbc 2cbc
000001e0: 82c3 47bb 46db 81bb ba9f 7abb 343f 32bb
000001f0: 3d09 22bc c8cb 95bc 30bb 223c 99dd 353c

encoder.linear2.weight f4 [128, 500]
0.031889964 -0.03428837 0.0017309505 -0.020738715 0.027317729 0.023230903 -0.035376564 -0.021648971
-0.034909785 0.00068437704 0.038963113 0.00827306 0.043583896 0.019765772 0.013238861 -0.021345727
-0.031824082 -0.01391795 0.012055153 -0.032457463 0.0014201788 0.01633766 0.01628037 0.0012824419
-0.040278237 0.03827339 -0.041313097 -0.009873215 0.0061474512 -0.023554316 0.0023483518 -0.02691793
0.02228228 -0.039076604 0.0446281 0.008666572 0.035199754 -0.032577544 0.019515391 -0.041682106
0.004288099 0.016546084 0.03664074 -0.0032808802 0.0046610325 0.025522264 -0.016477956 0.026995478
0.0033249853 0.024379496 0.033217587 -0.0134498915 0.0026961593 -0.03759275 0.017156452 -0.02377096
-0.0003573611 -0.016717108 -0.02387432 -0.0063531185 0.013739797 -0.030735487 0.010074271 -0.005032585
0.01374202 -0.01817949 0.011469957 -0.042735238 0.024602152 -0.03624832 -0.03524323 -0.037206184
-0.0033068005 -0.01593677 -0.035186052 0.015934717 -0.030538531 -0.0035279281 -0.0027629114 0.004593934
-0.019646043 0.006951599 0.03898156 -0.03660987 -0.03769673 -0.020413939 -0.014829585 -0.036900163
0.025342997 -0.0054975087 -0.021291839 -0.034658745 -0.013118675 -0.0025328752 -0.03189204 0.019999608
0.035139102 0.036924202 -0.03966766 -0.013783422 -0.0053534117 -0.016319474 0.019099936 0.038219962
-0.010738864 -0.029069582 -0.01445969 -0.02402779 0.035307508 0.0056744297 -0.0015625539 0.004676402
0.023144629 -0.02240856 -0.033102877 0.034464817 -0.042839643 -0.010822574 -0.03474535 0.029378237
-0.037923113 0.019197518 0.035129793 -0.0124636935 0.04382474 -0.03232646 -0.021384511 0.03865809
-0.0027586196 -0.029084142 -0.021142432 -0.021347864 0.020059211 -0.034075193 -0.02638755 0.0037400406
-0.017973496 -0.03568941 -0.003023671 -0.01988196 -0.013869271 -0.03565838 -0.01794403 -0.033165257
-0.030011062 0.0010483435 0.042818736 -0.0030760982 0.009581182 0.016119234 -0.029773263 -0.00084550725
0.023101782 -0.0369847 0.03392211 -0.022233883 -0.011338816 0.030600198 -0.036454186 -0.012457318
-0.03934123 -0.032099288 -0.03412527 0.006552159 0.012614209 0.030104315 0.016552886 -0.03918543
-0.014226322 -0.0057532038 -0.031944662 -0.012149036 0.042695824 0.03081716 0.035041925 0.007820766
-0.03495197 -0.02725668 0.03916927 0.03484055 -0.04321483 0.018638974 -0.0049963915 0.034852903
-0.010861204 0.0024083864 0.020829469 -0.012622547 0.004325209 0.04204688 -0.012026173 0.014147937
0.039956585 -0.031444274 -0.028541975 0.038549628 0.0056267367 -0.032124974 -0.03920366 0.036685977
-0.04349743 0.03865842 -0.024930006 0.037872653 -0.02796919 0.010879938 0.03961422 0.02204187
0.013717422 0.0122279 0.00017180864 0.012413714 -0.03329945 -0.02832896 0.005923493 0.00053231517
0.03141353 0.003798881 0.007991072 0.020365862 0.02376993 -0.006995187 -0.029369004 -0.02474749
0.04087004 -0.023557594 0.015914852 0.0123551665 0.031716637 0.008310698 -0.025438672 0.03489325
0.024126418 0.041733462 0.015803399 0.006547798 -0.021401774 0.018546866 -0.0031392302 -0.012664845
-0.0008935201 -0.030306991 -0.044334766 0.0006467441 0.01746758 -0.007181139 0.025637679 -0.031592537
-0.0078043886 0.0036358316 0.0035204056 0.02509797 -0.03151644 0.01348061 -0.011897792 -0.002568749
00000000: 0d9f 023d f671 0cbd 10e1 e23a 3de4 a9bc
00000010: 6ec9 df3c bc4e be3c 04e7 10bd 2f59 b1bc
00000020: 90fd 0ebd c467 333a c997 1f3d bb8b 073c
00000030: 0785 323d d4eb a13c cfe7 583c 3cdd aebc
00000040: f859 02bd 1d08 64bc fa82 453c 1ef2 04bd
00000050: 4b25 ba3a 8ed6 853c 695e 853c 9c17 a83a
00000060: cbfa 24bd 8fc4 1c3d ec37 29bd 44c3 21bc
00000070: 8f70 c93b fbf4 c0bc cee6 193b fe82 dcbc
00000080: 5489 b63c ca0e 20bd f4cb 363d 3dfe 0d3c
00000090: 9e2d 103d 0870 05bd bede 9f3c dbba 2abd
000000a0: 2e83 8c3b a78b 873c 9a14 163d 0904 57bb
000000b0: 93bb 983b 1114 d13c c7fc 86bc 9f25 dd3c
000000c0: ffe7 593b 82b7 c73c 2a0f 083d ef5c 5cbc
000000d0: 0cb2 303b dbfa 19bd b08b 8c3c 51bb c2bc
000000e0: 325c bbb9 51f2 88bc 1494 c3bc d22d d0bb
000000f0: e31c 613c fdc8 fbbc 8e0e 253c 62e8 a4bb
00000100: 3626 613c 27ed 94bc 7dec 3b3c 250b 2fbd
00000110: 748a c93c 1e79 14bd 355b 10bd 8365 18bd
00000120: e8b6 58bb d48d 82bc 401f 10bd 8689 823c
00000130: f12b fabc d034 67bb f611 35bb b688 963b
00000140: bdf0 a0bc 3dca e33b 21ab 1f3d 3bf4 15bd
00000150: e367 1abd 223b a7bc caf7 72bc a024 17bd
00000160: 1e9c cf3c 7224 b4bb 396c aebc 54f6 0dbd
00000170: b6ef 56bc 98fe 25bb 3aa1 02bd 38d6 a33c
00000180: 05ee 0f3d d53d 173d 8e7a 22bd ddd3 61bc
00000190: ac6b afbb 6bb0 85bc 7877 9c3c 898c 1c3d
000001a0: 0ff2 2fbc 5523 eebc 56e8 6cbc eed5 c4bc
000001b0: 9b9e 103d 91f0 b93b 9cce ccba 813c 993b
000001c0: ce99 bd3c 2892 b7bc e296 07bd fb2a 0d3d
000001d0: 9f78 2fbd 2a51 31bc 2451 0ebd a1aa f03c
000001e0: 4455 1bbd 1d44 9d3c 42e4 0f3d 8534 4cbc
000001f0: 9281 333d c068 04bd 922e afbc f257 1e3d
00000200: f5c9 34bb de41 eebc e532 adbc b7e1 aebc
00000210: 3753 a43c 6e92 0bbd b42a d8bc 781b 753b
00000220: 273d 93bc 0f2f 12bd c828 46bb 7edf a2bc
00000230: f03b 63bc 850e 12bd 5cff 92bc 4bd8 07bd
00000240: c2d9 f5bc 9268 893a b362 2f3d 5d98 49bb
00000250: 64fa 1c3c 7c0c 843c 0fe7 f3bc 08a5 5dba
00000260: f33f bd3c 457d 17bd e9f1 0a3d d523 b6bc
00000270: 71c6 39bc 44ad fa3c fc50 15bd c719 4cbc
00000280: 4524 21bd 8b7a 03bd f0c6 0bbd 7eb3 d63b
00000290: d4ab 4e3c 539d f63c eb99 873c e780 20bd
000002a0: 8515 69bc 5f85 bcbb 68d8 02bd c00c 47bc
000002b0: d1e1 2e3d 4574 fc3c 1f88 0f3d ac22 003c
000002c0: cc29 0fbd 6749 dfbc f56f 203d f7b4 0e3d
000002d0: 0902 31bd c3b0 983c c5b8 a3bb ebc1 0e3d
000002e0: 31f3 31bc 05d6 1d3b 90a2 aa3c cdce 4ebc
000002f0: 7cba 8d3b 5939 2c3d 6d09 45bc c0cc 673c
00000300: 84a9 233d b6cb 00bd dcd0 e9bc 37e6 1d3d
00000310: 7d60 b83b 7a95 03bd 0494 20bd 0944 163d
00000320: 5c2a 32bd 4b58 1e3d 033a ccbc 5b20 1b3d
00000330: a51f e5bc c441 323c 8542 223d 2791 b43c
00000340: 0abf 603c 8857 483c 8827 3439 e462 4b3c
00000350: 0165 08bd 2312 e8bc dc19 c23b 118b 0b3a
00000360: 79ab 003d a6f6 783b fcec 023c 4fd6 a63c
00000370: 28b9 c23c e237 e5bb 4497 f0bc 40bb cabc
00000380: 5867 273d dbfb c0bc dd5f 823c 536d 4a3c
00000390: 4ee9 013d 9829 083c c364 d0bc 39ec 0e3d
000003a0: c4a4 c53c b5f0 2a3d 2176 813c e98e d63b
000003b0: c652 afbc 99ef 973c 8bbb 4dbb 3680 4fbc
000003c0: 1e3b 6aba 5e46 f8bc 5f98 35bd 438a 293a
000003d0: 2c18 8f3c c34f ebbb 1c06 d23c 2d67 01bd
000003e0: f5bb ffbb 2247 6e3b 9bb6 663b 429a cd3c
000003f0: 6217 01bd c7dd 5c3c f5ee 42bc 7558 28bb

encoder.linear2.bias f4 [128]
0.024296377 0.043002732 -0.026135124 -0.00585367 -0.025810901 0.033522096 -0.028866304 -0.037557974
-0.0023188754 0.021112433 -0.041870523 0.032164264 0.030271623 -0.0025079679 -0.02847888 -0.013024275
0.031613436 -0.044487976 0.024071187 0.037817657 0.027823094 0.004504391 0.037081964 -0.011950581
0.020060837 0.003732982 0.038166367 0.040863868 0.03699755 0.016494844 0.044210646 0.031765684
0.014629905 -0.008239047 0.006173286 0.003282021 0.024253402 -0.012341748 -0.035474908 0.0006220073
0.03759166 -0.005163194 -0.016037555 -0.033186257 0.028949171 0.04133177 -0.017999453 0.0369329
-0.01721018 0.03309126 -0.029830227 -0.04407134 0.021964813 -0.04043698 -0.017820315 -0.027971696
-0.0036001764 0.022368805 0.03722019 0.04295825 -0.036776282 -0.0030715612 -0.04332054 0.031230643
0.010851038 -0.034759253 0.043730147 0.019995583 -0.034241583 -0.014595646 -0.019005004 -0.021279823
-0.037502 -0.0028871389 -0.016971245 0.026979752 -0.031844445 -0.044067714 -0.03409564 -0.043321047
-0.04177552 0.004835576 0.004779001 -0.00901993 -0.03763199 0.031014692 0.012932003 0.031141853
0.042940106 -0.020875284 0.031322923 -0.0072683473 0.0070003103 -0.038483497 0.02399687 -0.027922543
-0.02820451 -0.019332936 0.022229064 -0.0013601602 -0.028112829 0.028131546 -0.0010051394 0.015920568
0.0420517 0.005555048 -0.02200985 0.022742288 -0.006230005 0.03168617 -0.022530122 -0.0128666265
-0.010031445 -0.022045238 0.03519258 0.0021426952 0.02324469 -0.038179304 0.0363492 0.024651168
-0.028774314 0.03196717 0.03594074 0.037200194 0.04238457 0.04099994 -0.043107394 0.016771086
00000000: 3209 c73c a223 303d 5419 d6bc 25d0 bfbb
00000010: 6271 d3bc 774e 093d 0779 ecbc 64d6 19bd
00000020: 46f8 17bb fbf3 ac3c 6d80 2bbd adbe 033d
00000030: 32fc f73c b85c 24bb 8a4c e9bc c563 55bc
00000040: 177d 013d 0639 36bd f030 c53c b0e6 1a3d
00000050: 42ed e33c 9299 933b 42e3 173d 5fcc 43bc
00000060: a056 a43c 0ca5 743b 5654 1c3d df60 273d
00000070: be8a 173d 3220 873c 3916 353d bc1c 023d
00000080: 45b2 6f3c 11fd 06bc 4749 ca3b 2d17 573b
00000090: 12af c63c 0b35 4abc 234e 11bd 340e 233a
000000a0: b6f9 193d 0330 a9bb 3161 83bc 50ee 07bd
000000b0: d026 ed3c 814b 293d 9773 93bc f446 173d
000000c0: 5dfc 8cbc b38a 073d 855e f4bc 2684 34bd
000000d0: 8def b33c 3fa1 25bd e9fb 91bc e624 e5bc
000000e0: f0f0 6bbb c93e b73c 3374 183d fdf4 2f3d
000000f0: baa2 16bd 3f4c 49bb e170 31bd 68d7 ff3c
00000100: 8dc8 313c b85f 0ebd 621e 333d c7cd a33c
00000110: e740 0cbd 9422 6fbc 62b0 9bbc 0653 aebc
00000120: b29b 19bd 2736 3dbb 4807 8bbc a404 dd3c
00000130: 526f 02bd 5980 34bd dfa7 0bbd 6971 31bd
00000140: cf1c 2bbd c073 9e3b 2b99 9c3b 54c8 13bc
00000150: 0024 1abd 8612 fe3c c0e0 533c 331d ff3c
00000160: f7e1 2f3d a502 abbc 774c 003d 512b eebb
00000170: dc62 e53b dfa0 1dbd 1595 c43c d1bd e4bc
00000180: 250d e7bc 1b60 9ebc ba19 b63c 6747 b2ba
00000190: e04c e6bc 2174 e63c e2be 83ba da6b 823c
000001a0: 673e 2c3d 1f07 b63b 004e b4bc 094e ba3c
000001b0: 1225 ccbb 5bc9 013d 1791 b8bc 8bce 52bc
000001c0: ee5a 24bc 3798 b4bc 1826 103d 766c 0c3b
000001d0: a66b be3c e761 1cbd e6e2 143d 3ff1 c93c
000001e0: 1cb8 ebbc 02f0 023d 9936 133d 3b5f 183d
000001f0: 719b 2d3d 8eef 273d 6191 30bd 8463 893c
