VGDAE_tnnls/feat_hecheng/raw/syn_raw.pth (torch, 801887 bytes, 4 tensors)

encoder.linear.weight f4 [40, 2500]
0	0x3d2386f4	0.039923623
1	0xbc332aa2	-0.010935457
2	0x3e1596f8	0.14608371
3	0x3e100934	0.1406601
4	0x3d4ee018	0.05050668
5	0xbc79d75b	-0.015249099
6	0xbc0850d2	-0.00832005
7	0x3cc07589	0.023493545
8	0x3e0202df	0.12696408
9	0x3dfbfd17	0.123041324
10	0x3dc2e03c	0.095154256
11	0xbb9dd0bd	-0.0048161433
12	0x3e543a90	0.20725465
13	0x3db6d274	0.089268595
14	0x3dbe4b99	0.09291763
15	0x3d22b2dc	0.039721355
16	0x3d656122	0.056000836
17	0x3d606463	0.054783236
18	0x3e399902	0.18124774
19	0x3cf4a8f9	0.029865729
20	0x3e0ea907	0.13931666
21	0xbc3b79d6	-0.011442622
22	0x3dc5df32	0.09661712
23	0x3e0d963f	0.13826846
24	0x3dac5866	0.08415298
25	0x3d38cea4	0.045118943
26	0xbc1a8c87	-0.009432918
27	0x3d3926e3	0.0452031
28	0x3e08b0b3	0.13348655
29	0x3e27a281	0.16370584
30	0x3e390a52	0.18070343
31	0x3e4efcc9	0.20213617
32	0x3da1ceea	0.07900794
33	0x3d1dcbd4	0.038524464
34	0x3cbff28b	0.023431083
35	0x3d992712	0.07478155
36	0xbd36e556	-0.044652306
37	0x3da41f53	0.08013787
38	0x3db42d84	0.08797744
39	0x3cb10851	0.02161041
40	0x3dadc6af	0.084851615
41	0x3d6f12ac	0.058367416
42	0x3d620060	0.05517614
43	0x3d83ecb7	0.06441634
44	0x3da773b1	0.08176363
45	0x3d8de790	0.06928933
46	0xbd12d756	-0.03584989
47	0x3b838e04	0.0040147323
48	0x3de9ccba	0.114160016
49	0x3ddc3f25	0.10754231
50	0xbda7f63d	-0.08201263
51	0xbc51d293	-0.012806552
52	0x3dd17dbc	0.1022906
53	0x3de92094	0.11383167
54	0x3d70eea6	0.058821343
55	0x3e0297dd	0.12753244
56	0x3d51ef34	0.051253513
57	0x3dbde705	0.09272579
58	0x3e3005b5	0.17189677
59	0x3db9ddeb	0.090755306
60	0xbbfaa1c2	-0.0076486776
61	0xbc995d21	-0.018721165
62	0x3b8b8313	0.0042575686
63	0xbda895a9	-0.082316704
64	0x3dda899a	0.10670777
65	0x3e51c627	0.20485745
66	0xbc768576	-0.015046468
67	0xbcf4271e	-0.029803809
68	0x3df0f1ff	0.11764907
69	0x3e1eed82	0.1552029
70	0x3dea133a	0.114294484
71	0x3dd7c97a	0.105364755
72	0x3e0ae7a0	0.1356492
73	0x3e70853b	0.23488323
74	0x3d561236	0.05226346
75	0x3d00696e	0.031350546
76	0x3c4a787d	0.012357828
77	0x3cc7b893	0.024380004
78	0x3dfa32e1	0.12216736
79	0xbe1e9312	-0.1548579
80	0x3dcdb3e6	0.100440785
81	0x3d9920b1	0.074769385
82	0x3db8113c	0.08987662
83	0x3dd01f01	0.101621635
84	0x3e46c55b	0.19411223
85	0x3d0be771	0.034156267
86	0x3cbe8540	0.023256898
87	0x3cf39dbe	0.029738303
88	0x3cb9b237	0.022667987
89	0xbbc4f0c5	-0.0060101473
90	0x3da915a0	0.08256078
91	0x3e361636	0.1778191
92	0x3d71bef1	0.059019987
93	0x3d3caa58	0.04606089
94	0x3d05ed6e	0.032697134
95	0x3d9feddd	0.07809041
96	0x3e4c8441	0.19972326
97	0x3c866921	0.016407551
98	0x3ddf81c0	0.1091342
99	0x3de44e92	0.111477986
100	0x3dbf1631	0.093304045
101	0x3cdaad69	0.026694017
102	0xbe09e31f	-0.13465546
103	0x3dbeb58e	0.093119726
104	0x3df8d331	0.121496566
105	0x3d9311cc	0.07181129
106	0x3d68b081	0.056808952
107	0x3dbb58b8	0.09147781
108	0x3dd68b1a	0.1047575
109	0xbd57fc08	-0.05273059
110	0x3d90955c	0.07059738
111	0x3c5b3169	0.0133784795
112	0x3dd34e3e	0.10317658
113	0x3dfa1649	0.12211282
114	0x3c03f240	0.008053362
115	0x3a81a37c	0.0009890641
116	0x3e0a6079	0.13513364
117	0x3c107ce7	0.008818842
118	0x3dbe2f29	0.09286339
119	0x3e0dc936	0.13846287
120	0x3d602485	0.054722328
121	0xbd6896dd	-0.0567845
122	0x3db72b6a	0.089438275
123	0x3df02a41	0.11726809
124	0x3ddc873e	0.10767983
125	0x3d994dd3	0.07485547
126	0x3e01c6f4	0.12673551
127	0x3dc437b6	0.095809385
128	0x3db06bf5	0.08614341
129	0x3b8c2027	0.004276294
130	0x3df0b638	0.117535055
131	0x3d81c78d	0.063368894
132	0x3cb0c5de	0.021578725
133	0x3de73185	0.11288742
134	0x3caed418	0.021341369
135	0x3e57a793	0.21060018
136	0x3e260df4	0.1621626
137	0x3cde4f13	0.027137315
138	0x3d58978b	0.052878898
139	0xbd5d13e2	-0.05397404
140	0x3e258244	0.16162974
141	0x3e0096d7	0.12557541
142	0x3e0d076b	0.13772361
143	0x3d53a484	0.051670566
144	0x3ccad260	0.024758518
145	0x3cb3d8b9	0.021953927
146	0x3d4259bc	0.04744886
147	0x3cd1408a	0.02554347
148	0x3d81faee	0.06346689
149	0x3e3b4f35	0.18291934
150	0x3d97867c	0.07398698
151	0x3dc9bd0d	0.09850512
152	0x3e19b9c6	0.15012273
153	0x3d973a31	0.07384146
154	0xbcdefb12	-0.027219329
155	0x3df8cfcd	0.1214901
156	0x3cfd7079	0.03093742
157	0x3ccf0fa3	0.02527601
158	0x3e13465b	0.14382307
159	0x3e72d26e	0.23713085
160	0x3d5e2b05	0.054240245
161	0x3db131a6	0.08652048
162	0x3d5cf0b1	0.05394048
163	0x3dd3cc56	0.10341708
164	0x3d415be9	0.047206793
165	0x3e205f57	0.1566137
166	0x3ce1f477	0.02758239
167	0x3c295624	0.010335479
168	0x3e02f59d	0.12789007
169	0x3d7ced59	0.06174979
170	0x3d238abc	0.03992723
171	0x3df77500	0.12082863
172	0x3c77d6c9	0.015126892
173	0xbc561a89	-0.01306785
174	0xbdbf3eab	-0.09338125
175	0x3e170f92	0.14752033
176	0x3dc5d729	0.09660179
177	0x3dcfd247	0.10147529
178	0x3d84de13	0.0648767
179	0x3d86be77	0.06579297
180	0x3cf6259b	0.030047229
181	0x3e278fb4	0.16363412
182	0x3d9071b4	0.07052937
183	0xbd11de3a	-0.035612322
184	0x3d89a681	0.06721211
185	0x3e367c78	0.17820919
186	0xbd1f7fe5	-0.03894033
187	0x3d0b0e4d	0.033949185
188	0x3d689014	0.05677803
189	0x3e576131	0.2103317
190	0x3e1d320e	0.15351126
191	0x3caea2a2	0.021317784
192	0x3de5af8d	0.11215124
193	0x3d7dde80	0.06197977
194	0x3dfe8bd0	0.12429011
195	0xbcfaa050	-0.030594021
196	0x3da353e0	0.07974982
197	0x3e463403	0.19355778
198	0x3e11619e	0.14197394
199	0x3d13697a	0.035989262
200	0x3e319c9e	0.17344901
201	0x3dc7cc4d	0.09755764
202	0x3d9ef33f	0.07761239
203	0xbd308d1b	-0.04310332
204	0x3d036fc4	0.03208901
205	0x3d917b60	0.0710361
206	0x3d9b76f5	0.07591049
207	0x3da3e6b4	0.080029875
208	0x3e451567	0.19246446
209	0x3e12d837	0.14340292
210	0x3e07b4dc	0.13252586
211	0x3d10c2cf	0.035342034
212	0xbdc065a4	-0.093943864
213	0x3d79c7f9	0.060981724
214	0x3c8059e9	0.015667873
215	0x3dce24b4	0.10065594
216	0xbd15e892	-0.03659875
217	0x3d1a0f26	0.037612103
218	0x3dc484c6	0.09595637
219	0x3d37efac	0.044906303
220	0x3db32835	0.08747903
221	0x3e0d7455	0.13813908
222	0xbc644044	-0.013931338
223	0x3ca597af	0.02021393
224	0x3d00b115	0.03141888
225	0x3e4eaa6d	0.201822
226	0xbdc09349	-0.094030924
227	0x3e0f033d	0.13966079
228	0x3e23157d	0.15926166
229	0x3dff722b	0.12472948
230	0x3d65b14f	0.056077298
231	0x3e2a8bcc	0.16654891
232	0x3d867db4	0.06566945
233	0x3dab30d2	0.08358921
234	0xbc9a466a	-0.018832404
235	0x3d864cc2	0.06557609
236	0x3d49109e	0.049088113
237	0x3dbf46d5	0.09339682
238	0x3ded22a5	0.115788735
239	0x3ddbefa4	0.10739067
240	0x3e0e08fe	0.13870618
241	0x3dad8368	0.084723294
242	0x3e108e2a	0.14116731
243	0xbb99b8d9	-0.004691225
244	0x3e2d9cf4	0.16954404
245	0x3d32e713	0.0436774
246	0x3db1e445	0.08686117
247	0x3da8cb0c	0.08241853
248	0x3da98915	0.082780994
249	0xbd9e01d8	-0.077151954
250	0x3e1ccbac	0.1531207
251	0x3e041f18	0.12902486
252	0x3db34012	0.08752455
253	0x3db2c5de	0.087291464
254	0xbcdd2088	-0.026993051
255	0xbd3905eb	-0.04517166

encoder.linear.bias f4 [40]
0	0x3c1d7fad	0.00961296
1	0x3ca404b8	0.020021781
2	0x3d4bca8c	0.04975371
3	0x3d899acd	0.06718979
4	0xbd9c6c8a	-0.0763789
5	0x3da2c5bd	0.07947872
6	0x3d1922b0	0.037386596
7	0x3d3c4e9f	0.045973416
8	0x3d922f83	0.071379684
9	0x3de71b67	0.112845235
10	0xbca9a068	-0.02070637
11	0xbd6164f6	-0.055027924
12	0x3d3ab4b2	0.04558248
13	0xbcbf0e23	-0.02332217
14	0x3d677c7a	0.056515194
15	0x3d39d98b	0.04537348
16	0xbb5e7aad	-0.0033947632
17	0x3cedeb02	0.029042725
18	0x3db142c3	0.08655312
19	0xbcf05d62	-0.029341403
20	0x3a344bd6	0.00068777555
21	0x3c45fbb0	0.012083933
22	0x3db628cb	0.088944994
23	0xbd4eaa92	-0.050455637
24	0x3d94d3f7	0.072669916
25	0x3dd5028d	0.10400877
26	0x3d9fdb81	0.07805539
27	0x3ccf875e	0.025333103
28	0xbdfd06f8	-0.12354845
29	0x3c69f76f	0.014280184
30	0xbd327c56	-0.043575607
31	0x3d45f29e	0.04832708
32	0x3cf2710c	0.02959492
33	0x3c480fc3	0.012210789
34	0xbd374882	-0.044746883
35	0x3ca6144b	0.020273348
36	0xbd26d436	-0.040729724
37	0xbd81fc02	-0.06346895
38	0x3dc1ad0f	0.094568364
39	0x3dc4159d	0.09574435

encoder.linear_.weight f4 [40, 2500]
0	0xbf2ea0ad	-0.6821392
1	0xbf25450c	-0.6455848
2	0xbf17fde7	-0.593718
3	0xbf1b75f3	-0.6072685
4	0xbf1c36d8	-0.61021185
5	0xbf22a392	-0.6353084
6	0xbf0fb4f5	-0.56135494
7	0xbf064632	-0.5245086
8	0xbf1a21f0	-0.60208035
9	0xbf342075	-0.70362025
10	0xbf239990	-0.6390619
11	0xbf1f7271	-0.62284
12	0xbf3b8ae7	-0.73258823
13	0xbf452297	-0.77005905
14	0xbf34ccea	-0.70625174
15	0xbf2330b0	-0.63746166
16	0xbf279ea2	-0.6547643
17	0xbf0d6496	-0.55231607
18	0xbf31ec2c	-0.69500995
19	0xbf30a26f	-0.68997854
20	0xbf0ff3d2	-0.56231415
21	0xbf0dc5fe	-0.5538024
22	0xbf0d0c5a	-0.5509697
23	0xbf1a40f2	-0.6025535
24	0xbed37649	-0.41301182
25	0xbf30424b	-0.68851155
26	0xbeb8d3f6	-0.36099213
27	0xbf10fa48	-0.566319
28	0xbf36f5b2	-0.7146865
29	0xbf1d14c8	-0.61359835
30	0xbf576f31	-0.8415404
31	0xbf044a9e	-0.51676357
32	0xbf04b3ea	-0.5183703
33	0xbf2fe7df	-0.6871318
34	0xbf38d23f	-0.7219581
35	0xbf137fb6	-0.57616746
36	0xbf09641d	-0.53668386
37	0xbf122dba	-0.57101023
38	0xbef57851	-0.47943357
39	0xbf1ee5e4	-0.62069535
40	0xbf0aed77	-0.5426859
41	0xbeeaa2e3	-0.45827398
42	0xbf1ab2f3	-0.60429305
43	0xbf2bb135	-0.6706727
44	0xbf191d52	-0.59810364
45	0xbef3e0fc	-0.47632587
46	0xbf0d8031	-0.5527373
47	0xbf4efd18	-0.8085494
48	0xbf405898	-0.75135183
49	0xbf14735c	-0.57988524
50	0xbf220706	-0.63291967
51	0xbedc3dee	-0.43016
52	0xbf3cb1d1	-0.73708826
53	0xbf2aa080	-0.66651154
54	0xbf012f30	-0.5046263
55	0xbeeb8bd0	-0.46005106
56	0xbf1bc5a2	-0.6084844
57	0xbeebb1e0	-0.46034145
58	0xbf23b52d	-0.6394833
59	0xbf1ce24d	-0.6128281
60	0xbef593af	-0.47964236
61	0xbf341124	-0.70338655
62	0xbefb1cc7	-0.49045393
63	0xbf07b293	-0.5300686
64	0xbf37bea7	-0.7177529
65	0xbf349d89	-0.7055288
66	0xbf205d4e	-0.6264237
67	0xbf290aaa	-0.660319
68	0xbf314d21	-0.69258314
69	0xbf355a7e	-0.70841205
70	0xbf00f7a1	-0.5037785
71	0xbf2d6a70	-0.67740536
72	0xbf40c8fe	-0.7530669
73	0xbef6c649	-0.48198155
74	0xbf380578	-0.71883345
75	0xbf2bd826	-0.6712669
76	0xbf00ce4c	-0.50314784
77	0xbf2cb67f	-0.67465967
78	0xbf05c008	-0.5224614
79	0xbf198847	-0.5997357
80	0xbf24299f	-0.6412601
81	0xbf0f23d4	-0.55914044
82	0xbf0685a9	-0.525477
83	0xbf2e9abe	-0.6820487
84	0xbf365968	-0.71230173
85	0xbed521f0	-0.41627455
86	0xbf3489ad	-0.70522577
87	0xbf4c203f	-0.79736704
88	0xbee1784c	-0.44037092
89	0xbf23182d	-0.63708764
90	0xbf28fc92	-0.6601039
91	0xbf506d59	-0.8141685
92	0xbf2a3cc6	-0.6649898
93	0xbef23eb4	-0.47313464
94	0xbf2f157d	-0.68392164
95	0xbf3563d2	-0.7085544
96	0xbf30b789	-0.6903005
97	0xbeefd85f	-0.46844766
98	0xbf19f10f	-0.6013345
99	0xbf1c0549	-0.60945565
100	0xbf4bb39c	-0.7957094
101	0xbf2f5cf9	-0.6850124
102	0xbf16193d	-0.5863226
103	0xbed61925	-0.4181606
104	0xbf18827a	-0.5957409
105	0xbf0109e3	-0.5040571
106	0xbf2f8778	-0.68566084
107	0xbf18a5ec	-0.59628177
108	0xbf444a88	-0.76676226
109	0xbf0fa42d	-0.5610989
110	0xbf318d42	-0.6935617
111	0xbf3857a1	-0.7200871
112	0xbf2c10b8	-0.6721301
113	0xbf2bc3ed	-0.67095834
114	0xbf11a1d1	-0.5688754
115	0xbf2e944f	-0.6819505
116	0xbf26e870	-0.6519842
117	0xbf1a8657	-0.60361236
118	0xbef4d21e	-0.47816557
119	0xbf50ce46	-0.8156475
120	0xbf0d84fa	-0.5528103
121	0xbf300af7	-0.6876673
122	0xbf05ebc6	-0.52312887
123	0xbf585079	-0.8449779
124	0xbf1ca240	-0.61185074
125	0xbf328fac	-0.69750476
126	0xbf218cd5	-0.6310552
127	0xbf39b3b2	-0.7253982
128	0xbf30073c	-0.6876104
129	0xbf1c6fce	-0.611081
130	0xbf1b5737	-0.60679954
131	0xbf0da13d	-0.55324155
132	0xbf1780b6	-0.5918077
133	0xbf395063	-0.72388285
134	0xbf47e40a	-0.78082335
135	0xbf4f164e	-0.8089341
136	0xbf273ca9	-0.65326935
137	0xbf3276eb	-0.69712704
138	0xbf0d9ffb	-0.55322236
139	0xbf0d8fa2	-0.5529729
140	0xbf4079aa	-0.75185645
141	0xbf401e87	-0.7504658
142	0xbf3a653a	-0.7281071
143	0xbf2ac8fb	-0.6671292
144	0xbf20b0bf	-0.62769693
145	0xbf0fd77c	-0.5618818
146	0xbf0147ce	-0.5050019
147	0xbeb4ed68	-0.35337377
148	0xbf374c60	-0.71600914
149	0xbf0b245a	-0.54352343
150	0xbf22f21c	-0.6365068
151	0xbf26ea3b	-0.6520116
152	0xbf1ae87f	-0.6051101
153	0xbf305452	-0.6887866
154	0xbf105a78	-0.56388044
155	0xbf0f5aba	-0.5599781
156	0xbf2acb1c	-0.6671617
157	0xbf17d814	-0.59314084
158	0xbf362dcf	-0.7116365
159	0xbf11a63f	-0.56894296
160	0xbed44f69	-0.41466835
161	0xbf4533c4	-0.77032113
162	0xbf1e9676	-0.61948335
163	0xbf2cacc3	-0.67451113
164	0xbf1b9742	-0.60777676
165	0xbf05ebab	-0.52312726
166	0xbf19f6f5	-0.6014245
167	0xbf0a415b	-0.54005975
168	0xbf1bffe5	-0.6093734
169	0xbf1f039f	-0.621149
170	0xbf37aaae	-0.7174481
171	0xbf25081e	-0.6446551
172	0xbf41aa57	-0.7565054
173	0xbf0e27ca	-0.55529463
174	0xbf1ddb03	-0.6166231
175	0xbf1eb6a8	-0.6199746
176	0xbf3e26e1	-0.74278075
177	0xbf35e209	-0.7104803
178	0xbf089303	-0.5334932
179	0xbf29d10c	-0.66334605
180	0xbf129de4	-0.5727217
181	0xbf40e04c	-0.7534225
182	0xbf3f89b0	-0.7481947
183	0xbf2871d2	-0.65798676
184	0xbf51cbfa	-0.8195187
185	0xbef71a98	-0.48262477
186	0xbf436d2e	-0.7633847
187	0xbf043d12	-0.51655686
188	0xbf3ae13a	-0.7299992
189	0xbf348115	-0.70509464
190	0xbef655b9	-0.48112276
191	0xbf1c08c5	-0.6095088
192	0xbf3710fb	-0.71510285
193	0xbf1c958b	-0.61165684
194	0xbf0a8299	-0.54105526
195	0xbf0ac1da	-0.54202044
196	0xbf2887c5	-0.6583217
197	0xbf24a23c	-0.6431005
198	0xbf58be82	-0.8466569
199	0xbef5c75c	-0.48003662
200	0xbf22d99e	-0.6361331
201	0xbf267bd0	-0.6503267
202	0xbf3532db	-0.70780724
203	0xbf0e1785	-0.5550464
204	0xbf3348b9	-0.7003284
205	0xbf189576	-0.5960306
206	0xbf33b0c4	-0.701916
207	0xbf19e87b	-0.6012036
208	0xbf20739d	-0.6267641
209	0xbf361229	-0.7112146
210	0xbf016d20	-0.50557137
211	0xbf25ad93	-0.6471798
212	0xbe8c354b	-0.2738441
213	0xbee87fa9	-0.45409897
214	0xbf133bde	-0.57513225
215	0xbf2684c9	-0.65046364
216	0xbf26bf88	-0.65136003
217	0xbf49969b	-0.7874543
218	0xbf0bcdc5	-0.54610854
219	0xbf26f5bd	-0.65218717
220	0xbf46d615	-0.77670413
221	0xbf06e412	-0.5269176
222	0xbefb22f2	-0.490501
223	0xbf17b2c0	-0.59257126
224	0xbf263798	-0.6492858
225	0xbea214ba	-0.31656438
226	0xbf1fdba1	-0.624445
227	0xbf13407b	-0.57520264
228	0xbf253a7a	-0.64542353
229	0xbf2a52d4	-0.66532636
230	0xbf4a7a23	-0.79092616
231	0xbf0d646f	-0.55231375
232	0xbf0763b1	-0.5288649
233	0xbf08fc1a	-0.53509676
234	0xbf2899fe	-0.65859973
235	0xbf1a9093	-0.6037685
236	0xbf350301	-0.7070771
237	0xbf290758	-0.6602683
238	0xbf386414	-0.7202771
239	0xbf292467	-0.6607117
240	0xbf1af16b	-0.60524625
241	0xbf04ce7b	-0.51877564
242	0xbeeeabac	-0.4661535
243	0xbf2cfcc3	-0.67573184
244	0xbf3916c5	-0.7230037
245	0xbf24c6d3	-0.6436588
246	0xbf155ca0	-0.5834446
247	0xbf31c672	-0.6944343
248	0xbf20b787	-0.6278004
249	0xbed90cea	-0.42392665
250	0xbf2b7e11	-0.6698924
251	0xbf0874cb	-0.5330321
252	0xbec06187	-0.37574407
253	0xbf17dc67	-0.5932068
254	0xbf4622b4	-0.773967
255	0xbf33d8de	-0.7025279

encoder.linear_.bias f4 [40]
0	0xbf2e7c28	-0.681582
1	0xbf20e6d0	-0.6285219
2	0xbf1ed3d8	-0.62042
3	0xbf27b5b3	-0.65511626
4	0xbf250245	-0.6445659
5	0xbf1f6a03	-0.62271136
6	0xbf27d18c	-0.6555412
7	0xbf1ea3b0	-0.6196852
8	0xbf21d1dd	-0.6321085
9	0xbf205870	-0.62634945
10	0xbf17d1ba	-0.5930439
11	0xbf29437f	-0.66118616
12	0xbf21fd36	-0.63276994
13	0xbf24505b	-0.6418511
14	0xbf2913c4	-0.66045785
15	0xbf2535a9	-0.64535004
16	0xbf21d4ef	-0.63215536
17	0xbf2053bb	-0.6262776
18	0xbf1b844c	-0.60748744
19	0xbf1fd573	-0.6243507
20	0xbf1d7c5c	-0.6151788
21	0xbf1d3023	-0.61401576
22	0xbf1c647d	-0.6109083
23	0xbf205240	-0.62625504
24	0xbf2cf6e1	-0.6756421
25	0xbf1fbfc6	-0.62402
26	0xbf19be55	-0.6005605
27	0xbf205e37	-0.6264376
28	0xbf231312	-0.63700974
29	0xbf164be0	-0.58709526
30	0xbf2044ef	-0.62605184
31	0xbf279408	-0.6546025
32	0xbf1dfc84	-0.61713433
33	0xbf3596cf	-0.7093324
34	0xbf21cec8	-0.6320615
35	0xbf277e46	-0.6542705
36	0xbf251fa4	-0.64501405
37	0xbf1ace0e	-0.60470665
38	0xbf1ce2ff	-0.6128387
39	0xbf239090	-0.6389246
