VGDAE_tnnls/other_dataset/ARGVA/arvga_cora_bias.pth (torch, 656705 bytes, 18 tensors)

encoder.conv1.bias f4 [64]
0	0x3db32449	0.08747155
1	0x3d9d2093	0.07672229
2	0x3da3b795	0.07994
3	0xbc08b489	-0.008343824
4	0x3d96162e	0.07328449
5	0xbc2de7b7	-0.010614327
6	0xbc47bdea	-0.012191275
7	0x3dae7c05	0.085197486
8	0xbc3097f1	-0.010778413
9	0x3daac9ac	0.08339247
10	0x3db6cb46	0.0892549
11	0x3da840cd	0.08215485
12	0x3da1b5d9	0.07896013
13	0xbc2caaee	-0.0105388
14	0x3db509a4	0.088397294
15	0xbc0f7600	-0.008756161
16	0xbc43577a	-0.0119227115
17	0x3da62b99	0.08113784
18	0x3d950766	0.07276802
19	0x3dbab3e7	0.09116345
20	0x3dc2dd1c	0.095148295
21	0xbc413454	-0.011792261
22	0x3dae2c7a	0.08504577
23	0xbc087fce	-0.008331252
24	0x3dae50aa	0.08511479
25	0x3da3327d	0.07968614
26	0x3d91212b	0.070864044
27	0xbaba2806	-0.0014202602
28	0x3daebe85	0.085324325
29	0x3b06d794	0.0020575272
30	0xbc705aba	-0.014670068
31	0xbc175751	-0.009237126
32	0xbc2d1093	-0.010563034
33	0x3dc0be3f	0.094112866
34	0xbc3bc1f2	-0.011459814
35	0x3daf91a3	0.085727
36	0x3da7d771	0.08195389
37	0xbbe35b75	-0.0069383928
38	0xbbef658e	-0.0073058074
39	0x3db082db	0.08618709
40	0xbc70e6e9	-0.014703491
41	0x3d95fb2b	0.07323297
42	0x3db538f1	0.08848751
43	0x3dc19a6a	0.0945328
44	0x3da79cf1	0.08184231
45	0x3db44489	0.088021345
46	0x3db2448b	0.0870448
47	0x3d898ba0	0.067160845
48	0x3dc3efc9	0.0956722
49	0x3da70b20	0.08156419
50	0x3db09709	0.08622558
51	0x3dbdc332	0.09265746
52	0x3da41c9e	0.08013271
53	0xbc426130	-0.011863992
54	0x3da586cf	0.08082353
55	0xbc513d4b	-0.012770961
56	0x3db45623	0.08805492
57	0x3da6bb10	0.08141148
58	0xbb46559f	-0.0030263436
59	0xbc23a4ff	-0.009988069
60	0xbc272632	-0.010201978
61	0x3d9eff5b	0.07763549
62	0x3da817a2	0.082076326
63	0xbc584bb6	-0.013201645

encoder.conv1.lin.weight f4 [64, 2325]
0	0x3d889992	0.06669916
1	0x3d90b1f5	0.070651926
2	0x3da89af9	0.08232684
3	0x3d77ff5c	0.060546264
4	0x3d859e39	0.06524319
5	0x3ddc3e0b	0.10754021
6	0x3d880893	0.066422604
7	0x3e12ddca	0.14342418
8	0x3deb5dce	0.11492501
9	0x3d322466	0.043491744
10	0x3dcaa0eb	0.09893974
11	0x3dacfb38	0.08446354
12	0x3d52e7f4	0.05149074
13	0x3d926552	0.071482316
14	0x3d77b07c	0.060471043
15	0x3d6dd5d3	0.058065247
16	0x3e06c2e1	0.13160278
17	0x3d861454	0.06546846
18	0x3de46d98	0.11153716
19	0x3dcf4e9c	0.101224154
20	0x3e000f1b	0.12505762
21	0x3defeea1	0.11715437
22	0x3da8fa2e	0.08250843
23	0x3d9f0ec3	0.077664874
24	0x3de62923	0.11238315
25	0x3db90bf3	0.09035482
26	0x3db07363	0.08615758
27	0x3d573364	0.052539244
28	0x3e004841	0.12527563
29	0x3dc0b3b0	0.09409273
30	0x3dd5593a	0.10417409
31	0x3d2ddbf4	0.04244609
32	0x3d64770d	0.0557776
33	0x3dcee09f	0.10101437
34	0x3d906dd0	0.07052195
35	0x3def7446	0.11692099
36	0x3d52e96e	0.051492147
37	0x3db59883	0.0886698
38	0x3dd6c07b	0.104859315
39	0x3d58f5c3	0.05296875
40	0x3d932f12	0.07186712
41	0x3de1220f	0.10992824
42	0x3dc0bed9	0.09411401
43	0x3dd828ea	0.10554679
44	0x3d3a7ef5	0.045531232
45	0x3d4f77a8	0.050651222
46	0x3e02d0cd	0.12774964
47	0x3df7c0b2	0.120973006
48	0x3dcd44f1	0.10022915
49	0x3d78c08a	0.060730495
50	0x3dc6b90e	0.09703265
51	0x3d52bc55	0.05144914
52	0x3df40b05	0.11916164
53	0x3d79d871	0.06099743
54	0x3deddae6	0.11614017
55	0x3db46e35	0.08810083
56	0x3dc5424f	0.09631788
57	0x3d9d8c97	0.07692831
58	0x3db4b717	0.08823984
59	0x3da017f3	0.07817068
60	0x3d95cc57	0.07314365
61	0x3de02ead	0.10946403
62	0x3d5f3274	0.054491475
63	0x3db1a851	0.08674682
64	0x3dc5ddab	0.096614204
65	0x3d8821c7	0.066470675
66	0x3df23f72	0.118285075
67	0x3da02039	0.07818646
68	0x3d844b5e	0.06459688
69	0x3dfa377a	0.122176126
70	0x3d8914db	0.06693431
71	0x3dda8863	0.10670545
72	0x3dfb0f61	0.12258793
73	0x3d943214	0.07236114
74	0x3d73ab90	0.059489787
75	0x3d48fc0a	0.04906849
76	0x3d95870c	0.07301149
77	0x3da3f43e	0.0800557
78	0x3e11c976	0.14237007
79	0x3d5e4ff2	0.05427546
80	0x3d910648	0.07081276
81	0x3d9d87c2	0.076919094
82	0x3da73360	0.08164096
83	0x3df6064d	0.120129205
84	0x3de5a502	0.11213113
85	0x3ddcb21f	0.107761614
86	0x3dc32bbe	0.095298275
87	0x3de5fc64	0.1122978
88	0x3d7e1481	0.062031273
89	0x3d9ba94e	0.07600652
90	0x3da1eede	0.079068884
91	0x3dffc384	0.124884635
92	0x3d3a0474	0.045414403
93	0x3d37c7ff	0.044868466
94	0x3d926d8a	0.07149799
95	0x3d87abdc	0.066245764
96	0x3dbc52cf	0.09195482
97	0x3d2a677d	0.0416026
98	0x3dd29cac	0.10283789
99	0x3d8e09ef	0.069354884
100	0x3d4c69d8	0.049905628
101	0x3dbe282c	0.09285006
102	0x3d956e8f	0.07296478
103	0x3dbf21df	0.09332632
104	0x3d887963	0.06663778
105	0x3dfe26d6	0.12409751
106	0x3dbf371a	0.09336682
107	0x3dd13d95	0.10216824
108	0x3de21ca9	0.11040623
109	0x3d850807	0.06495672
110	0x3ddb50e3	0.10708787
111	0x3d83aa25	0.06428937
112	0x3d2bd956	0.041955315
113	0x3d70508a	0.058670558
114	0x3d60d285	0.054888267
115	0x3e068110	0.13135171
116	0x3e066263	0.13123469
117	0x3dad0445	0.0844808
118	0x3d3efcee	0.04662793
119	0x3dc30adf	0.09523558
120	0x3deeff63	0.11669805
121	0x3cec9d8c	0.028883718
122	0x3dc77f01	0.09741021
123	0x3d918ff8	0.07107538
124	0x3da06936	0.078325674
125	0x3d9815ec	0.07426056
126	0x3d48159b	0.04884873
127	0x3d91e735	0.07124177
128	0x3e0c32c0	0.13691235
129	0x3da4bddb	0.080440246
130	0x3d947b73	0.072501086
131	0x3de9bfb3	0.11413517
132	0x3d38df69	0.045134936
133	0x3dd34fa6	0.10317926
134	0x3d9f4a7f	0.07777881
135	0x3ddfabf6	0.10921471
136	0x3deca4a4	0.1155484
137	0x3da61de1	0.08111168
138	0x3d723182	0.059129246
139	0x3daef0c4	0.08542016
140	0x3d9bfc4f	0.076164834
141	0x3dd31ec6	0.10308604
142	0x3df21e76	0.11822216
143	0x3dd90519	0.105966754
144	0x3d93564c	0.07194194
145	0x3d8b2c87	0.06795602
146	0x3dd8df3f	0.10589456
147	0x3cc91e3b	0.024550548
148	0x3e0f5b83	0.13999753
149	0x3d9a53bd	0.07535503
150	0x3d4e7d00	0.050412178
151	0x3db641fc	0.08899304
152	0x3d5047db	0.050849777
153	0x3d85b8ed	0.065294124
154	0x3d04d55d	0.03243004
155	0x3dc4a549	0.09601838
156	0x3e0f465c	0.13991684
157	0x3de149a4	0.11000374
158	0x3ddf47ef	0.10902392
159	0x3dc24320	0.09485459
160	0x3d26ee70	0.040754735
161	0x3dedb79c	0.11607286
162	0x3d47baba	0.04876206
163	0x3e101ac7	0.14072715
164	0x3ded8a29	0.115986176
165	0x3dc3894a	0.0954767
166	0x3d156dcd	0.036481667
167	0x3da449e4	0.08021906
168	0x3d55a2ff	0.0521574
169	0x3d927c06	0.07152562
170	0x3e002af9	0.12516393
171	0x3de2bbb2	0.11070956
172	0x3d2ea494	0.042637423
173	0x3da809a3	0.08204963
174	0x3d4027d0	0.04691297
175	0x3da07b68	0.07836038
176	0x3d6dd818	0.05806741
177	0x3d4df3d1	0.05028135
178	0x3daa3c32	0.083122626
179	0x3d9ce981	0.07661725
180	0x3e03142a	0.1280066
181	0x3d47b56f	0.048757013
182	0x3d9d77c7	0.07688861
183	0x3db668c1	0.08906699
184	0x3d7dafed	0.061935354
185	0x3dc4be51	0.096066125
186	0x3dc37a75	0.09544841
187	0x3d82cf7f	0.06387233
188	0x3dc4e051	0.096130975
189	0x3d5407d1	0.051765267
190	0x3d95a4a8	0.07306796
191	0x3dd86b4d	0.10567341
192	0x3d7a7f96	0.06115683
193	0x3d13c77d	0.03607892
194	0x3d9b045d	0.075691916
195	0x3e015585	0.1263028
196	0x3dc3a506	0.0955296
197	0x3d9119d0	0.070850015
198	0x3d5cc844	0.053901926
199	0x3de36a0b	0.111042105
200	0x3db7c1c8	0.08972508
201	0x3d1faa6a	0.03898088
202	0x3db69af2	0.08916272
203	0x3dc87dc5	0.09789614
204	0x3e029099	0.12750472
205	0x3dfe1c85	0.124077834
206	0x3d832495	0.06403462
207	0x3d19f265	0.03758468
208	0x3dba146e	0.09085928
209	0x3dedba6e	0.11607824
210	0x3dd5cf65	0.10439948
211	0x3dfdf768	0.124007046
212	0x3d2a13d9	0.041522834
213	0x3d8bb21a	0.068210796
214	0x3df25f9b	0.118346415
215	0x3e022390	0.12708879
216	0x3de4a948	0.111651
217	0x3e02e899	0.12784041
218	0x3d35ffd5	0.044433434
219	0x3d585fea	0.052825846
220	0x3d8f14ef	0.06986415
221	0x3dd8f978	0.105944574
222	0x3d4b1ff8	0.049591035
223	0x3d73c9da	0.059518673
224	0x3dc7fdd7	0.09765213
225	0x3dae8dd7	0.085231476
226	0x3de2dc32	0.11077155
227	0x3dc1a44c	0.09455165
228	0x3db12448	0.08649498
229	0x3dc081e3	0.09399774
230	0x3d9dd910	0.07707417
231	0x3d8a3d6e	0.06749998
232	0x3e0577ed	0.1303403
233	0x3d57b166	0.052659415
234	0x3d90f1d8	0.07077378
235	0x3c082d12	0.008311527
236	0x3e02369f	0.12716149
237	0x3df2c38e	0.11853705
238	0x3e00bba6	0.12571582
239	0x3db6551b	0.08902951
240	0x3d8e6b2e	0.06954037
241	0x3dc50e9b	0.096219264
242	0x3dc9b97d	0.09849832
243	0x3d73e896	0.059547983
244	0x3e0b5e26	0.13610134
245	0x3d9bbab5	0.07603971
246	0x3dc17899	0.0944683
247	0x3d6be4b2	0.057591148
248	0x3dc6fa59	0.09715719
249	0x3e0b160d	0.1358263
250	0x3d44381c	0.047905073
251	0x3dcfd384	0.10147765
252	0x3daabb3d	0.08336494
253	0x3dfd09ad	0.12355361
254	0x3dea1e8a	0.11431606
255	0x3d7a97be	0.06117987

encoder.conv_mu.bias f4 [32]
0	0xbc5d25c7	-0.013497776
1	0x3ab18600	0.0013543963
2	0xbca9590e	-0.020672347
3	0xbc7dcd97	-0.015490911
4	0xbc387bd9	-0.011259996
5	0x3c7d889a	0.015474463
6	0xbbcf5414	-0.0063271616
7	0x3b50e526	0.0031874864
8	0xbc05efd0	-0.008174852
9	0xbbb5c2e7	-0.005546916
10	0x3c02e02d	0.007988018
11	0x3ca0c959	0.01962726
12	0xbbc54d97	-0.0060212123
13	0x3bf878e7	0.007582772
14	0x3b59df9f	0.003324486
15	0xbb0cb3d1	-0.0021469484
16	0x3aa04e52	0.0012230373
17	0xbc6446b6	-0.013932874
18	0x3b48f67a	0.003066449
19	0x3c37b60c	0.011212837
20	0x3b76d8d5	0.0037665863
21	0xbc2daa77	-0.010599724
22	0x3cdd75cd	0.02703371
23	0x3a02d7fc	0.00049912906
24	0xbcc84a4a	-0.024449486
25	0x3bc82153	0.006107488
26	0x3cefb3e1	0.029260578
27	0xbcc40dfb	-0.023932448
28	0x3cbec9e7	0.023289634
29	0xba63204d	-0.0008664176
30	0x3cdf5682	0.02726293
31	0xbc695168	-0.0142406

encoder.conv_mu.lin.weight f4 [32, 64]
0	0x3db65fef	0.08905017
1	0x3dff0eea	0.124540165
2	0x3e31589d	0.1731896
3	0xbd156959	-0.03647742
4	0xbdede47e	-0.11615847
5	0x3d6a5636	0.057211123
6	0x3e56ceb3	0.20977287
7	0xbe5ef508	-0.2177316
8	0xbd10bfdf	-0.035339233
9	0xbe2c9d4d	-0.1685688
10	0x3d4cd5e4	0.05000867
11	0x3de0eba5	0.109824456
12	0xbe703721	-0.2345853
13	0xbe3fe066	-0.18737945
14	0xbe1e8f90	-0.15484452
15	0x3e477534	0.19478303
16	0x3d7b259c	0.061315164
17	0xbe21fc70	-0.15818954
18	0xbe3533de	-0.17695567
19	0xbd5cc599	-0.05389938
20	0x3bbcfc24	0.005767362
21	0x3dcde139	0.100527234
22	0xbde8ad6c	-0.113612026
23	0x3d62ca43	0.055368673
24	0x3e096ae5	0.13419683
25	0xbcfe2e96	-0.031028073
26	0x3e67601e	0.2259526
27	0xbce6f82d	-0.028194511
28	0x3cf946d9	0.03042929
29	0xbd9b3de3	-0.07580163
30	0x3d8a9af2	0.06767835
31	0xbdbf1488	-0.09330088
32	0x3c065170	0.008198127
33	0xbe12f8a9	-0.14352669
34	0x3d4a2d17	0.049359407
35	0xbca87e40	-0.020568013
36	0x3c8f84e9	0.017519431
37	0xbdaf637c	-0.08563897
38	0x3d841241	0.06448794
39	0xbc769d7a	-0.015052194
40	0x3e142709	0.14468016
41	0xbd9d7404	-0.07688144
42	0x3d7a887d	0.06116532
43	0xbe18986b	-0.14901893
44	0xbd0e26e3	-0.034705054
45	0x3e394236	0.18091664
46	0x3e4ab68e	0.19796202
47	0xbc8705bc	-0.016482227
48	0x3e1dd981	0.15415002
49	0xbe143c5b	-0.14476149
50	0xbe25365e	-0.1613402
51	0x3d942bb1	0.07234896
52	0x3e13e6a6	0.14443454
53	0x3dc74b55	0.09731165
54	0xbb80220e	-0.0039103096
55	0xbe241dc5	-0.16026981
56	0x3df45d3e	0.11931847
57	0x3e3eaabc	0.18619817
58	0xbd35ebf3	-0.04441447
59	0xbd5028ac	-0.050820038
60	0xbe4de680	-0.2010746
61	0xbda28d00	-0.0793705
62	0x3e596d18	0.21233022
63	0xbdb5b397	-0.08872145
64	0x3e46342a	0.19355837
65	0xbe5ce9d9	-0.21573581
66	0xbd414031	-0.04718036
67	0x3e17c326	0.14820537
68	0xbe4a59ed	-0.19760866
69	0x3d8165d4	0.0631825
70	0xbe24563c	-0.16048521
71	0x3da618c9	0.08110196
72	0x3abcff1e	0.0014419293
73	0x3e03e868	0.12881625
74	0xbe2f291c	-0.17105526
75	0x3e7f1c16	0.24913058
76	0xbddce946	-0.10786681
77	0xbe583ab8	-0.2111615
78	0x3e81be49	0.2534049
79	0xbe32794c	-0.17429084
80	0xbdd8c267	-0.10583954
81	0xbd5f2930	-0.05448264
82	0xbe3faab4	-0.18717462
83	0xbe3346ae	-0.17507431
84	0xbe46fa31	-0.19431378
85	0x3c519211	0.012791173
86	0x3dcdd58e	0.10050498
87	0xbe732157	-0.23743187
88	0x3e44e6b3	0.1922863
89	0x3e1b2c35	0.15153582
90	0xbd273c31	-0.040828887
91	0x3e83e70c	0.25762212
92	0x3d85b1e6	0.06528072
93	0xbe4d8c2a	-0.20073
94	0xbe09bba8	-0.13450491
95	0x3e0a42fd	0.13502117
96	0xbe42310a	-0.1896402
97	0xbc7d1e14	-0.015449066
98	0x3e3780a1	0.17920162
99	0x3bdf8832	0.0068216557
100	0xbc9b9a6e	-0.018994536
101	0xbdd06b6f	-0.10176741
102	0xbe2538db	-0.1613497
103	0x3e0e7bbd	0.1391439
104	0xbde054b4	-0.10953656
105	0xbe06c867	-0.13162385
106	0x3e6213f8	0.2207793
107	0x3e3aabec	0.18229645
108	0x3db9a950	0.09065497
109	0xbe619e60	-0.22033072
110	0xbe657c5e	-0.22410724
111	0x3e478287	0.19483386
112	0x3d949532	0.07255019
113	0xbd86977e	-0.065718636
114	0x3df98250	0.12183058
115	0xbe55ec73	-0.2089098
116	0x3c939ab0	0.018018097
117	0xbdde8dcf	-0.108668916
118	0x3d7f8574	0.06238313
119	0x3e73673f	0.23769854
120	0x3d8dd38f	0.06925117
121	0xbe64038f	-0.22266982
122	0xbe684ce9	-0.22685589
123	0xbd96ba61	-0.07359768
124	0x3e253dcd	0.16136856
125	0x3deae21e	0.1146891
126	0xbe219a53	-0.15781526
127	0x3e24e4e9	0.16102947
128	0x3e298600	0.16555023
129	0xbe82fd12	-0.25583702
130	0xbe1f2f35	-0.15545352
131	0x3e0d6e5d	0.13811632
132	0xbc1f8522	-0.009736331
133	0x3db81b2a	0.08989556
134	0xbcb5e3a0	-0.022203267
135	0xbe3ca57c	-0.18422502
136	0xbe4342d4	-0.19068462
137	0x3e249f48	0.16076386
138	0xbd7f8729	-0.06238476
139	0x3e0fbbcd	0.14036484
140	0x3be502b0	0.0069888458
141	0xbd1e9fd2	-0.038726635
142	0x3dad2b2c	0.084555
143	0x3defe3e7	0.11713391
144	0x3cc55d85	0.024092445
145	0x3cd8d2e2	0.026467744
146	0x3dfc9a66	0.12334137
147	0x3e108306	0.14112481
148	0xbe60accf	-0.21940921
149	0xbe6aadea	-0.22917905
150	0x3e56d898	0.20981061
151	0x3bdf35b4	0.006811822
152	0xbe901b50	-0.28145838
153	0x3d9b68df	0.07588362
154	0x3e22b19e	0.15888068
155	0x3d52c528	0.051457554
156	0x3e467a80	0.19382668
157	0x3e263fa9	0.16235222
158	0xbe494f37	-0.19659124
159	0xbd3bdfd6	-0.045867763
160	0x3e4447b1	0.19167973
161	0x3dbfffbf	0.093749516
162	0xbe58f310	-0.21186471
163	0xbe33f319	-0.17573203
164	0x3e26a789	0.16274847
165	0x3e435efb	0.19079201
166	0xbe0f22ad	-0.13978072
167	0xbdc0f865	-0.094223775
168	0xbe68765f	-0.22701405
169	0xbe873b87	-0.26412603
170	0xbde107ae	-0.10987793
171	0xbe0e5529	-0.13899674
172	0xbe32a831	-0.17446972
173	0xbd7535ef	-0.05986589
174	0xbcb0c9dc	-0.021580629
175	0x3ddec117	0.10876673
176	0x3e0bfe11	0.13671137
177	0xbe757d49	-0.23973574
178	0xbda7b937	-0.08189624
179	0xbe48a089	-0.1959249
180	0x3dab5b56	0.0836703
181	0x3c8e1427	0.017343594
182	0xbe4a2486	-0.19740495
183	0x3d809915	0.06279198
184	0x3dc50d27	0.09621649
185	0x3e492689	0.19643606
186	0x3dbdcc4f	0.092674844
187	0xbd615c7a	-0.055019833
188	0xbe1b5c6c	-0.15171975
189	0xbe751988	-0.2393552
190	0x3e2c31d6	0.16815886
191	0x3e688f48	0.22710907
192	0x3e2973f9	0.16548146
193	0x3c0757a3	0.00826064
194	0xbde9018a	-0.11377247
195	0x3d00e778	0.031470746
196	0xbe84bef5	-0.2592694
197	0xbc9ad5bc	-0.018900745
198	0x3e5608ce	0.20901796
199	0x3d9ba45f	0.07599711
200	0x3e585b5b	0.211286
201	0xbccbc12f	-0.02487239
202	0xbcf56e7f	-0.029959915
203	0xbc3b98ed	-0.011450035
204	0x3d1e4c73	0.038647126
205	0x3ded2209	0.11578757
206	0x3e4b9e30	0.19884562
207	0xbe0c57ae	-0.13705322
208	0xbd86a6d8	-0.06574792
209	0xbe47913a	-0.19488993
210	0xbc9c6707	-0.019092096
211	0xbe50e6e4	-0.20400578
212	0x3cbda5e3	0.02315039
213	0x3d7557dd	0.059898246
214	0xbe2c0754	-0.1679967
215	0x3d5b9f0d	0.05361848
216	0xbe3d3fcc	-0.18481368
217	0x3e43ad63	0.1910911
218	0x3df010b9	0.117219396
219	0xbdd9cf33	-0.10635223
220	0x3de55f16	0.11199777
221	0xbe0ced79	-0.13762464
222	0x3e79ded5	0.2440141
223	0x3bca6d04	0.0061775465
224	0xbe1996f8	-0.14998996
225	0x3ca762e6	0.0204329
226	0xbd858508	-0.06519514
227	0x3c950cec	0.018194638
228	0xbd816722	-0.06318499
229	0xbdb7e19a	-0.08978577
230	0x3e675e5f	0.22594593
231	0xbd8e76f8	-0.06956285
232	0xbe541a58	-0.20713174
233	0x3e44a096	0.19201884
234	0xbe3906cb	-0.18068998
235	0xbe7df299	-0.24799575
236	0x3cc8abea	0.024496038
237	0xbe12fbb1	-0.14353825
238	0xbe47062a	-0.19435945
239	0xbe8d998e	-0.27656215
240	0x3dad101c	0.08450338
241	0x3e48a30e	0.1959345
242	0x3b6ff564	0.003661477
243	0x3e38721d	0.18012281
244	0x3e2df75b	0.1698889
245	0x3e643f86	0.22289857
246	0x3e564132	0.20923308
247	0x3e7e93db	0.2486109
248	0x3db2bb31	0.0872711
249	0xbe82a2c4	-0.25514805
250	0xbe79b296	-0.24384531
251	0x3e72fcc9	0.23729242
252	0xbe03cb00	-0.12870407
253	0xbe779956	-0.24179587
254	0xbe0e0f69	-0.13873066
255	0xbe3cdf73	-0.18444614

encoder.conv_logstd.bias f4 [32]
0	0xbd6a9af5	-0.057276685
1	0xbda0d152	-0.07852425
2	0xbd8854f8	-0.066568315
3	0xbd4ab0ba	-0.049484946
4	0xbd91be61	-0.0711639
5	0xbd9fa4b6	-0.07795088
6	0xbd7c12a4	-0.061541215
7	0xbd8dec4b	-0.06929835
8	0xbd84a1a1	-0.06476141
9	0xbd4fea94	-0.05076082
10	0xbd84fa9f	-0.06493115
11	0xbd6cd19d	-0.05781709
12	0xbda76621	-0.081737764
13	0xbd4d7c6f	-0.050167497
14	0xbd9412fd	-0.07230184
15	0xbdaff6e8	-0.085920155
16	0xbd9599f1	-0.073047526
17	0xbd9d1548	-0.07670075
18	0xbd80c33d	-0.06287239
19	0xbd832f5e	-0.06405519
20	0xbd713d86	-0.058896564
21	0xbd864791	-0.06556619
22	0xbd44d925	-0.048058648
23	0xbd921012	-0.071319714
24	0xbd5e0108	-0.054200202
25	0xbd8e4c98	-0.06948203
26	0xbd775d6b	-0.060391825
27	0xbd99754e	-0.07493077
28	0xbd5df792	-0.05419118
29	0xbd6eb7f0	-0.058280885
30	0xbd869ef3	-0.06573286
31	0xbd8e49ac	-0.069476455

encoder.conv_logstd.lin.weight f4 [32, 64]
0	0x3e127ea4	0.14306122
1	0xbe4f5dcd	-0.20250626
2	0xbddac396	-0.10681836
3	0x3d8f7d17	0.07006281
4	0xbe86c210	-0.26319933
5	0xbdb798d3	-0.08964696
6	0xb9b12e88	-0.0003379474
7	0xbdf14050	-0.11779845
8	0x3e1ed879	0.15512265
9	0xbdd1c21d	-0.10242102
10	0x3d2b9b92	0.04189641
11	0xbe4842a8	-0.19556677
12	0x3ca18885	0.019718418
13	0xbcda565f	-0.026652513
14	0xbeab7286	-0.33485812
15	0x3d76cd4a	0.060254373
16	0xbdd3474a	-0.10316332
17	0xbe74e592	-0.23915699
18	0xbe4029c5	-0.18765934
19	0xbe0c05fc	-0.13674158
20	0xbd8857d8	-0.0665738
21	0x3e4a3857	0.19748054
22	0xbe7b9a49	-0.24570574
23	0xbb002e17	-0.0019558722
24	0xbd68b163	-0.056809794
25	0xbe79372a	-0.2433745
26	0xbe8bd67f	-0.27312085
27	0xbe12c5ba	-0.14333239
28	0xbe6b5714	-0.22982436
29	0xbe3a4a56	-0.1819242
30	0x3d4f695b	0.050637584
31	0xbe7766dd	-0.24160333
32	0x3dccedd7	0.10006302
33	0xbc55002d	-0.01300053
34	0x3e3b63d8	0.18299806
35	0xbc2ee7cf	-0.010675385
36	0xbdc00aff	-0.09377097
37	0xbd93fdad	-0.07226119
38	0xbde7bee5	-0.11315707
39	0x3d8f4df6	0.06997292
40	0x3e6325ba	0.2218236
41	0xbe703f8d	-0.23461743
42	0xbdbfc884	-0.09364417
43	0xbe06c5f1	-0.13161446
44	0xbe32beb4	-0.1745556
45	0xbd17a23e	-0.03701996
46	0x3c75a529	0.0149929905
47	0xbd589fb1	-0.05288667
48	0xbd83fcc9	-0.06444699
49	0x3d2511df	0.040300246
50	0xbc734f77	-0.014850489
51	0x3df2d4f0	0.11857021
52	0xbe7fc748	-0.24978364
53	0x3dfe9693	0.124310635
54	0xbe783219	-0.2423786
55	0x3db4a6a5	0.088208474
56	0xbe7ad356	-0.24494681
57	0xbe87d695	-0.265309
58	0x3e5f1533	0.2178543
59	0x3d997614	0.07493225
60	0xbe03515c	-0.12824005
61	0xbea8f21f	-0.32997224
62	0xbd9ab3b2	-0.075538054
63	0x3e6dd753	0.23226671
64	0x3db9c979	0.09071631
65	0xbd90e90b	-0.070756994
66	0xbba6274c	-0.0050706025
67	0xbd5cd034	-0.053909495
68	0x3e021b6c	0.12705773
69	0x3e1424d5	0.14467175
70	0x3d4852c3	0.048907053
71	0x3daa5691	0.083172925
72	0x3e622c64	0.22087246
73	0xbda44cea	-0.08022483
74	0xbeb3cc72	-0.35116917
75	0xbe115482	-0.14192393
76	0xbe9ff428	-0.31240964
77	0xbc960bad	-0.018316114
78	0xbce14b2a	-0.027501661
79	0x3e4ff8f5	0.20309813
80	0x3d5e722a	0.054308094
81	0xbea1a2d7	-0.3156955
82	0xbe3b01e3	-0.18262438
83	0x3d38f804	0.0451584
84	0x3be85c34	0.0070910696
85	0x3e083afa	0.13303748
86	0xbe9c1da5	-0.30491367
87	0xbe57d376	-0.2107676
88	0xbd85f18f	-0.06540214
89	0x3db74a96	0.08949773
90	0xbe79b9bc	-0.24387258
91	0xbe184fc2	-0.14874175
92	0xbe59c242	-0.2126551
93	0xbd4a5372	-0.049395986
94	0x3e12e2d4	0.1434434
95	0x3e241aa1	0.16025783
96	0xbd750e64	-0.059828177
97	0xbe97e806	-0.29669207
98	0x3d5bbaae	0.05364483
99	0xbe95adce	-0.29234165
100	0x3d407c31	0.04699344
101	0xbc458d5c	-0.0120576285
102	0x3e09708e	0.13421842
103	0x3d70b0b7	0.05876228
104	0x3e2c0781	0.16799738
105	0x3cf6c851	0.030124815
106	0x3ce00391	0.02734545
107	0x3d0e349c	0.03471814
108	0x3d87326f	0.06601416
109	0xbe22252c	-0.15834492
110	0xbd0e2d3d	-0.03471111
111	0xbe142206	-0.14466104
112	0xbe7c2a37	-0.24625479
113	0x3ddd2735	0.10798494
114	0xbe8355c7	-0.2565138
115	0xbe72f895	-0.23727639
116	0xbdd3301e	-0.10311912
117	0x3e55a8c0	0.20865154
118	0xbe51f032	-0.20501783
119	0x3e1d126b	0.15339057
120	0xbdd4d3b7	-0.10391944
121	0xbe00607b	-0.12536804
122	0xbe02e624	-0.12783104
123	0x3d60f501	0.054921154
124	0x3e6b6597	0.22987972
125	0x3d551c41	0.0520289
126	0xbdf1d0f4	-0.11807433
127	0xba96c4e7	-0.0011502773
128	0xbe464d9c	-0.19365543
129	0xbe0bce5b	-0.13652937
130	0xbe882a11	-0.26594594
131	0x3ba9e246	0.0051844446
132	0xbea07684	-0.3134042
133	0xbe01d3f3	-0.12678508
134	0xbe2a8475	-0.16652091
135	0xbde8ad0b	-0.1136113
136	0xbe5d448f	-0.21608184
137	0xbe8738e7	-0.264106
138	0xbe3c0c38	-0.18364036
139	0xbc13d6dc	-0.009023394
140	0xbe9b5d08	-0.30344415
141	0xbe2973b4	-0.16548043
142	0xbdb13e63	-0.086544774
143	0xbd9280ee	-0.07153498
144	0x3d97ac82	0.0740595
145	0xbe180262	-0.14844659
146	0xbe959475	-0.29214826
147	0xbe68e270	-0.22742629
148	0x3d8565a1	0.06513525
149	0xbd04899e	-0.032357804
150	0x3cb67cef	0.02227637
151	0xbe4afd45	-0.19823177
152	0xbe133177	-0.14374338
153	0x3d6ab070	0.05729717
154	0xbdc44257	-0.09582966
155	0xbd957769	-0.07298166
156	0xbe054df8	-0.13018024
157	0xbdfee159	-0.124453254
158	0xbe7246db	-0.23659842
159	0x3dc4d257	0.09610432
160	0xbe363542	-0.17793754
161	0xbdbc061f	-0.09180855
162	0x3d98d3e5	0.07462291
163	0x3df6d81c	0.12052938
164	0xbdccea63	-0.10005643
165	0x3e5a55af	0.21321748
166	0xbccc559c	-0.024943165
167	0xbe2a378c	-0.16622752
168	0x3e455dd2	0.19274071
169	0xbe15cae5	-0.1462818
170	0x3d8b3627	0.06797438
171	0xbe3a8fc4	-0.18218905
172	0xbe0d26d7	-0.13784347
173	0xbea7944b	-0.32730326
174	0x3dade2b8	0.08490509
175	0xbe0311cd	-0.12799759
176	0xbe8ee00c	-0.2790531
177	0x3e16e3eb	0.14735381
178	0xbe16163d	-0.1465692
179	0x3d208001	0.039184574
180	0xbe20d364	-0.15705639
181	0x3e287b6c	0.16453332
182	0xbd5c9909	-0.053856883
183	0x3bb40598	0.005493831
184	0xbe3d564d	-0.18489952
185	0x3d967cb5	0.07348005
186	0xbe4da8f1	-0.20083977
187	0xbe3f336e	-0.18671963
188	0x3cd21f6d	0.02564975
189	0xbeadf562	-0.33976275
190	0xbe406eae	-0.18792221
191	0x3e294d1f	0.16533326
192	0x3d894a90	0.06703675
193	0xbe6e95ea	-0.23299375
194	0xbe272fb4	-0.16326791
195	0xbe56c80a	-0.20974746
196	0x3ccc6091	0.02494839
197	0xbe301574	-0.17195684
198	0x3d7a1658	0.061056465
199	0xbea4aa10	-0.32160997
200	0xbc6662bc	-0.014061626
201	0xbb7ae190	-0.0038281418
202	0xbe95ff4b	-0.29296336
203	0xbe7cbbec	-0.24681062
204	0xbea38b22	-0.31942087
205	0x3c6cbddc	0.014449563
206	0xbd3c5f26	-0.045989178
207	0x3cbb608f	0.022873191
208	0x3d52ee8a	0.05149702
209	0xbe77d108	-0.24200833
210	0x3e077123	0.13226752
211	0xbdd338f6	-0.10313599
212	0x3d92ad79	0.071619935
213	0xbcabb7bf	-0.02096164
214	0x3dab596a	0.08366664
215	0xbe0db2b9	-0.13837709
216	0xbea2ff27	-0.3183529
217	0xbe9abefe	-0.3022384
218	0xbdd583c1	-0.10425521
219	0x3da856c3	0.082196735
220	0x3e11a5c8	0.14223397
221	0x3e02de4a	0.12780109
222	0xbda48f28	-0.080351174
223	0xbe3c3b02	-0.18381885
224	0xbe34ed34	-0.17668611
225	0x3dc886b5	0.09791318
226	0xbe071fe1	-0.13195755
227	0xbd9294ff	-0.07157325
228	0xbe9ae087	-0.30249426
229	0x3cdc0ffb	0.026863089
230	0xbd5176d9	-0.051138733
231	0xbe78782e	-0.24264595
232	0x3e2a5a99	0.16636123
233	0xbe8f3250	-0.27968073
234	0xbe23b96c	-0.15988702
235	0xbd37ef86	-0.04490616
236	0x3c744a1c	0.014910247
237	0x3d1003c4	0.03515984
238	0xbe32c5e1	-0.17458297
239	0x3e2d11cd	0.16901322
240	0xbd9a376b	-0.075301014
241	0xbe899717	-0.26873085
242	0xbdfa36ed	-0.122175075
243	0x3d0d70a1	0.03453124
244	0xbea31905	-0.31855026
245	0xbd4e5a4d	-0.050379086
246	0xbe8e409d	-0.2778367
247	0xbcf79a07	-0.030224813
248	0xbe8cbf95	-0.27489915
249	0xbe0832ef	-0.1330068
250	0xbe47cbea	-0.19511381
251	0xbe5e3b83	-0.2170239
252	0xbe4bc8a2	-0.19900754
253	0x3e2590b6	0.16168484
254	0xbe9c2fdb	-0.3050526
255	0x3d00b6de	0.031424396

discriminator.lin1.weight f4 [16, 32]
0	0x3e6bcb1a	0.23026696
1	0xbd88eb94	-0.06685558
2	0xbde09345	-0.109655894
3	0x3bdd0efa	0.00674617
4	0xbe129118	-0.14313161
5	0x3d81b49a	0.06333275
6	0xbdedce6f	-0.1161164
7	0xbddf40aa	-0.109010056
8	0xbe8290a3	-0.25500974
9	0x3deb8b47	0.115011744
10	0xbe0df706	-0.13863763
11	0xbe1227c2	-0.14272979
12	0xbce68f61	-0.02814454
13	0x3d8408ae	0.06446968
14	0x3dd0c432	0.10193671
15	0xbcbda839	-0.023151504
16	0x3d6a9c5a	0.057278015
17	0xbdb0dac2	-0.08635475
18	0xbea5ff48	-0.32421327
19	0x3e0c3e08	0.13695538
20	0xbeb3cd23	-0.35117444
21	0xbe32d0f2	-0.17462519
22	0x3e9ae788	0.3025477
23	0x3db34ab9	0.087544866
24	0xbe608568	-0.2192589
25	0xbbdaeba7	-0.006680924
26	0x3d94f9d6	0.07274215
27	0xbdd98570	-0.10621154
28	0xbe9b0cc4	-0.30283177
29	0xbe5dd0eb	-0.21661727
30	0xbdc2d930	-0.095140815
31	0xbdfc7c1f	-0.12328362
32	0x3e16326a	0.14667669
33	0x3d5fd257	0.054643955
34	0xbd1f8f2b	-0.038954895
35	0x3e4757f2	0.19467142
36	0x3dd86d4f	0.10567724
37	0x3d890e5a	0.066921905
38	0xbe073494	-0.1320365
39	0x3dd820f5	0.10553161
40	0x3de405f6	0.111339495
41	0xbe9e7bbb	-0.30953774
42	0x3d48f542	0.04906202
43	0xbe8dc475	-0.27688947
44	0x3c644049	0.013931342
45	0xbd2f9ad6	-0.042872272
46	0xbdd2ef8b	-0.102995954
47	0xbbed3491	-0.0072389324
48	0xbd98fd14	-0.07470146
49	0x3c4338e2	0.011915417
50	0x3aea19e7	0.0017860503
51	0xbe034c58	-0.12822092
52	0x3dab4ded	0.083644725
53	0x3d6b2ef2	0.057417817
54	0xbe70df8b	-0.23522775
55	0x3d557175	0.052110154
56	0xbddd087b	-0.10792633
57	0xbc9d5716	-0.019206565
58	0x3d34f005	0.044174213
59	0xbcd449dc	-0.025914125
60	0x3e0dc729	0.13845505
61	0xbe52fc57	-0.20604073
62	0xbc7efb80	-0.015562892
63	0xbe00d89b	-0.12582628
64	0x3e1d80a6	0.15381107
65	0xbd0c6244	-0.0342734
66	0xbdefaf6e	-0.117033824
67	0xbd92129c	-0.07132456
68	0x3dacda13	0.08440032
69	0xbd170791	-0.03687245
70	0xbe00b75b	-0.12569945
71	0xbe08a5d5	-0.1334451
72	0xbd9bc759	-0.07606382
73	0x3e9f4d86	0.31113833
74	0x3e499be9	0.19688381
75	0x3ed22e2e	0.41050857
76	0xbce1cccc	-0.027563475
77	0x3e98e3ac	0.298612
78	0xbd9cb048	-0.076508105
79	0x3ca9babc	0.020718925
80	0x3d55212a	0.05203358
81	0x3d28f928	0.04125324
82	0x3d89c810	0.06727612
83	0x3de04756	0.10951106
84	0xbdfa7026	-0.12228422
85	0x3dcc6d28	0.099817574
86	0xbe9c7aee	-0.30562538
87	0xbd3ff808	-0.0468674
88	0xbe91ebf2	-0.28500324
89	0x3db46891	0.08809007
90	0xbd29c76f	-0.04144996
91	0x3c95d14d	0.018288279
92	0x3e9386be	0.28813738
93	0xbdb69a0e	-0.08916102
94	0x3dfd032c	0.123541206
95	0xbd91c750	-0.07118094
96	0x3dce9739	0.10087437
97	0xbc7ea1a7	-0.015541471
98	0xbe46f7c0	-0.19430447
99	0xbd640bbe	-0.05567526
100	0x3d4f3e25	0.050596375
101	0xbcc31fe7	-0.023818923
102	0xbd85d55a	-0.06534834
103	0x3de6a7cf	0.11262476
104	0x3cedd482	0.029031996
105	0xbe85d4b9	-0.26138857
106	0x3de69df7	0.11260598
107	0xbdf77a25	-0.12083844
108	0x3d3cf87a	0.046135403
109	0x3e1b5404	0.15168768
110	0x3e2689f5	0.16263564
111	0xbd3fac9f	-0.046795484
112	0xbd4c9e7a	-0.049955823
113	0x3db3e2cf	0.08783495
114	0x3d844164	0.06457785
115	0xbd0b3fa4	-0.03399624
116	0x3d2357f2	0.039878793
117	0x3d254d2e	0.040356807
118	0x3dd2973e	0.102827534
119	0xbdf8a8cc	-0.121415704
120	0xbd28c504	-0.041203514
121	0xbc1490cf	-0.009067728
122	0xbe0eba1b	-0.13938181
123	0x3e4ca91c	0.19986385
124	0xbb7e8a8f	-0.0038839912
125	0x3df3d55c	0.119059294
126	0xbe896900	-0.2683792
127	0x3e2b272d	0.16714163
128	0xbe4c9116	-0.19977221
129	0xbb732845	-0.003710286
130	0xbd53bf7c	-0.051696286
131	0xbe889b60	-0.26681042
132	0xbddc59c0	-0.10759306
133	0xbb9dbd6c	-0.0048138406
134	0x3db71bcd	0.089408495
135	0x3d911e4e	0.07085858
136	0x3d52b243	0.051439535
137	0x3e99aa6a	0.30012828
138	0x3e107942	0.14108756
139	0xbe1772f6	-0.14789948
140	0x3d60649e	0.054783456
141	0xbea732d3	-0.32655963
142	0x3d343a61	0.044000987
143	0xbbe39f21	-0.00694646
144	0x3c0322c7	0.008003897
145	0xbc57089e	-0.013124613
146	0x3d8e002e	0.06933628
147	0xbdeb85b9	-0.11500115
148	0x3d625c40	0.055263758
149	0xbd446c96	-0.047955118
150	0xbe0491b8	-0.12946212
151	0xbd155bd0	-0.036464512
152	0xbcad0811	-0.02112201
153	0x3d63a5a3	0.055577885
154	0x3eba5ed4	0.36400473
155	0xbddb379a	-0.107039645
156	0x3de6e4ff	0.11274146
157	0x3e4b65d4	0.19863063
158	0x3d1298b3	0.035790157
159	0xbc960f43	-0.018317824
160	0xbe1ddcd4	-0.1541627
161	0xbd621734	-0.05519791
162	0x3e658382	0.22413447
163	0xbe7d9f3b	-0.24767773
164	0xbe08d3a7	-0.13361989
165	0xbd59a021	-0.053131226
166	0x3d6d19f8	0.057886094
167	0x3e2ee3d3	0.17079096
168	0xbe217c2e	-0.15770027
169	0xbd484c1b	-0.048900705
170	0xbe723970	-0.23654723
171	0xbd9f3b42	-0.077749744
172	0x3c421597	0.011845968
173	0x3eae1bb3	0.34005508
174	0x3dd5efb1	0.10446108
175	0x3c54a8c5	0.012979691
176	0xbd88e439	-0.06684155
177	0xbc082e0f	-0.0083117625
178	0x3dbb38ff	0.091417305
179	0xbd8a4aaf	-0.06752526
180	0xbe2d0421	-0.16896106
181	0x3c2aa546	0.010415381
182	0xbe42038b	-0.18946664
183	0x3e34cd2c	0.17656392
184	0x3e6eff7a	0.23339644
185	0x3d705160	0.058671355
186	0xbdbfd969	-0.093676396
187	0xbde3b897	-0.11119192
188	0x3ed0415c	0.40674865
189	0xbe428c68	-0.18998873
190	0x3daccc69	0.08437426
191	0x3e19c62a	0.15017
192	0xbd6bf680	-0.057608128
193	0xbc2de572	-0.010613786
194	0xbd4de1f4	-0.050264314
195	0x3e88b66e	0.26701683
196	0x3d851662	0.0649841
197	0x3d612210	0.054964125
198	0xbdb0579c	-0.0861046
199	0x3d3c575e	0.045981757
200	0xbd9c5428	-0.07633239
201	0xbe01dcaa	-0.12681833
202	0xbd6b193c	-0.057397112
203	0x3eb61e06	0.3556978
204	0x3bfa3646	0.0076358644
205	0xbec049b1	-0.37556222
206	0x3dc89ae8	0.09795171
207	0xbc662589	-0.014047035
208	0xbd554cdc	-0.052075252
209	0xbd73d436	-0.059528552
210	0xbcb0b88f	-0.02157238
211	0xbe01d1d7	-0.12677704
212	0xbe60bc3f	-0.2194681
213	0x3ddfa8d2	0.10920872
214	0x3e5ef371	0.21772553
215	0xbd45606f	-0.04818767
216	0xbe225a36	-0.15854725
217	0x3d9dc86c	0.07704243
218	0x3ee42718	0.44561076
219	0xbd97ab0f	-0.07405674
220	0x3e2756ca	0.16341701
221	0xbe1023e2	-0.14076188
222	0xbe16cdc3	-0.1472693
223	0x3dc65f58	0.09686154
224	0x3df54ed8	0.11977929
225	0xbd09720b	-0.033556025
226	0x3e38a548	0.180318
227	0x3dd5ad7a	0.10433479
228	0x3da3d653	0.079998635
229	0xbd81ebf0	-0.0634383
230	0x3d0b093a	0.033944346
231	0xbc3951e1	-0.011311025
232	0x3daf9259	0.085728355
233	0x3e575a59	0.21030559
234	0x3dcc1700	0.099653244
235	0xbe02d1ab	-0.12775294
236	0x3d0bfc72	0.034176297
237	0xbecc5031	-0.3990493
238	0xbd3142bf	-0.043276545
239	0x3c36475f	0.011125415
240	0x3de13af0	0.109975696
241	0x3d08cd1e	0.03339874
242	0xbce7fdac	-0.028319202
243	0x3e1d8516	0.153828
244	0xbe5acb04	-0.21366507
245	0x3e18b78f	0.14913772
246	0xbea9cfd3	-0.3316637
247	0xbcb5a304	-0.022172458
248	0x3ea3a3d1	0.3196092
249	0xbe0a57e3	-0.13510089
250	0xbe6b389d	-0.22970815
251	0xbd1a107c	-0.037613377
252	0xbea6f823	-0.32611188
253	0x3e5cd8c7	0.21567069
254	0xbe460050	-0.19336057
255	0x3da9981a	0.08280964

discriminator.lin1.bias f4 [16]
0	0xbea4b9f6	-0.32173127
1	0xbec2bde4	-0.380355
2	0xbe979af3	-0.29610404
3	0xbd242326	-0.040072583
4	0xbe9ff350	-0.3124032
5	0xbe837bc0	-0.2568035
6	0xbe66430a	-0.22486511
7	0xbdb4ba8e	-0.08824645
8	0xbe94244a	-0.28933936
9	0xbec8e779	-0.392391
10	0xbe9dff41	-0.30858806
11	0xbea38245	-0.31935325
12	0xbeba6e49	-0.36412266
13	0xbea26a69	-0.3172181
14	0xbea03d14	-0.312966
15	0xbe8a018c	-0.26954305

discriminator.lin2.weight f4 [64, 16]
0	0x3e39952c	0.18123311
1	0x3ea66eb6	0.3250634
2	0xbda252af	-0.07925927
3	0xbe38e69e	-0.18056723
4	0x3e653959	0.22385158
5	0x3e386210	0.18006158
6	0x390ba485	0.00013317361
7	0x3e2bf068	0.16790926
8	0xbe3e9468	-0.186113
9	0x3dbf1bfe	0.09331511
10	0x3e7cfc96	0.24705729
11	0x3e0ba0b8	0.13635528
12	0x3e2acfa2	0.16680768
13	0x3e885890	0.26630068
14	0x3e9043b7	0.28176662
15	0xbe82c56d	-0.2554125
16	0xbc122efd	-0.008922336
17	0x3bcc230a	0.006229763
18	0xbc95c99d	-0.018284613
19	0xbcccd912	-0.025005851
20	0x3e8a7602	0.27043158
21	0x3d9fdc31	0.0780567
22	0xbc412745	-0.011789148
23	0x3e54cf14	0.20782119
24	0x3e5c356e	0.21504757
25	0xbd145cc4	-0.03622128
26	0x3e3ebff1	0.18627907
27	0x3e652b94	0.22379905
28	0xbe159da3	-0.14610915
29	0x3e653b4b	0.223859
30	0x3e8a3c25	0.26999012
31	0x3e2df0a5	0.1698633
32	0xbdf5981a	-0.11991902
33	0x3e80dec6	0.25169963
34	0xbe13a03e	-0.14416596
35	0x3c0d3605	0.008618836
36	0x3e7fc400	0.24977112
37	0xbe84d7b4	-0.25945818
38	0x3e42ec56	0.19035468
39	0xbde5c35f	-0.11218905
40	0x3e53e20c	0.20691699
41	0x3e8c842b	0.27444586
42	0xbe8759f4	-0.26435816
43	0x3e497558	0.1967367
44	0x3ec231c1	0.37928584
45	0xbe8d3ad9	-0.2758396
46	0x3e14e498	0.14540327
47	0x3e6682c3	0.22510819
48	0x3e85df0f	0.26146743
49	0x3e59a22a	0.21253267
50	0xbdd464ef	-0.10370814
51	0x3dd2c3b9	0.102912374
52	0x3db18a2d	0.08668933
53	0x3d9816cd	0.07426224
54	0xbba77c23	-0.005111234
55	0x3e517884	0.2045613
56	0x3e87ad4b	0.264994
57	0x3cb3d309	0.021951215
58	0x3e33aba9	0.17545952
59	0x3e8f4786	0.27984256
60	0x3e73ea76	0.23819908
61	0xbe49466c	-0.1965577
62	0xbe2b8cd5	-0.16752942
63	0x3e7fa185	0.24963959
64	0xbdbc55f2	-0.0919608
65	0xbe537747	-0.2065097
66	0xbdfe1bc2	-0.12407638
67	0xbdd7f115	-0.105440296
68	0xbc3b0578	-0.011414878
69	0x3c4c3e9e	0.012466101
70	0xbe080ee4	-0.1328693
71	0x3db3adb5	0.08773366
72	0xbd9f22f8	-0.07770342
73	0xbe39e1c9	-0.18152536
74	0xbdd8319f	-0.105563395
75	0xbde33688	-0.110943854
76	0xbd3e31f2	-0.04643435
77	0xbd5c6d33	-0.053815078
78	0xbdee7dd0	-0.116450906
79	0xbe3fee3a	-0.1874322
80	0xbd39d43d	-0.04536842
81	0x3e5472b4	0.20746881
82	0x3e95615e	0.29175848
83	0x3e292b92	0.16520527
84	0x3e128a1e	0.143105
85	0x3e4444f7	0.19166933
86	0x3e60962a	0.21932283
87	0x3e7b34b3	0.24531822
88	0x3dc217ae	0.09477173
89	0x3e9b2a4f	0.30305716
90	0xbe3efbf5	-0.18650801
91	0xbd12c2e0	-0.03583038
92	0xbdd386d0	-0.10328448
93	0x3e84c95d	0.25934878
94	0x3e80178e	0.2501797
95	0x3d7a9d63	0.061185252
96	0x3e14a381	0.14515497
97	0x3dc1c826	0.094620034
98	0x3dcda959	0.10042066
99	0x3e212fc4	0.15740877
100	0x3dc7c7aa	0.0975488
101	0x3d67b634	0.056570247
102	0x3e761aee	0.2403371
103	0xbe5704fc	-0.20997995
104	0xbb2666d5	-0.0025390883
105	0x3e1ab7f0	0.15109229
106	0x3e52363c	0.20528501
107	0x3e548fc3	0.20757966
108	0x3e072c2b	0.13200442
109	0xbe73492a	-0.23758379
110	0x3d6321ea	0.055452265
111	0x3e313f74	0.17309362
112	0xbe29786d	-0.16549845
113	0xbe03d708	-0.12874997
114	0xbde8833f	-0.11353158
115	0xbd8cbcc7	-0.06871944
116	0xbe0fa8b3	-0.14029197
117	0xbd06f602	-0.032949455
118	0xbe1bdc32	-0.15220717
119	0x3cf4b233	0.029870128
120	0xbdc1fee3	-0.09472444
121	0xbe721e60	-0.236444
122	0xbe1dee58	-0.15422952
123	0xbe8da615	-0.27665773
124	0xbe5ad532	-0.2137039
125	0xbe484e43	-0.19561104
126	0xbe4cf51f	-0.20015381
127	0xbe6c0092	-0.23047093
128	0x3e993faa	0.29931384
129	0x3e414455	0.18873723
130	0xbda11eb2	-0.07867183
131	0x3e73487e	0.23758122
132	0x3e4b4e75	0.19854148
133	0x3e29eef0	0.16595054
134	0xbe2d73c1	-0.16938688
135	0x3e1c6c6c	0.15275735
136	0x3e69c72b	0.22829883
137	0x3e077621	0.13228656
138	0x3e553a2e	0.20822975
139	0x3eaa9f60	0.33324718
140	0x3e3facc5	0.1871825
141	0xbd1abb08	-0.037776023
142	0xbdc48ddc	-0.0959737
143	0xbe07398b	-0.13205545
144	0xbd327c83	-0.043575775
145	0x3ea36801	0.31915286
146	0xbe0875eb	-0.13326232
147	0x3d1c52d4	0.03816493
148	0x3b97c514	0.004631648
149	0x3e3dfd65	0.18553694
150	0x3e3e8a01	0.18607332
151	0x3e3ff9a4	0.18747574
152	0x3e609a05	0.21933754
153	0x3da68569	0.08130915
154	0x3e8b9008	0.27258325
155	0x3e735087	0.23761187
156	0xbd8d6b91	-0.06905282
157	0xbcfa000c	-0.0305176
158	0xbd0c07e8	-0.034187227
159	0x3e3c38dc	0.18381065
160	0x3e3e5a77	0.18589197
161	0xbc10a355	-0.008828004
162	0xbe9f151c	-0.31070793
163	0x3e5db21f	0.21649979
164	0x3e8fb85c	0.28070343
165	0xbe73ea66	-0.23819885
166	0x3e096046	0.13415632
167	0xbe770dba	-0.2412633
168	0xbcbbf954	-0.022946037
169	0x3e85ca55	0.2613093
170	0x3e49b5cd	0.19698258
171	0x3e8a22a2	0.26979548
172	0x3e9cb6a2	0.30608088
173	0xbe866361	-0.26247695
174	0xbea64616	-0.32475346
175	0xbe2fa084	-0.17151076
176	0xbe2f76ec	-0.17135209
177	0xbe78e7af	-0.2430713
178	0xbe103e69	-0.14086308
179	0xbdd30617	-0.10303896
180	0xbe2279a5	-0.15866716
181	0xbd50ddfc	-0.05099295
182	0xbdf2851d	-0.118417956
183	0xbbe6c3a0	-0.0070423633
184	0xbe208e74	-0.15679342
185	0xbe7fc417	-0.24977146
186	0xbe594195	-0.21216424
187	0xbe384f2f	-0.17998956
188	0xbe728ed2	-0.23687294
189	0xbe2902c3	-0.1650496
190	0xbe2f35ad	-0.1711032
191	0xbe8117ac	-0.25213373
192	0xbe3881c5	-0.18018253
193	0xba85a837	-0.0010197227
194	0xbe70ca01	-0.23514558
195	0xbdc7b174	-0.097506434
196	0x3e970cc1	0.29501918
197	0x3e288541	0.16457082
198	0xbe451689	-0.19246878
199	0xbeab5722	-0.33464915
200	0xbdd1e6a3	-0.102490686
201	0x3cd17af2	0.02557132
202	0x3eb4ff69	0.35351112
203	0x3e3e6c2d	0.18595953
204	0x3c0802ce	0.00830145
205	0x3e8b522d	0.27211133
206	0x3e356f75	0.17718299
207	0xbd542993	-0.05179746
208	0x3e4a210c	0.19739169
209	0xbe056c41	-0.13029577
210	0xbdd4d651	-0.1039244
211	0xbec383e7	-0.3818657
212	0xbe4917a9	-0.19637932
213	0xbe24be8a	-0.1608831
214	0xbe18d6c7	-0.14925681
215	0x3d597bf3	0.053096723
216	0xbdfc1f9a	-0.12310715
217	0xbe3e9eca	-0.1861526
218	0x3dbc2b43	0.09187939
219	0xbe91ac8d	-0.28451958
220	0xbdb6a61c	-0.089184016
221	0x3e5e9d1e	0.21739623
222	0x3e299191	0.16559435
223	0x3e7b1909	0.24521269
224	0x3dc948d4	0.09828344
225	0x3eb47375	0.35244337
226	0x3e7ad523	0.24495368
227	0x3e9367db	0.28790173
228	0x3e8bee6b	0.27330336
229	0x3e4270fc	0.18988413
230	0xbe35b8fb	-0.17746346
231	0x3da5155e	0.08060716
232	0x3e2f8a52	0.17142609
233	0x3e97777d	0.2958335
234	0xbd480474	-0.04883237
235	0x3e369165	0.17828901
236	0x3e66642a	0.22499147
237	0x3e841eba	0.25804693
238	0x3e5fd9a4	0.21860367
239	0x3e4e12fc	0.2012443
240	0x3de432c3	0.111424945
241	0xbd882a16	-0.06648652
242	0x3d2821d4	0.041047886
243	0x3ddb3c90	0.10704911
244	0x3d4e6ede	0.0503987
245	0xbea9d0a8	-0.33167005
246	0xbea65700	-0.3248825
247	0xbe9a59bb	-0.30146584
248	0x3e5ab306	0.21357355
249	0x3e94b170	0.29041624
250	0x3e8109b1	0.25202706
251	0xbe6ac74e	-0.22927591
252	0x3ea2f579	0.31827906
253	0x3ea4c7ed	0.3218378
254	0x3e818c8f	0.2530255
255	0x3e763efa	0.24047461

discriminator.lin2.bias f4 [64]
0	0xbe57ac02	-0.2106171
1	0xbe90a4a8	-0.28250623
2	0xbdef605d	-0.11688302
3	0xbea4bd80	-0.32175827
4	0x3ed9ac33	0.4251419
5	0xbec0bc7f	-0.3764381
6	0xbd7bf16d	-0.06150954
7	0x3ee94e62	0.45567614
8	0xbe8db670	-0.2767825
9	0xbea4b072	-0.32165867
10	0xbdbf06b6	-0.09327452
11	0x3f0567ff	0.5211181
12	0xbdeb4ebc	-0.11489627
13	0x3c3a90b6	0.011387041
14	0xbe9f04ff	-0.310585
15	0xbd6fb926	-0.05852618
16	0xbda4c216	-0.080448315
17	0xbe05dfc6	-0.13073644
18	0xbe81c69c	-0.2534684
19	0xbe6f3cd7	-0.23363052
20	0xbe93e708	-0.288872
21	0xbd4d2628	-0.050085217
22	0xbe95c18b	-0.29249224
23	0xbe899f02	-0.26879126
24	0xbde71f8e	-0.112853155
25	0xbe8b331c	-0.2718743
26	0xbe9b474e	-0.3032784
27	0xbee85ef0	-0.45384932
28	0x3efd7db7	0.49509975
29	0xbe44cbe3	-0.19218402
30	0xbe11c0ca	-0.142337
31	0x3ef7bff6	0.48388642
32	0xbe4c4508	-0.19948208
33	0xbe54c6ac	-0.20778912
34	0xbeb10380	-0.34572983
35	0xbdeb0100	-0.114748
36	0xbe97e5a0	-0.29667377
37	0xbe85e868	-0.26153874
38	0xbe714300	-0.23560715
39	0xbdba1948	-0.09086853
40	0xbe2b1d11	-0.16710307
41	0xbe12a88c	-0.14322108
42	0xbe30a3b7	-0.17249952
43	0xbe57a7e8	-0.21060145
44	0xbeb1f9c9	-0.34760883
45	0xbe8c8299	-0.27443388
46	0xbe412378	-0.18861187
47	0x3efc2f07	0.4925463
48	0x3eface1e	0.4898538
49	0xbe645b75	-0.22300513
50	0xbea00968	-0.31257176
51	0xbe176fa0	-0.14788675
52	0xbe9a5719	-0.30144575
53	0xbe778c94	-0.2417472
54	0xbdf8675b	-0.121290885
55	0xbe0fd3f4	-0.14045697
56	0x3eed1f82	0.463131
57	0xbe11cd39	-0.14238442
58	0xbea3c1c9	-0.31983784
59	0xbeb33468	-0.3500092
60	0xbe946c02	-0.28988653
61	0xbe9f6bca	-0.31136924
62	0x3eab682d	0.33477917
63	0xbeb2fe59	-0.34959677

discriminator.lin3.weight f4 [128, 64]
0	0x3e58297e	0.21109578
1	0x3e65e410	0.2245028
2	0x3e35a369	0.17738117
3	0x3e907e90	0.2822156
4	0xbe58d0c8	-0.21173394
5	0x3e793ae2	0.24338868
6	0x3d3ee8b3	0.046608638
7	0xbea76bfc	-0.32699573
8	0x3e419f06	0.18908319
9	0x3ecc06e2	0.39849
10	0x3e79b74b	0.24386327
11	0xbe7e67af	-0.2484424
12	0x3e568159	0.2094778
13	0x3dc3f32d	0.095678665
14	0x3e31c1c0	0.17359066
15	0x3e04973e	0.1294832
16	0x3e5e0994	0.21683341
17	0x3e424745	0.189725
18	0x3e40ae94	0.18816596
19	0x3e3d660b	0.18495958
20	0x3e87210e	0.26392406
21	0x3d9f5109	0.07779128
22	0x3e65ab5f	0.22428654
23	0x3e9a24f0	0.30106306
24	0x3e79f298	0.24408948
25	0x3e880af5	0.2657086
26	0x3e83728a	0.25673324
27	0x3e525a61	0.2054229
28	0xbe98ff35	-0.29882208
29	0x3e3612eb	0.17780654
30	0x3e7c4e3b	0.24639218
31	0xbe407b44	-0.18797022
32	0x3e791bb6	0.24326977
33	0x3e845a1b	0.25849995
34	0x3e6f2478	0.23353755
35	0x3df28bdc	0.11843082
36	0x3e9a4d6b	0.3013719
37	0x3eaca89b	0.33722386
38	0x3e86d491	0.2633405
39	0x3e0513a4	0.12995774
40	0x3e879997	0.26484367
41	0x3e63621b	0.22205393
42	0x3e646d4a	0.22307315
43	0x3e7293a3	0.23689131
44	0x3e93d279	0.28871515
45	0x3e70d0a9	0.23517098
46	0x3e3fd230	0.18732524
47	0xbe2cd8a9	-0.16879524
48	0xbe2228a8	-0.15835822
49	0x3e7283a3	0.23683028
50	0x3e463825	0.19357355
51	0x3e589272	0.21149614
52	0x3e8db98d	0.27680627
53	0x3e5c4708	0.21511471
54	0x3e713869	0.23556675
55	0x3e8a0154	0.26954138
56	0xbe5ab345	-0.21357448
57	0x3e20cea5	0.15703829
58	0x3e95d878	0.29266715
59	0x3e5c3647	0.2150508
60	0x3e47a6a1	0.19497158
61	0x3e9d5a82	0.30733114
62	0xbd6077bf	-0.0548017
63	0x3e21cd86	0.15801057
64	0x3e156a83	0.14591412
65	0x3e73f4f5	0.23823912
66	0x3e1bbd4e	0.15208933
67	0x3e9c2dcc	0.3050369
68	0xbe2d7581	-0.16939355
69	0x3e81f8b0	0.25385046
70	0x3d68193c	0.05666469
71	0xbecfb319	-0.40566328
72	0x3e37497f	0.1789913
73	0x3ed95563	0.42447957
74	0x3e30802d	0.17236395
75	0xbeb2742d	-0.3485426
76	0x3e2f0bdb	0.17094366
77	0xbc317ab7	-0.01083248
78	0x3e3dd028	0.18536437
79	0x3dcfa498	0.10138816
80	0x3e18a51b	0.14906733
81	0x3e07fac9	0.1327926
82	0x3e0857b7	0.1331471
83	0x3e20e124	0.15710884
84	0x3e83096d	0.2559313
85	0x3cdc49db	0.026890686
86	0x3e849329	0.25893524
87	0x3e911225	0.28334156
88	0x3e46bb26	0.19407329
89	0x3e878096	0.2646529
90	0x3ea79bdc	0.327361
91	0x3e5f6a4b	0.21817891
92	0xbec0570d	-0.37566414
93	0x3e29e992	0.16593006
94	0x3e6e7777	0.2328776
95	0xbde7ff70	-0.11328018
96	0x3e654f3a	0.22393504
97	0x3e5e098a	0.21683326
98	0x3e37c8ca	0.17947689
99	0x3dec35de	0.11533712
100	0x3e8f5ea5	0.28001896
101	0x3e9d4e9d	0.3072404
102	0x3e6cbf7f	0.23119925
103	0x3db87a79	0.09007735
104	0x3e755aa8	0.23960364
105	0x3e370bd2	0.17875603
106	0x3e5a51b4	0.2132023
107	0x3e8d8ea8	0.276479
108	0x3eb58992	0.3545652
109	0x3e16dac1	0.14731885
110	0x3e037a9e	0.12839743
111	0xbe2cfe26	-0.16893825
112	0xbe827484	-0.2547952
113	0x3e32f351	0.1747563
114	0x3e480924	0.19534737
115	0x3e527003	0.20550542
116	0x3e5859a0	0.21127939
117	0x3e4be5c5	0.19911869
118	0x3e526a58	0.2054838
119	0x3e965262	0.29359728
120	0xbea45263	-0.32094106
121	0x3e0d2c70	0.13786483
122	0x3e8bc24a	0.27296668
123	0x3e4470b2	0.19183615
124	0x3e409ea1	0.18810512
125	0x3e91d0f0	0.2847972
126	0xbd8d58ad	-0.06901679
127	0x3e4ae8b9	0.19815339
128	0x3e525e77	0.20543848
129	0x3e5a182c	0.21298283
130	0x3e41632e	0.1888549
131	0x3e896a50	0.26838923
132	0xbe51e0e3	-0.20495944
133	0x3e7e3389	0.24824347
134	0x3d50cb95	0.0509754
135	0xbe94be1b	-0.2905129
136	0x3e4e6042	0.20153907
137	0x3ec4fc57	0.3847377
138	0x3e6cec6b	0.23137061
139	0xbe8c4bf1	-0.2740169
140	0x3e522557	0.20522057
141	0x3dcefa2e	0.10106312
142	0x3e2683b0	0.16261172
143	0x3df62c72	0.12020196
144	0x3e288a14	0.16458923
145	0x3e3a9ba3	0.18223433
146	0x3e4a6f04	0.19768912
147	0x3e385ed8	0.1800493
148	0x3e8ac02b	0.27099738
149	0x3d9cf558	0.07663983
150	0x3e73297b	0.23746292
151	0x3e9bd1f2	0.30433613
152	0x3e604e3c	0.21904844
153	0x3e925273	0.2857853
154	0x3e8de637	0.27714702
155	0x3e54fc13	0.20799284
156	0xbe61856a	-0.2202355
157	0x3e21ed28	0.15813124
158	0x3e77a7f7	0.24185167
159	0xbe3c3a50	-0.1838162
160	0x3e86803c	0.2626971
161	0x3e6ebeaa	0.2331492
162	0x3e7b5a33	0.24546127
163	0x3df08d62	0.11745717
164	0x3ea59f77	0.32348225
165	0x3ea480a5	0.32129398
166	0x3e8c3c4f	0.27389762
167	0x3dfafdbd	0.12255428
168	0x3e826707	0.2546923
169	0x3e701c9d	0.23448415
170	0x3e6a69fc	0.22891992
171	0x3e834c57	0.2564418
172	0x3ea190ef	0.31555888
173	0x3e6a5955	0.2288564
174	0x3e387a17	0.18015324
175	0xbe5493d2	-0.20759514
176	0xbe519de8	-0.20470393
177	0x3e763972	0.24045351
178	0x3e2cefeb	0.16888396
179	0x3e75bb96	0.2399734
180	0x3e8c6f9e	0.27428907
181	0x3e66c7f0	0.22537208
182	0x3e780c61	0.24223472
183	0x3e84ca90	0.25935793
184	0xbe9195cc	-0.28434598
185	0x3e2799b2	0.16367224
186	0x3e88b092	0.26697212
187	0x3e475b17	0.19468342
188	0x3e58e2c1	0.2118025
189	0x3e93d14b	0.28870615
190	0xbdb20b83	-0.08693602
191	0x3e2ca24a	0.16858783
192	0x3e4b2318	0.19837606
193	0x3e7310c0	0.23736858
194	0x3e42dfdd	0.1903071
195	0x3e8122a3	0.25221738
196	0xbe6dc548	-0.23219788
197	0x3e6d8105	0.23193748
198	0x3cfe4e19	0.0310431
199	0xbeae26a3	-0.34013852
200	0x3e4b4947	0.19852172
201	0x3ec90f77	0.3926961
202	0x3e65174b	0.22372167
203	0xbe9a8a85	-0.30183807
204	0x3e6e6ac3	0.23282914
205	0x3d9b8765	0.07594184
206	0x3e213cf8	0.15745914
207	0x3dd0d4b4	0.1019682
208	0x3e3901d6	0.18067107
209	0x3e24f6d0	0.16109776
210	0x3e22085d	0.15823503
211	0x3e3ed29c	0.18635029
212	0x3e843686	0.25822848
213	0x3d6d88cf	0.0579918
214	0x3e68e42a	0.22743288
215	0x3e9af1ad	0.3026251
216	0x3e64c986	0.223425
217	0x3e8c7716	0.27434605
218	0x3e97ab41	0.29622844
219	0x3e661702	0.22469714
220	0xbea0f046	-0.31433314
221	0x3e1ea07e	0.1549091
222	0x3e7c3170	0.24628234
223	0xbe4b93e3	-0.19880633
224	0x3e698f87	0.22808658
225	0x3e6a7829	0.228974
226	0x3e7220d3	0.23645334
227	0x3dc4f3ee	0.096168384
228	0x3e99b463	0.30020437
229	0x3e9dc475	0.30813947
230	0x3e8479e2	0.2587424
231	0x3ddecd3c	0.10878989
232	0x3e8367f9	0.25665262
233	0x3e54a8a6	0.2076746
234	0x3e64b3d4	0.22334224
235	0x3e8723b7	0.26394436
236	0x3ea45de3	0.3210288
237	0x3e5ced20	0.21574831
238	0x3e20b6af	0.15694688
239	0xbe39534c	-0.18098181
240	0xbe2bf54b	-0.1679279
241	0x3e68a3ec	0.22718781
242	0x3e50ea4f	0.20401882
243	0x3e594418	0.21217382
244	0x3e8d108c	0.27551687
245	0x3e43ece0	0.1913333
246	0x3e42c60d	0.19020863
247	0x3e92611a	0.28589708
248	0xbe97bbb2	-0.29635388
249	0x3e3178a1	0.17331173
250	0x3e85a570	0.2610278
251	0x3e495890	0.1966269
252	0x3e5b928b	0.2144262
253	0x3e985c80	0.29758072
254	0xbde6f1de	-0.11276601
255	0x3e345323	0.17609839

discriminator.lin3.bias f4 [128]
0	0xbee27449	-0.44229344
1	0xbe720282	-0.23633769
2	0xbed4a609	-0.41532925
3	0xbea7f7fd	-0.32806388
4	0xbe9b1027	-0.3028576
5	0xbeebb5c7	-0.46037123
6	0xbed772fc	-0.42079914
7	0xbef40173	-0.47657356
8	0xbed260b0	-0.41089392
9	0xbe8bc93d	-0.2730197
10	0xbebc60a4	-0.3679248
11	0xbeff7de8	-0.49900746
12	0xbecfcade	-0.40584463
13	0xbeb73b6c	-0.35787523
14	0xbedbc4dd	-0.42923632
15	0xbeda2579	-0.42606714
16	0xbe514186	-0.20435151
17	0xbe9a28f0	-0.30109358
18	0xbec6e0c5	-0.3884336
19	0xbe8cc97e	-0.27497476
20	0xbee66916	-0.4500205
21	0xbedf98e6	-0.4367134
22	0xbebe1779	-0.37127283
23	0xbed8f164	-0.42371666
24	0xbeafcdcb	-0.34336695
25	0xbecde95f	-0.4021711
26	0xbe90b566	-0.28263396
27	0xbecd622a	-0.40113956
28	0xbe875ac6	-0.26436442
29	0xbed3fe35	-0.41404882
30	0xbe90131b	-0.28139576
31	0xbf03e7ba	-0.5152546
32	0xbe94b0f0	-0.29041243
33	0xbeac5d61	-0.33664992
34	0xbedc9961	-0.4308577
35	0xbee2ed18	-0.44321513
36	0xbebc1ea9	-0.36742142
37	0xbef2fc66	-0.4745819
38	0xbe91546f	-0.2838473
39	0xbedf2c06	-0.43588275
40	0xbed13a63	-0.40864858
41	0xbef1198e	-0.4708981
42	0xbef4dd6b	-0.47825179
43	0xbebf54b1	-0.37369302
44	0xbead60fa	-0.3386305
45	0xbee7ab27	-0.45247766
46	0xbefad852	-0.48993164
47	0xbed9587c	-0.4245032
48	0xbea41c61	-0.320529
49	0xbe66b59b	-0.22530214
50	0xbeededb3	-0.46470413
51	0xbec47e0b	-0.38377413
52	0xbe8ac1b7	-0.27100918
53	0xbe869491	-0.26285222
54	0xbe8512dd	-0.25990954
55	0xbefefe2a	-0.49803287
56	0xbee32383	-0.4436303
57	0xbed4d998	-0.4157226
58	0xbea3c5e2	-0.3198691
59	0xbec1b83d	-0.37835875
60	0xbe9a7b56	-0.30172223
61	0xbf02b85c	-0.5106256
62	0xbedc2a08	-0.43000817
63	0xbed38e28	-0.41319394
64	0xbed416e7	-0.41423723
65	0xbf0b9211	-0.54519755
66	0xbedca1ee	-0.43092293
67	0xbec04b27	-0.37557337
68	0xbef8bcb9	-0.48581484
69	0xbefa85d5	-0.4893023
70	0xbecc67da	-0.39922982
71	0xbef5fc42	-0.4804402
72	0xbeabb0ca	-0.33533317
73	0xbe91e7a1	-0.2849703
74	0xbeab6242	-0.33473402
75	0xbeeaa0d3	-0.45825824
76	0xbedb58f3	-0.428413
77	0xbeec5e4f	-0.46165702
78	0xbed95dd6	-0.42454404
79	0xbec4306a	-0.38318187
80	0xbe6f7932	-0.23386076
81	0xbecf0833	-0.40435943
82	0xbec0f491	-0.3768659
83	0xbe99b864	-0.3002349
84	0xbee86658	-0.45390582
85	0xbec624bd	-0.38699904
86	0xbed6e0fc	-0.41968524
87	0xbedb5e93	-0.42845592
88	0xbeada447	-0.33914396
89	0xbeb9c888	-0.36285806
90	0xbebf96c4	-0.37419713
91	0xbedd596a	-0.4323228
92	0xbe8f1b22	-0.27950388
93	0xbeec2e6f	-0.46129176
94	0xbeda533d	-0.4264163
95	0xbe990354	-0.29885352
96	0xbebce649	-0.36894444
97	0xbef843ee	-0.48489326
98	0xbec2c6cf	-0.38042304
99	0xbee0fb5d	-0.43941775
100	0xbeb5c097	-0.35498497
101	0xbefc4200	-0.49269104
102	0xbea0be70	-0.31395292
103	0xbed03079	-0.40661982
104	0xbee9a7c0	-0.45635796
105	0xbeb95854	-0.36200202
106	0xbee29845	-0.44256797
107	0xbeb4abeb	-0.35287413
108	0xbecef303	-0.40419778
109	0xbee8f91a	-0.4550255
110	0xbe9f63cd	-0.3113083
111	0xbf0037b8	-0.5008502
112	0xbe784f97	-0.24249111
113	0xbe9ecbae	-0.3101477
114	0xbeab8aa4	-0.33504212
115	0xbee64063	-0.44970998
116	0xbf056959	-0.5211387
117	0xbec07ab9	-0.3759363
118	0xbe956108	-0.2917559
119	0xbed5983a	-0.41717702
120	0xbebd5f1c	-0.36986625
121	0xbefcbda9	-0.4936345
122	0xbefba170	-0.49146605
123	0xbe8aed71	-0.27134278
124	0xbee2e7f1	-0.44317582
125	0xbee135be	-0.43986315
126	0xbec50a7f	-0.3848457
127	0xbed8a6c2	-0.42314726
