VGDAE_tnnls/feat_hecheng/baocun/syn_data_3.pth (torch, 801951 bytes, 4 tensors)

encoder.linear.weight f4 [40, 2500]
-0.14660044 -0.0650991 0.032129724 0.069686934 -0.00307763 -0.049019724 0.031148419 -0.05211344
0.14720444 -0.020784762 -0.00081924914 0.0390819 0.110845044 -0.017744996 0.12895738 -0.0326797
0.023185166 0.0772598 0.11774164 0.117267795 -0.11722051 -0.059438996 -0.03536004 -0.0081194155
0.027583478 0.058050606 -0.23051593 -0.19740056 0.06612795 -0.2025423 -0.020499771 0.01691646
0.03705419 -0.24677184 0.12153643 0.021271724 0.03880543 -0.013706514 -0.17028198 -0.0334173
0.014005438 -0.06895802 0.034875024 -0.03347913 -0.07786507 -0.12888028 -0.11977414 -0.0042198123
-0.027782215 -0.033770867 -0.038593184 -0.06403049 0.11066007 0.07236885 0.10562613 -0.07374154
-0.113285415 0.08194019 0.010677971 0.09405446 0.026528994 -0.007143751 -0.094921365 -0.13598567
0.06015883 -0.17372848 0.0155645255 0.064224266 0.15102668 0.081571154 -0.21145093 0.02075033
0.14449376 -0.021111239 0.0205123 -0.12556656 -0.16105273 -0.028179348 0.2053858 -0.04477916
-0.18626125 0.059905097 -0.1740633 -0.030858688 -0.06780906 -0.050870467 -0.15933526 -0.0012665683
0.20731388 -0.11216493 0.0048341798 -0.036528252 0.009065621 0.08419812 0.06331618 -0.11458137
-0.027319286 0.10244389 0.02449861 -0.009674916 -0.06736971 -0.1323026 -0.08986319 0.03308733
-0.01816327 0.03661606 0.005266945 0.047411717 0.14310211 0.095826074 0.045600567 -0.05691384
0.096458815 -0.010957904 -0.104734726 0.020500092 0.09914724 0.15743192 0.12940794 0.08271486
0.07733296 -0.014879861 -0.056440573 0.1462053 -0.15899141 0.069853656 -0.13621719 0.0043333853
-0.13330565 -0.008415724 -0.019125855 0.042559206 -0.20009342 -0.09144489 -0.11298448 -0.10238662
-0.116175435 0.05156276 -0.021840096 -0.01618375 -0.053318996 0.12137414 -0.06505278 0.028923463
-0.21873406 -0.016699536 0.021943832 0.10055627 -0.053346593 0.09070139 -0.16431864 0.13306937
0.020613842 -0.00048257984 0.06475158 0.08351797 0.14019151 -0.117300145 0.053982403 -0.028086264
0.026389975 0.036679752 -0.0115064 -0.017338395 -0.104311526 -0.19632417 -0.040396456 -0.009577052
-0.18267602 -0.07784306 -0.020833999 0.036339 0.020804627 -0.16221066 0.06803714 -0.21240343
0.0622272 0.1428954 0.06766728 0.08553367 0.18915668 -0.04775584 -0.101827815 -0.08650299
-0.115663335 -0.15416884 0.014120034 0.0334196 0.113997 -0.09312291 0.087671444 0.051024258
0.101775795 -0.013854528 0.10975687 0.07804947 0.011151491 0.014819896 -0.2006435 -0.08644181
0.094388515 0.017226106 0.031251635 0.035823464 0.083593376 -0.026524654 0.085083 -0.18626632
-0.15612797 0.09275641 0.057899956 -0.06077793 -0.030965742 0.08058813 0.06432106 -0.1084621
-0.017878264 -0.06896396 0.08645795 -0.0034941367 -0.16861966 0.058157623 0.061296273 -0.09599572
-0.010153504 0.028051611 -0.12886989 -0.19027941 0.007970396 -0.0053454526 0.011068604 -0.113459185
-0.2097532 0.012520805 0.039541345 -0.1024438 0.055034004 -0.07152548 0.054762535 -0.050559733
-0.016666785 -0.009857769 -0.035329282 -0.043630727 -0.21040043 0.09653658 -0.011306412 0.03508474
-0.0047199577 0.017875671 0.047137763 0.08280962 -0.2757502 0.074566066 -0.005588329 0.04095287
00000000: 6d1e 16be ad52 85bd 759a 033d 06b8 8e3d
00000010: 10b2 49bb e8c8 48bd f82a ff3c e774 55bd
00000020: c3bc 163e ce44 aabc e1c2 56ba 5814 203d
00000030: ba02 e33d f45d 91bc 670d 043e 26db 05bd
00000040: d1ee bd3c 633a 9e3d 8722 f13d 192a f03d
00000050: 4f11 f0bd 4e76 73bd b0d5 10bd 4c07 05bc
00000060: bff6 e13c 79c6 6d3d 5e0c 6cbe 5f23 4abe
00000070: 176e 873d 4067 4fbe 23ef a7bc 6394 8a3c
00000080: 22c6 173d c2b1 7cbe 18e8 f83d 0a42 ae3c
00000090: 71f2 1e3d 4991 60bc 665e 2ebe 94e0 08bd
000000a0: 1177 653c dd39 8dbd 1dd9 0e3d 6a21 09bd
000000b0: b977 9fbd 31f9 03be 254c f5bd 5a46 8abb
000000c0: 8797 e3bc 5253 0abd e313 1ebd 6b22 83bd
000000d0: bfa1 e23d 1f36 943d 8352 d83d ce05 97bd
000000e0: 2f02 e8bd 42d0 a73d a8f2 2e3c a09f c03d
000000f0: 5553 d93c 2016 eabb 2266 c2bd d43f 0bbe
00000100: 1b69 763d e1e5 31be 5a02 7f3c 0388 833d
00000110: bda6 1a3e c70e a73d 9886 58be 99fc a93c
00000120: 2cf6 133e 7af1 acbc 6909 a83c 8594 00be
00000130: 02eb 24be 60d8 e6bc a850 523e 5a6a 37bd
00000140: 45bb 3ebe 0c5f 753d a63d 32be 5ccb fcbc
00000150: 7adf 8abd 8d5d 50bd c828 23be fb02 a6ba
00000160: 174a 543e bab6 e5bd 0a68 9e3b a69e 15bd
00000170: f887 143c 1070 ac3d eaab 813d a3a9 eabd
00000180: b2cc dfbc 1ace d13d 4fb1 c83c 8a83 1ebc
00000190: 21f9 89bd 557a 07be 310a b8bd 9586 073d
000001a0: 23cb 94bc b9fa 153d 5696 ac3b ca32 423d
000001b0: 5c89 123e 7640 c43d a9c7 3a3d 7d1e 69bd
000001c0: 338c c53d c888 33bc 297f d6bd cfef a73c
000001d0: b50d cb3d d535 213e 8483 043e 6966 a93d
000001e0: be60 9e3d a9ca 73bc 3b2e 67bd d8b6 153e
000001f0: a5ce 22be 6f0f 8f3d 857c 0bbe 12ff 8d3b
00000200: 4781 08be 1be2 09bc d3ad 9cbc 9052 2e3d
00000210: 4ae5 4cbe 7547 bbbd 6864 e7bd 14b0 d1bd
00000220: 63ed edbd 7933 533d 00ea b2bc c993 84bc
00000230: 0565 5abd 0193 f83d 643a 85bd e6f0 ec3c
00000240: d2fb 5fbe 77cd 88bc 8dc3 b33c 72f0 cd3d
00000250: f581 5abd a6c1 b93d 2543 28be 5643 083e
00000260: 5cde a83c c502 fdb9 7a9c 843d 780b ab3d
00000270: 5d8e 0f3e 0f3b f0bd a71c 5d3d 2a15 e6bc
00000280: ca2f d83c 823d 163d 5785 3cbc 4009 8ebc
00000290: 48a1 d5bd 3409 49be c176 25bd 11e9 1cbc
000002a0: 6c0f 3bbe 2f6c 9fbd 10ac aabc 34d8 143d
000002b0: 776e aa3c 8d1a 26be 0e57 8b3d 4980 59be
000002c0: f3e1 7e3d 2c53 123e 2595 8a3d 472c af3d
000002d0: 4ab2 413e a19b 43bd 1a8b d0bd 7b28 b1bd
000002e0: e6e0 ecbd 70de 1dbe b757 673c fee2 083d
000002f0: 4277 e93d 39b7 bebd 168d b33d d0fe 503d
00000300: d46f d03d 1afe 62bc 36c8 e03d 67d8 9f3d
00000310: beb4 363c 26cf 723c 7d75 4dbe 6708 b1bd
00000320: c44e c13d c31d 8d3c b701 003d a0bb 123d
00000330: 0133 ab3d 3b4a d9bc ff3f ae3d 99bc 3ebe
00000340: 03e0 1fbe 13f7 bd3d 8128 6d3d 47f2 78bd
00000350: deab fdbc 640b a53d c3ba 833d 6121 debd
00000360: 7075 92bc fa3c 8dbd de10 b13d e3fd 64bb
00000370: a2aa 2cbe b036 6e3d cd11 7b3d 6799 c4bd
00000380: e25a 26bc 7ecc e53c 78f6 03be 9bd8 42be
00000390: 4496 023c e828 afbb 1759 353c 4a5d e8bd
000003a0: 8bc9 56be 1024 4d3c 1bf6 213d 0ece d1bd
000003b0: 566b 613d f37b 92bd ae4e 603d b917 4fbd
000003c0: c888 88bc 7b82 21bc 70b5 10bd 22b6 32bd
000003d0: 3673 57be f8b4 c53d 873e 39bc 04b5 0f3d
000003e0: e0a9 9abb 0070 923c 8713 413d 1798 a93d
000003f0: 212f 8dbe 18b6 983d 4d1e b7bb 32be 273d

encoder.linear.bias f4 [40]
0.0044660913 0.00072245277 -0.0048774364 0.0025836816 0.026022755 0.0036849207 -0.000117624535 -0.002082099
-0.010552613 -0.009589563 0.0020827032 0.0035880746 0.009304952 0.010612878 0.025661523 0.0117596965
-0.0022439102 -0.011394288 -0.0064980756 0.01711695 0.005102751 -0.022592073 -0.020442694 0.014929475
-0.0083779115 0.011639419 0.00038465727 -0.018980708 0.010495185 0.028119458 -0.00085958187 -0.010867926
0.0020474356 -0.008020666 -0.0023580696 -0.00517115 0.00011024104 -0.0014831213 0.010205692 0.007838518
00000000: 4a58 923b fc62 3d3a e7d2 9fbb fc52 293b
00000010: ac2d d53c b67e 713b 31ad f6b8 d373 08bb
00000020: dee4 2cbc 8b1d 1dbc f67d 083b e725 6b3b
00000030: cc73 183c a3e1 2d3c 1d38 d23c beab 403c
00000040: 910e 13bb 1caf 3abc cfed d4bb d938 8c3c
00000050: fa34 a73b 0313 b9bc 7077 a7bc c29a 743c
00000060: 8243 09bc 43b3 3e3c d3ab c939 6e7d 9bbc
00000070: fff3 2b3c c75a e63c 9055 61ba 630f 32bc
00000080: 452e 063b 1d69 03bc d889 1abb c072 a9bb
00000090: 3531 e738 4b65 c2ba c635 273c 216d 003c

encoder.linear_.weight f4 [40, 2500]
-0.43670824 -0.5498101 -0.47579703 -0.5236024 -0.49830237 -0.6795105 -0.24437176 -0.48119208
-0.3243857 -0.681283 -0.6113185 -0.4051706 -0.53292537 -0.57745117 -0.4469506 -0.5748294
-0.38469258 -0.55242866 -0.4596882 -0.6127314 -0.57545185 -0.576879 -0.5525737 -0.3713858
-0.31718266 -0.5392865 -0.24669941 -0.5805798 -0.6373133 -0.5752384 -0.76198035 -0.40831438
-0.25353763 -0.531554 -0.47179672 -0.5704795 -0.383025 -0.56027603 -0.5918744 -0.5199724
-0.48404878 -0.5419023 -0.4742064 -0.37863183 -0.51346016 -0.20711483 -0.58464384 -0.5412371
-0.5755854 -0.5251302 -0.7175664 -0.65910476 -0.7405903 -0.66910493 -0.22586937 -0.5187605
-0.61580616 -0.4266402 -0.6029807 -0.4586554 -0.40309942 -0.408405 -0.45280915 -0.48697487
-0.6333103 -0.58115333 -0.5301932 -0.6384792 -0.5072568 -0.64019614 -0.6443014 -0.50333905
-0.5408017 -0.42734626 -0.4959305 -0.58651036 -0.44046998 -0.5031687 -0.5740014 -0.5657467
-0.6964733 -0.58303154 -0.49351686 -0.6123007 -0.5584223 -0.4087964 -0.5904693 -0.7447719
-0.28655535 -0.42466196 -0.52487284 -0.6242225 -0.41010886 -0.23534712 -0.56495094 -0.4329127
-0.70888686 -0.43898538 -0.58436066 -0.3085064 -0.6157737 -0.42968637 -0.5040069 -0.4209492
-0.42534503 -0.45175028 -0.6897001 -0.50502473 -0.5049592 -0.588023 -0.4228626 -0.4375364
-0.6354946 -0.5229679 -0.54214185 -0.5753366 -0.46081594 -0.51915544 -0.42038172 -0.73420715
-0.52016515 -0.44392997 -0.50731444 -0.68561417 -0.5110568 -0.4719622 -0.59502083 -0.6814665
-0.6746232 -0.63381785 -0.59674126 -0.5723531 -0.448278 -0.5576676 -0.60818034 -0.5382503
-0.50603455 -0.5429184 -0.4149086 -0.510315 -0.48769614 -0.5128985 -0.66574425 -0.6002862
-0.5747666 -0.4413144 -0.4188417 -0.22740714 -0.48962387 -0.43641987 -0.58260936 -0.63793766
-0.5546328 -0.5399204 -0.43151683 -0.5248455 -0.5109449 -0.47589672 -0.59783864 -0.65174574
-0.3405264 -0.67018604 -0.5486673 -0.53357965 -0.5205182 -0.45157915 -0.51078737 -0.5241989
-0.28604975 -0.60744107 -0.7174914 -0.40956575 -0.44396806 -0.64458495 -0.3705902 -0.62365323
-0.47548434 -0.5866536 -0.603134 -0.56134087 -0.44085565 -0.5119167 -0.55107164 -0.53294784
-0.5966686 -0.53161323 -0.5683104 -0.41314337 -0.38225755 -0.6859208 -0.47175232 -0.4377091
-0.5148073 -0.41089574 -0.41478223 -0.27980536 -0.5427552 -0.48149487 -0.58591425 -0.47193095
-0.41753027 -0.49391517 -0.6457531 -0.32594416 -0.5337355 -0.5618907 -0.57968724 -0.42598772
-0.5239413 -0.615096 -0.37652928 -0.5522308 -0.3621433 -0.25305206 -0.4506825 -0.61824137
-0.5312226 -0.78093135 -0.51592934 -0.39311782 -0.5549783 -0.5002407 -0.5191429 -0.57390213
-0.5079879 -0.29710236 -0.48112822 -0.4736202 -0.48227692 -0.55883133 -0.4170579 -0.21680944
-0.31963462 -0.50750005 -0.47335297 -0.49970376 -0.5657915 -0.64181703 -0.43558007 -0.45167416
-0.58704734 -0.52096516 -0.28697205 -0.68284166 -0.6851198 -0.5430811 -0.36869982 -0.5584033
-0.58312243 -0.3563765 -0.6823922 -0.42419705 -0.3634182 -0.34172228 -0.50431114 -0.387044
00000000: 3998 dfbe 5bc0 0cbf ab9b f3be cf0a 06bf
00000010: 7d21 ffbe 66f4 2dbf 973c 7abe cf5e f6be
00000020: e215 a6be 9068 2ebf 5f7f 1cbf 8572 cfbe
00000030: cc6d 08bf d7d3 13bf b6d6 e4be 0528 13bf
00000040: 6df6 c4be f76b 0dbf 405c ebbe f7db 1cbf
00000050: d050 13bf 58ae 13bf 7875 0dbf 4826 bebe
00000060: c465 a2be ae0e 0abf c59e 7cbe e1a0 14bf
00000070: f726 23bf d342 13bf 2511 43bf 950e d1be
00000080: afcf 81be ec13 08bf 578f f1be f20a 12bf
00000090: da1b c4be 406e 0fbf 1585 17bf e91c 05bf
000000a0: 3ed5 f7be 1cba 0abf 2ecb f2be 08dc c1be
000000b0: 2072 03bf e915 54be 38ab 15bf 848e 0abf
000000c0: 9159 13bf ef6e 06bf 6eb2 37bf 17bb 28bf
000000d0: 5397 3dbf 764a 2bbf 4d4a 67be 7dcd 04bf
000000e0: 79a5 1dbf 9670 dabe f15c 1abf e1d4 eabe
000000f0: 0c63 cebe 761a d1be 9ad6 e7be c554 f9be
00000100: a020 22bf 77c6 14bf beba 07bf 5f73 23bf
00000110: 95db 01bf e5e3 23bf f0f0 24bf d4da 00bf
00000120: fb71 0abf 21cd dabe 9aea fdbe 8b25 16bf
00000130: 4885 e1be aacf 00bf c1f1 12bf c7d4 10bf
00000140: 134c 32bf 8e41 15bf 3eae fcbe bdbf 1cbf
00000150: c4f4 0ebf c34d d1be ff28 17bf 5fa9 3ebf
00000160: 62b7 92be 4b6d d9be 115e 06bf 0ccd 1fbf
00000170: caf9 d1be d6fe 70be a0a0 10bf bca6 ddbe
00000180: 9c79 35bf b1c2 e0be a998 15bf 8df4 9dbe
00000190: 58a3 1dbf daff dbbe 9906 01bf a786 d7be
000001a0: d3c6 d9be d04b e7be 3090 30bf 4d49 01bf
000001b0: 0245 01bf ad88 16bf 7281 d8be c504 e0be
000001c0: c6af 22bf 39e1 05bf cfc9 0abf 4249 13bf
000001d0: 11f0 ebbe 5fe7 04bf 463c d7be 00f5 3bbf
000001e0: 8b29 05bf ca4a e3be 5cdf 01bf 6984 2fbf
000001f0: 9ed4 02bf 08a5 f1be 4953 18bf 9774 2ebf
00000200: 1bb4 2cbf e341 22bf 09c4 18bf bc85 12bf
00000210: b284 e5be 4ec3 0ebf b5b1 1bbf c6ca 09bf
00000220: 7b8b 01bf b3fc 0abf e66e d4be 01a4 02bf
00000230: 4fb3 f9be 514d 03bf 376e 2abf 5bac 19bf
00000240: e723 13bf f6f3 e1be 6b72 d6be 6bdd 68be
00000250: fbaf fabe 6d72 dfbe e325 15bf e24f 23bf
00000260: 6afc 0dbf 3938 0abf c6ef dcbe 465c 06bf
00000270: 49cd 02bf bca8 f3be f40b 19bf cfd8 26bf
00000280: 7a59 aebe 5091 2bbf 7675 0cbf ad98 08bf
00000290: ae40 05bf 6235 e7be f6c2 02bf e631 06bf
000002a0: 1d75 92be 4281 1bbf 84ad 37bf 9ab2 d1be
000002b0: c84f e3be 8503 25bf 00be bdbe bda7 1fbf
000002c0: af72 f3be ee2e 16bf fd66 1abf 09b4 0fbf
000002d0: d5b7 e1be f90c 03bf 0813 0dbf 456f 08bf
000002e0: 46bf 18bf ce17 08bf ca7c 11bf 8787 d3be
000002f0: 43b7 c3be 8198 2fbf 8589 f1be 681b e0be
00000300: 69ca 03bf ed60 d2be 565e d4be a642 8fbe
00000310: 01f2 0abf 7f86 f6be 7afe 15bf efa0 f1be
00000320: 87c6 d5be 73e2 fcbe 1350 25bf 27e2 a6be
00000330: e4a2 08bf 12d8 0fbf 6266 14bf 101b dabe
00000340: 0421 06bf ee76 1dbf 72c8 c0be ff5e 0dbf
00000350: d96a b9be 0a90 81be dbbf e6be 1145 1ebf
00000360: 34fe 07bf 1eeb 47bf f213 04bf bd46 c9be
00000370: 0f13 0ebf c60f 00bf 8de6 04bf 40eb 12bf
00000380: 7f0b 02bf cd1d 98be 7056 f6be 597e f2be
00000390: 00ed f6be 920f 0fbf 9d88 d5be 4b03 5ebe
000003a0: 26a7 a3be 86eb 01bf 525b f2be 2cd9 ffbe
000003b0: b6d7 10bf 1f4e 24bf 5a04 dfbe d641 e7be
000003c0: bc48 16bf f95d 05bf 00ee 92be b6ce 2ebf
000003d0: 0364 2fbf 5d07 0bbf 39c6 bcbe 85f3 0ebf
000003e0: 8347 15bf fb76 b6be 41b1 2ebf 5b30 d9be
000003f0: f311 babe 39f6 aebe 891a 01bf a22a c6be

encoder.linear_.bias f4 [40]
-0.8079892 -0.7725275 -0.87410855 -0.86446184 -0.8249592 -0.74698275 -0.78417623 -0.8366281
-0.76543474 -0.76655424 -0.79385966 -0.8401919 -0.92764163 -0.783931 -0.8728796 -0.8110019
-0.76244146 -0.7950946 -0.84866476 -0.8778808 -0.79573005 -0.9021226 -0.8344047 -0.84827733
-0.78214103 -0.8328855 -0.8462616 -0.8679826 -0.8124733 -0.91253 -0.82405114 -0.739734
-0.823938 -0.8745619 -0.85231537 -0.8760713 -0.83252823 -0.779684 -0.8291653 -0.79591185
00000000: 61d8 4ebf 5dc4 45bf 94c5 5fbf 5f4d 5dbf
00000010: 8730 53bf 433a 3fbf c6bf 48bf 422d 56bf
00000020: 88f3 43bf e63c 44bf 633a 4bbf d116 57bf
00000030: ec79 6dbf b4af 48bf 0a75 5fbf d29d 4fbf
00000040: 5d2f 43bf 528b 4bbf 1842 59bf ccbc 60bf
00000050: f7b4 4bbf 82f1 66bf 8c9b 55bf b428 59bf
00000060: 653a 48bf fc37 55bf 9aa4 58bf 1c34 5ebf
00000070: 40fe 4fbf 919b 69bf 04f5 52bf 355f 3dbf
00000080: 9aed 52bf 4ae3 5fbf 5731 5abf 3546 60bf
00000090: 9220 55bf 5f99 47bf 2d44 54bf e1c0 4bbf
