VGDAE_tnnls/feat_hecheng/baocun/syn_data_2.pth (torch, 801951 bytes, 4 tensors)

encoder.linear.weight f4 [40, 2500]
000000 72 56 30 3c ff 11 d7 3b 38 d7 d5 3c d5 83 ab 3d
       0.010762798 0.0065634246 0.0261036 0.08374754
000010 e6 84 e9 3c e4 0a 0a be fa b1 01 3e 73 1c 44 bd
       0.028505754 -0.13480717 0.12665549 -0.047878694
000020 32 d1 be 3d 7d df 34 3d 67 bb 62 bb 91 17 55 3d
       0.093172446 0.044158448 -0.0034596564 0.052024428
000030 58 cc c6 3d 11 c6 ed bd 9d e8 c1 bd a2 9a 24 be
       0.09706944 -0.11610044 -0.094681956 -0.16074613
000040 08 f7 95 bd 9d 84 e5 3c 91 56 80 3d d2 dc 63 be
       -0.07322508 0.028017337 0.06266511 -0.22252205
000050 14 e8 8e 3d bc 98 25 3e ae e2 0e be d3 7e e4 3c
       0.06977859 0.16171545 -0.13953659 0.027892506
000060 23 82 59 be 88 1e 2b be c8 a0 74 bb d8 06 f5 3c
       -0.2124105 -0.16710865 -0.0037327278 0.02991049
000070 dc 96 db bd 13 c7 10 3d 52 f2 36 be 43 c5 a8 bb
       -0.107221335 0.035346102 -0.17865875 -0.0051504686
000080 93 7e 3e ba 09 b1 82 3d 46 a3 25 bb 5a 3c 6f 3c
       -0.0007266786 0.06381423 -0.002527432 0.014601791
000090 b8 c3 ba 3d 29 8e 8b bd 0a 58 83 3d 65 d3 33 be
       0.09119362 -0.06814224 0.064132765 -0.1756111
0000a0 18 ef 1c be e8 de 3b 3d 63 ef c8 3d 84 fa a7 3c
       -0.15325582 0.045866877 0.098112844 0.020505197
0000b0 b0 39 a9 bb 6a 55 ef 3d 70 ba 02 be 10 16 04 be
       -0.0051643476 0.11686213 -0.12766433 -0.12899041
0000c0 fd 3b 9b 3d 90 54 82 bd 4f f3 65 be d8 27 0e 3d
       0.07579801 -0.06363785 -0.22456096 0.034705967
0000d0 56 89 d0 3d 78 d0 7f bd 74 62 05 be 85 b1 b8 bc
       0.10182445 -0.06245467 -0.13025838 -0.022545585
0000e0 2e d0 98 3d 84 06 2c 3e 4a d2 11 be eb 61 14 3e
       0.07461582 0.1679936 -0.14240375 0.14490478
0000f0 82 6b 40 be 5e a0 c9 bd 79 1c 2c be 75 4c 36 3d
       -0.18791011 -0.09845041 -0.16807736 0.04450651
000100 33 21 47 bd d1 5f 15 3d 43 95 c1 3d fa d2 0d be
       -0.048615646 0.03646833 0.094522975 -0.13850012
000110 0f c1 76 3d 9c 5d 2b 3c d6 e2 6e 3d f3 42 0e be
       0.06024271 0.01045933 0.058321796 -0.13892727
000120 49 6f 8a bd 3c c4 cd 3d 99 a1 10 3e 37 fb 94 bd
       -0.06759507 0.10047194 0.14124145 -0.07274478
000130 9c 87 26 3d 55 cf 8b 3c 77 6d aa bc 9b 4d ed bc
       0.04065667 0.017066637 -0.02080415 -0.02896767
000140 51 30 13 bc 72 4a eb bd 21 b0 88 3b a2 48 9d bd
       -0.0089836875 -0.11488809 0.004171387 -0.07679869
000150 be 5b 8b bd ab b8 40 3d a9 51 c6 3d 75 55 8b 3d
       -0.06804608 0.047051113 0.09683544 0.06803409
000160 6b a8 17 be 75 b0 72 3d 42 55 0a 3e 8d 29 ba 3c
       -0.1481034 0.059250314 0.13509086 0.022724891
000170 fa 8c a7 3d 9b b0 13 3e 00 c7 95 3d 44 4e 24 3b
       0.08181186 0.14422838 0.07313347 0.0025071064
000180 29 ac d3 3d c1 26 04 3e 93 dc fb 3c f8 9a 10 3e
       0.10335571 0.12905408 0.030744826 0.14121616
000190 f0 88 d4 3c 17 60 b1 3d 86 38 d5 3d 69 50 25 be
       0.025944203 0.08660906 0.104111716 -0.16143955
0001a0 08 2b ec 3c 51 5c 25 bd 0a 81 fe 3b 29 c8 64 bd
       0.028829113 -0.040371243 0.0077668475 -0.05585495
0001b0 14 02 c3 bd d8 4c 28 3d fb 76 d8 bd 23 93 95 3d
       -0.09521881 0.04108891 -0.10569569 0.07303455
0001c0 ae 41 27 be 79 78 eb 3d ec 42 2b bd d1 5f 1e 3c
       -0.16333649 0.11497588 -0.04181187 0.009666399
0001d0 1b d7 0c 3e 66 b4 da bc 82 cb 8e bc 83 56 d2 bb
       0.13753931 -0.026697349 -0.017431024 -0.0064190044
0001e0 6b c1 d6 3d ab ae ac bd 98 5e 85 3d 9a 46 2d bc
       0.1048611 -0.08431753 0.06512183 -0.010575915
0001f0 e3 5d 7d bd 31 b8 be 3d e3 54 0b 3e 5b cf 46 be
       -0.061857115 0.093124755 0.136066 -0.19415037
000200 87 5a 41 bd d4 fd 84 3d e8 83 1b bd 7b 2d a1 3d
       -0.047205474 0.064937264 -0.037967592 0.07870003
000210 b6 6e 70 3d 58 66 2f be 63 79 31 3d 21 48 10 bd
       0.058699332 -0.17128885 0.043328654 -0.035225037
000220 65 8b 09 3d 50 69 42 3e b6 64 1c be 2f f6 2a be
       0.033580203 0.18985486 -0.15272793 -0.16695474
000230 7a aa 0a 3d d2 a0 a0 3d da 17 14 bc 69 b2 9d 3c
       0.033853985 0.07843174 -0.00903889 0.019250112
000240 74 b5 8e 3d 8b 71 df 3d a8 f7 3b be 89 d0 03 be
       0.06968203 0.109103285 -0.18356192 -0.12872519
000250 9c 64 f7 3d 8b 78 cc bd 66 90 f4 3d 5b cd a9 3d
       0.120797366 -0.09983929 0.11941604 0.082911216
000260 fe 93 9d 3c 32 b1 ac 3d 1c 1f 10 3d e6 a9 26 be
       0.019235607 0.08432235 0.03518592 -0.16275749
000270 c7 9f 4c 3d fc c2 29 be ed f7 7c 3d 2c 15 a5 3d
       0.049957063 -0.16578287 0.061759878 0.08060679
000280 09 f2 5c 3d 9a 4a 27 3e 78 4f 83 3c 72 81 33 3d
       0.05394176 0.16337052 0.016029105 0.04382462
000290 c7 20 ed 3d 3c df 3b 3d 48 52 7d 3d 16 f8 f4 3d
       0.115785174 0.04586719 0.061846048 0.11961381
0002a0 f9 7d 1a be bd 64 bd bd be 1a 24 3e c0 dc 43 be
       -0.15087117 -0.0924773 0.16025826 -0.19127178
0002b0 9d e7 a7 3d 8e 8e 73 3c 48 03 6b 3c 66 18 a8 3b
       0.081984736 0.014865531 0.014344044 0.0051298616
0002c0 b0 55 45 3c 67 28 0d 3e 36 6d 9c 3c f0 db 5e 3d
       0.012044355 0.13784944 0.019095045 0.054408967
0002d0 17 cd 0a bc 3e af 59 3d 83 46 27 3e 69 a6 64 3d
       -0.008471749 0.05314564 0.16335492 0.055822764
0002e0 fa 8e 08 bb ff 09 ba bd 3c 10 27 bd d5 0e 6f 3d
       -0.0020837174 -0.09083938 -0.040786967 0.058363754
0002f0 7d 2a 2e 3d 25 1d c9 bd c1 40 84 3d 20 51 32 be
       0.04252099 -0.09820012 0.06457663 -0.17413759
000300 22 7e 62 be 7d 20 bb 3d fd 30 ec 3d 5a 5b 73 bb
       -0.22118428 0.09137056 0.11532781 -0.0037133307
000310 9c 1e 70 be 73 4d 00 3e cb f9 0e bd 46 95 e8 bc
       -0.23449177 0.12529545 -0.03490619 -0.028391492
000320 9a d2 d2 3d 03 5d c6 bb b5 93 08 3e bc d6 94 3d
       0.10294075 -0.0060535683 0.13337596 0.0726752
000330 27 5a 68 3d 73 5a 1e 3c f4 99 eb 3d 97 96 1f 3e
       0.0567266 0.009665119 0.115039736 0.15584789
000340 1c c3 56 bd 6d bc 48 bd 8e 1b 4b be 75 23 af bd
       -0.052432165 -0.04900782 -0.1983473 -0.08551685
000350 17 1c db 3c 0a f7 30 3e c7 ed 1d 3e eb 30 f1 3d
       0.026746793 0.17281738 0.15422736 0.117769085
000360 e4 78 97 3d 0b 4b 06 3d 47 34 fd bd f7 43 9a 3d
       0.07396105 0.03278641 -0.12363487 0.075324945
000370 8f 16 36 bd 6e bb a9 3d 0e f8 37 3e 4f ea 0b 3d
       -0.044455107 0.082877025 0.17965719 0.034159
000380 e0 1d e8 3c 84 98 d4 bd 94 d9 66 bd 59 65 8f bc
       0.028334558 -0.103806525 -0.056359842 -0.017504381
000390 9a b2 d7 bc 2b 5e 1e 3d 19 96 bc 3d 70 26 32 3d
       -0.026330281 0.038664024 0.09208316 0.043493688
0003a0 47 21 bf bc c4 9e 98 bd ac 0e 92 bd d2 5e fe bc
       -0.023331298 -0.07452157 -0.07131705 -0.031051073
0003b0 cb ee 08 bd ec 9d f6 3d 85 2f fa 3c b2 05 66 bc
       -0.033430856 0.1204184 0.030540237 -0.014039444
0003c0 17 07 11 bd 64 42 1d 3e b4 73 3e 3b c0 ad b7 bd
       -0.035407152 0.15357357 0.0029060664 -0.08968687
0003d0 d4 80 e9 3b 26 46 5a bd f2 74 19 be da 9a b7 bd
       0.007125953 -0.053289555 -0.14986017 -0.089650825
0003e0 6e 1c d7 bd d6 d8 f1 3d 0f 47 31 be ce 8b 84 3d
       -0.105034694 0.11808936 -0.17312263 0.06471978
0003f0 f7 03 45 be ef 15 00 be 34 28 e2 3d fc 8e 6f 3d
       -0.19239794 -0.12508367 0.110428244 0.05848597

encoder.linear.bias f4 [40]
000000 bd 63 71 bc a6 08 22 3b b4 01 55 3c 23 d6 d6 ba
       -0.014733252 0.0024724393 0.013000894 -0.0016390722
000010 8d d3 a1 3a 10 f4 6c bc 41 98 08 3c 07 89 41 bb
       0.0012346372 -0.014462486 0.008337081 -0.0029531138
000020 30 f2 f0 bc af e4 c9 bc d9 e8 52 bb e3 bf d6 39
       -0.029412359 -0.024645178 -0.0032182245 0.00040960227
000030 82 dd 17 bc 83 64 22 ba e4 d6 ae bc 62 ee c2 3b
       -0.00926912 -0.0006194787 -0.021342702 0.0059488276
000040 a5 e1 f4 ba 0a 1e 27 bb 26 51 d7 bb 0e 18 43 bb
       -0.001868297 -0.0025500082 -0.006570953 -0.0029768976
000050 7f 92 6e bc 38 c9 7d bb 39 e0 6a bb 3b 6b 1c bc
       -0.014561295 -0.0038724672 -0.0035839214 -0.00954705
000060 ec fb 21 3c 66 bd 15 3c f2 92 82 3c 8a 83 e8 3b
       0.009886723 0.009139394 0.01593921 0.007095759
000070 70 e1 ab 3b 60 93 be 39 fb a7 3d 3c 1f 6d e6 bb
       0.00524538 0.00036349427 0.011575694 -0.007032051
000080 9b 92 82 bb d3 21 97 3c a8 00 45 3c fd 67 dc 3b
       -0.003984762 0.018448746 0.012024082 0.0067262636
000090 db be de ba 82 b0 de 3b 63 71 72 3c 1e 87 a3 3a
       -0.0016994135 0.0067959437 0.014797541 0.0012476181

encoder.linear_.weight f4 [40, 2500]
000000 27 ae 00 bf 0d 49 f2 be 28 2c f4 be 2e c4 bd be
       -0.50265735 -0.47321358 -0.4768994 -0.37063736
000010 00 71 d1 be ef 94 08 bf 1b ee 24 be 10 23 89 be
       -0.40906525 -0.53352255 -0.16106455 -0.26784563
000020 eb 87 c0 be 51 59 f9 be fa 6e a9 be 47 7e ec be
       -0.37603697 -0.48700956 -0.3309248 -0.46190092
000030 72 80 ff be 11 8d c2 be e2 e3 15 bf ec 5e 97 be
       -0.49902683 -0.3799825 -0.58550847 -0.29564607
000040 35 aa ce be 48 04 78 be 09 e1 3a be 10 7a c9 be
       -0.40364233 -0.24220383 -0.18249907 -0.3935094
000050 73 52 f9 be fc 8c d0 be c5 35 9b be 89 7b 80 be
       -0.48695716 -0.40732563 -0.3031446 -0.2509425
000060 ee 60 6d be 02 c2 b0 be fb aa 9a be ff 50 db be
       -0.23181507 -0.34523016 -0.30208573 -0.42835233
000070 ce 8d cf be b3 a4 29 bf 9b 70 c0 be 06 10 a6 be
       -0.40537876 -0.66266936 -0.3758591 -0.324341
000080 b3 00 54 be 35 81 e2 be 21 34 08 bf 5b b0 83 be
       -0.20703392 -0.44239202 -0.5320454 -0.25720486
000090 c9 eb 9d be b7 68 f0 be a2 c4 65 be e6 ab e9 be
       -0.30843952 -0.4695489 -0.2243829 -0.4563896
0000a0 53 8f e5 be 50 d7 bb be 99 b4 c0 be 36 2f 0e bf
       -0.4483591 -0.36687708 -0.37637785 -0.5554079
0000b0 c6 1f bc be 32 8c 68 be 14 c9 ee be a1 e9 cf be
       -0.3674299 -0.2270973 -0.46637785 -0.40607932
0000c0 08 13 0d bf 40 e9 03 bf 48 61 83 be 07 d6 00 bf
       -0.55107164 -0.51527786 -0.25660157 -0.5032658
0000d0 e5 50 06 bf 87 86 bb be 00 54 ab be c0 21 b7 be
       -0.52467185 -0.36626074 -0.33462524 -0.35767937
0000e0 ed 90 e4 be 1d ed f5 be 4b 12 f2 be d9 b2 e7 be
       -0.4464182 -0.48032466 -0.4727958 -0.45253637
0000f0 09 30 d9 be 72 98 38 be 05 d8 98 be 3a 06 aa be
       -0.4241946 -0.18026903 -0.2985231 -0.33207875
000100 04 ed 12 bf 06 ef e7 be 3c 92 02 bf b3 e2 11 bf
       -0.5739291 -0.45299548 -0.51004386 -0.5698654
000110 e3 b0 d9 be c7 98 14 bf 4f e9 15 bf c8 27 05 bf
       -0.42517766 -0.5804562 -0.58559126 -0.52013826
000120 e6 01 f6 be 60 5a b0 be df ff ea be 06 b1 ec be
       -0.48048323 -0.3444395 -0.4589834 -0.46228808
000130 e5 29 a4 be dd 75 bb be 93 1b c3 be b7 d3 bc be
       -0.32063213 -0.3661336 -0.38106975 -0.36880276
000140 98 c6 ec be a5 00 0e bf 09 32 d3 be b8 bb e4 be
       -0.46245265 -0.55469733 -0.4124911 -0.44674468
000150 57 ef d4 be cd a7 ec be 61 2b a4 be a5 ca 06 bf
       -0.41588852 -0.46221772 -0.32064345 -0.5265296
000160 1a 95 d6 be 61 47 af be e6 7e e8 be 94 d4 e2 be
       -0.4191063 -0.34234145 -0.45409316 -0.4430281
000170 ad d0 03 bf 45 23 b6 be ed f9 1b bf d6 fe b8 be
       -0.5149029 -0.35573784 -0.6092823 -0.36131924
000180 5a 33 28 bf 97 4a 9e be 4d 92 a2 be 99 db d1 be
       -0.65703356 -0.30916283 -0.31752244 -0.40987852
000190 9c 9d ea be 09 ec af be cf b9 ee be f3 02 a9 be
       -0.4582337 -0.34359768 -0.46626136 -0.33010063
0001a0 9d dd 69 be 9a dd d8 be 81 b8 12 bf ea 87 16 bf
       -0.22838445 -0.4235657 -0.5731278 -0.5880114
0001b0 6c 4a ff be b7 7a 99 be 7b 29 d2 be 22 28 e3 be
       -0.49861467 -0.29976436 -0.41047272 -0.44366556
0001c0 3c 7a ef be 32 e3 d2 be 3d bb cc be 26 7d e6 be
       -0.46772945 -0.4118896 -0.399866 -0.45017356
0001d0 d3 4a e0 be 0f e2 ee be d2 a5 ae be f9 f8 19 bf
       -0.43807086 -0.46656844 -0.34110886 -0.6014553
0001e0 3a ac c5 be 3a 0e 1c bf 16 e9 e4 be cc 73 fb be
       -0.3860796 -0.6095921 -0.4470908 -0.49111784
0001f0 e5 0f 95 be e2 8a b9 be e4 da f5 be 30 e7 03 bf
       -0.2911369 -0.36238772 -0.48018563 -0.5152464
000200 c2 bc 02 bf 74 6d dc be 21 58 f2 be 08 c8 9c be
       -0.5106927 -0.43052256 -0.47332862 -0.30621362
000210 94 b1 f3 be 19 88 f8 be 05 a7 0d bf 78 16 bc be
       -0.4759642 -0.48541334 -0.55332977 -0.36735892
000220 64 eb ff be 29 99 b5 be 06 83 9e be 18 17 e8 be
       -0.49984276 -0.35468414 -0.30959338 -0.4533012
000230 83 8a e9 be 3b 89 c2 be 0f 50 fe be a5 71 e4 be
       -0.4561349 -0.37995324 -0.49670455 -0.44617954
000240 db ec c9 be 36 0e 03 bf 8f 45 a4 be 0d 23 0e be
       -0.3943852 -0.5119356 -0.3208432 -0.13880558
000250 93 e6 c4 be 5d 68 af be e3 b1 ff be e3 cb 0d bf
       -0.38457164 -0.3425931 -0.49940404 -0.5538923
000260 d9 c2 f6 be d1 2d dc be 41 1c 93 be 67 a8 0d bf
       -0.48195532 -0.43003705 -0.28732494 -0.55335087
000270 62 46 e9 be 83 11 72 be 4c 04 03 bf 7d b5 18 bf
       -0.4556151 -0.23639493 -0.5117843 -0.5965193
000280 e7 48 92 be 66 54 e0 be 1d 11 0c bf 28 d9 86 be
       -0.28571245 -0.4381439 -0.5471361 -0.26337552
000290 24 59 7f be 6c 2a ec be 72 ca ca be 92 17 89 be
       -0.24936348 -0.46126115 -0.3960758 -0.26775795
0002a0 06 3d 11 be 5d 0d 04 bf e8 7f 11 bf 20 07 d9 be
       -0.14183435 -0.5158289 -0.56835794 -0.42388248
0002b0 98 ef f1 be 7e 87 0f bf 7b 7a aa be 6c 67 ca be
       -0.47253108 -0.5606612 -0.3329657 -0.3953203
0002c0 b3 07 ec be 4e bc 0e bf b3 f6 de be ac 9d ea be
       -0.46099624 -0.5575608 -0.43547592 -0.4582342
0002d0 14 cd aa be 7c 31 00 bf 9e 47 e9 be 89 6f d1 be
       -0.33359587 -0.5007551 -0.45562452 -0.40905407
0002e0 0a 1e f9 be a2 85 01 bf 8e 04 e7 be a1 b8 90 be
       -0.4865573 -0.5059453 -0.45120662 -0.2826586
0002f0 a5 74 fe be a9 e2 cf be f4 e9 a4 be 1d 38 f9 be
       -0.49698368 -0.40602615 -0.32209742 -0.48675624
000300 21 a6 d3 be 99 21 bd be 5c 67 b9 be 09 b5 5d be
       -0.41337684 -0.36939695 -0.3621167 -0.2165109
000310 e7 b5 c3 be 90 24 e7 be f1 22 e0 be c7 e8 be be
       -0.38224718 -0.45145082 -0.43776658 -0.3728697
000320 d9 c4 f9 be 7b ea f3 be 0d da 02 bf d2 6c b4 be
       -0.48782995 -0.47639832 -0.5111397 -0.35239273
000330 5c de da be 53 4a 09 bf e1 48 e8 be c8 1a e4 be
       -0.42747772 -0.53629035 -0.45368102 -0.44551682
000340 4e 33 a2 be 63 a5 28 bf b7 ab a8 be 69 c9 6c be
       -0.31679767 -0.6587736 -0.32943508 -0.23123707
000350 59 f2 9a be 53 90 67 be 4f e6 f3 be c4 95 0d bf
       -0.30263022 -0.22613649 -0.4763665 -0.5530665
000360 e3 ec f3 be 31 69 07 bf 52 58 cf be ce 26 de be
       -0.47641668 -0.52894884 -0.4049707 -0.4338898
000370 03 61 f6 be c8 36 ca be 4c 27 1c bf b7 33 f8 be
       -0.4812089 -0.3949492 -0.6099746 -0.48476955
000380 48 cc 00 bf 36 ad 06 be f5 c4 ce be 9e 8d 8a be
       -0.5031171 -0.13152012 -0.4038464 -0.2706117
000390 97 cd c3 be dc ac b7 be 3d bf b6 be d6 0f ad be
       -0.3824279 -0.3587407 -0.35692778 -0.33801144
0003a0 e1 4f 97 be 99 9c 99 be 0c 63 02 bf 99 cf 63 be
       -0.2955313 -0.30002287 -0.50932384 -0.22247161
0003b0 b0 42 07 bf c6 82 f0 be de b0 11 bf 6f 46 e9 be
       -0.5283613 -0.46974772 -0.569105 -0.4556155
0003c0 b3 a5 f7 be b0 50 da be 2e c2 d2 be 84 af b9 be
       -0.48368606 -0.42639685 -0.41163772 -0.3626672
0003d0 43 8c c6 be 61 c6 0f bf c6 2e da be 6d db 06 bf
       -0.38778886 -0.5616208 -0.4261381 -0.5267857
0003e0 42 4d c5 be cf fc 91 be b7 10 d7 be 29 8d e4 be
       -0.38535506 -0.2851319 -0.4200494 -0.44638947
0003f0 ee 98 9f be 73 86 89 be 3d 22 d3 be 14 85 8a be
       -0.31171364 -0.2686039 -0.4123706 -0.27054656

encoder.linear_.bias f4 [40]
000000 9d bf 38 bf 39 a5 2e bf b2 e8 45 bf 96 ef 32 bf
       -0.7216738 -0.6822086 -0.7730819 -0.6989683
000010 4d 4a 2b bf 7e 49 36 bf bc b7 32 bf 61 b8 2b bf
       -0.6691025 -0.7120589 -0.69811606 -0.67078215
000020 1f ab 3b bf b1 8b 49 bf 6c 7b 26 bf e4 13 33 bf
       -0.73307985 -0.7872878 -0.65032077 -0.69952226
000030 7e 79 2b bf 46 66 27 bf b8 11 32 bf 6e 2b 27 bf
       -0.6698226 -0.6539043 -0.69558287 -0.65300643
000040 6b f7 2e bf 0c 43 2c bf 8c d0 32 bf 95 0a 2a bf
       -0.6834628 -0.67289805 -0.6984947 -0.66422397
000050 0e fd 40 bf 81 86 3b bf 94 1d 27 bf 94 00 3b bf
       -0.7538613 -0.7325211 -0.6527951 -0.7304776
000060 12 dd 2b bf d1 74 33 bf 4e b3 35 bf ad ed 27 bf
       -0.671342 -0.7010012 -0.7097672 -0.6559704
000070 99 12 3b bf e8 30 31 bf 5c de 36 bf 2a bd 32 bf
       -0.7307525 -0.6921525 -0.71433043 -0.6981989
000080 c8 bd 2b bf f8 5f 32 bf d4 a0 3b bf f8 19 2f bf
       -0.6708646 -0.69677687 -0.7329228 -0.68399
000090 d7 dd 3c bf 92 96 34 bf c4 e6 34 bf 41 cd 34 bf
       -0.73776 -0.7054225 -0.7066462 -0.7062569
