VGDAE_tnnls/feat_hecheng/baocun/syn_data_1.pth (torch, 801951 bytes, 4 tensors)

encoder.linear.weight f4 [40, 2500]
0.0063521946 0.0022698813 -0.05626181 0.015086251 -0.08900329 0.010470753 0.11561491 -0.004632744
-0.011872933 -0.034811888 0.048607275 -0.033598296 0.035509754 -0.06430077 -0.01733915 -0.020213801
0.011564342 -0.027517898 0.02511923 0.07510671 -0.009801741 -0.023650805 -0.07900166 0.0018213888
-0.013606001 -0.01160102 0.12094474 0.09932763 0.037925802 -0.005043971 -0.025289422 -0.04780333
-0.04637264 0.036120314 -0.005213097 0.063869774 -0.075232275 0.0037726294 0.06969452 -0.07315108
-0.030116538 -0.050275523 -0.08999279 -0.0072830007 0.038975462 -0.07966503 -0.021084663 -0.042074237
-0.04098147 0.07623915 0.06663467 0.087574236 -0.09380166 0.028003851 0.015909957 -0.016466392
-0.016049089 0.010534359 0.13365816 -0.036045723 0.10702939 0.014478383 -0.039527472 -0.0114777535
-0.06346944 -0.05489149 -0.045463026 -0.05313443 0.05016679 -0.101577 -0.04253851 0.01613858
-0.05480595 0.04907298 -0.046073306 0.018142922 -0.009607455 -0.050418068 -0.030708665 -0.075238995
-0.069254145 0.056684054 -0.049109396 -0.08026439 -0.05543894 -0.09638634 0.13587405 -0.097411096
0.06137617 -0.022320839 0.040415894 0.07144126 0.034296453 0.015119121 -0.0148073165 0.09088701
0.020533841 -0.07810849 0.03835958 -0.020181738 -0.06286553 -0.019722894 -0.09582278 -0.0076233144
-0.018869894 0.02217387 -0.07879277 0.024804125 0.005442996 -0.023332862 0.022679051 0.044645082
-0.054922782 -0.0790883 0.0076330705 0.011090536 -0.048988197 -0.089083456 0.018570172 0.014941007
-0.01869304 0.0070330612 -0.0065943883 -0.04740651 0.014059329 -0.019595938 -0.01200753 0.0063040997
0.007535287 -0.06490757 -0.10609563 -0.006046502 -0.04565236 0.026924506 -0.041730307 -0.00061011343
0.06861298 -0.03720138 0.021657439 -0.049683686 -0.0012867406 -0.08321306 0.053835902 -0.02561264
0.005774306 0.016078772 -0.061087877 0.0024446782 -0.09382317 0.03453857 0.0644969 0.054183614
-0.033540517 -0.06663564 -0.00906422 -0.020396778 0.007103803 -0.10105721 -0.032731064 -0.037796117
-0.053034034 -0.0054768645 -0.03699981 0.008454382 0.03733342 -0.07399502 -0.007834528 0.048286155
-0.06382006 -0.015093821 -0.05292835 0.013489369 -0.014822056 -0.05953318 -0.044585355 -0.15157844
0.009304638 -0.004956519 -0.008576165 0.1109554 -0.057158593 0.011505256 -0.14482918 0.046366278
-0.039267566 -0.030561663 -0.026600564 -0.052886497 -0.03864422 -0.09760947 -0.031607464 -0.016415477
-0.013141887 0.07156248 0.027058095 0.008258567 -0.06568306 -0.03147711 -0.048022803 -0.06527411
0.020008449 -0.068531394 -0.06857846 -0.042570494 0.013422826 0.04794308 -0.0078088674 -0.047635633
0.0099033145 0.012360043 -0.025462864 -0.0034113443 -0.09691376 0.22790864 -0.077037685 0.056307938
-0.037343338 -0.032047216 0.021643743 -0.085076354 -0.032635078 -0.014866072 -0.040986475 -0.011184784
-0.027417343 0.08794986 -0.056360275 -0.04892106 0.017344704 -0.002175417 0.0075091175 0.08771593
0.017146038 -0.03491924 -0.052792914 0.010428146 -0.041153982 -0.081893206 -0.092414394 -0.008528784
0.12719505 0.06871647 0.025482526 -0.028849643 -0.07158916 0.05245567 -0.013015372 -0.03559462
-0.010173011 -0.1207672 0.0391648 -0.031782977 -0.08062334 0.04057699 0.018138336 -0.072943196
00000000: 1226 d03b 4ac2 143b c972 66bd 532c 773c
00000010: 5b47 b6bd 858d 2b3c 83c7 ec3d 46ce 97bb
00000020: b186 42bc e996 0ebd 6c18 473d 5e9e 09bd
00000030: ad72 113d 1fb0 83bd d50a 8ebc 6a97 a5bc
00000040: 5e78 3d3c 376d e1bc d8c6 cd3c 8cd1 993d
00000050: 7b97 20bc 55bf c1bc 9fcb a1bd abbb ee3a
00000060: b4eb 5ebc 3412 3ebc e0b1 f73d 496c cb3d
00000070: 1658 1b3d e547 a5bb c32b cfbc 6dcd 43bd
00000080: 3df1 3dbd e5f2 133d a1d2 aabb 28ce 823d
00000090: 6113 9abd 383e 773b 00bc 8e3d 3cd0 95bd
000000a0: f5b6 f6bc b5ed 4dbd 244e b8bd 3da6 eebb
000000b0: bca4 1f3d 6b27 a3bd beb9 acbc 0956 2cbd
000000c0: 30dc 27bd 4523 9c3d c277 883d 1f5a b33d
000000d0: 161b c0bd 5568 e53c 9955 823c 87e4 86bc
000000e0: 6179 83bc 4e98 2c3c afdd 083e aea4 13bd
000000f0: 3a32 db3d bd36 6d3c 8fe7 21bd 300d 3cbc
00000100: 44fc 81bd e6d5 60bd 7037 3abd 7da3 59bd
00000110: b17b 4d3d 9a07 d0bd dc3c 2ebd 0e35 843c
00000120: 347c 60bd c000 493d 5db7 3cbd 77a0 943c
00000130: 9668 1dbc 2d83 4ebd bd90 fbbc e716 9abd
00000140: 1ed5 8dbd 8a2d 683d ef26 49bd a861 a4bd
00000150: f113 63bd 3466 c5bd 9122 0b3e 787f c7bd
00000160: 9465 7b3d 31da b6bc 238b 253d cc4f 923d
00000170: 707a 0c3d 31b6 773c 639a 72bc f822 ba3d
00000180: 9636 a83c 58f7 9fbd ef1e 1d3d 2c54 a5bc
00000190: a5bf 80bd e891 a1bc bc3e c4bd ffcc f9bb
000001a0: 0995 9abc faa5 b53c 1b5e a1bd 0532 cb3c
000001b0: 295b b23b 8f24 bfbc 6bc9 b93c c3dd 363d
000001c0: b6f6 60bd 0cf9 a1bd d61e fa3b 14b5 353c
000001d0: d9a7 48bd 6371 b6bd 7920 983c 20cb 743c
000001e0: 2522 99bc 9875 e63b bd15 d8bb 542d 42bd
000001f0: 1a59 663c a987 a0bc 3bbb 44bc 9f92 ce3b
00000200: 92ea f63b 43ee 84bd aa48 d9bd bc21 c6bb
00000210: f8fd 3abd c890 dc3c 66ed 2abd 05f0 1fba
00000220: f684 8c3d 7960 18bd f16a b13c 1f81 4bbd
00000230: daa7 a8ba 9c6b aabd 0983 5c3d 99d1 d1bc
00000240: 6436 bd3b a1b7 833c 4837 7abd e536 203b
00000250: 5d26 c0bd 5178 0d3d f316 843d a3ef 5d3d
00000260: c861 09bd 4478 88bd 1882 14bc 2517 a7bc
00000270: 05c7 e83b 15f7 cebd 0211 06bd 1ad0 1abd
00000280: 373a 59bd 4577 b3bb 1d8d 17bd 4084 0a3c
00000290: eeea 183d b38a 97bd 645c 00bc b4c7 453d
000002a0: 17b4 82bd 134c 77bc 66cb 58bd 8402 5d3c
000002b0: 35d8 72bc 10d9 73bd 229f 36bd 6137 1bbe
000002c0: 7b72 183c 4c6a a2bb 0b83 0cbc 963c e33d
000002d0: 211f 6abd 8b80 3c3c 1a4e 14be 91ea 3d3d
000002e0: 07d7 20bd 745c fabc 6de9 d9bc 839f 58bd
000002f0: 6749 1ebd 79e7 c7bd d476 01bd c079 86bc
00000300: 1251 57bc 598f 923d f0a8 dd3c f14e 073c
00000310: d784 86bd 24ee 00bd 8fb3 44bd 6fae 85bd
00000320: c2e8 a33c 305a 8cbd dd72 8cbd 665e 2ebd
00000330: 6aeb 5b3c f75f 443d 87e1 ffbb 951d 43bd
00000340: 8341 223c c781 4a3c 7f97 d0bc dc90 5fbb
00000350: b97a c6bd e260 693e efc5 9dbd 27a3 663d
00000360: 54f5 18bd f143 03bd 384e b13c 833c aebd
00000370: 5cac 05bd d390 73bc 6fe1 27bd 6240 37bc
00000380: 569a e0bc 0e1f b43d 08da 66bd 7361 48bd
00000390: 7b16 8e3c 7191 0ebb 0b0f f63b 69a4 b33d
000003a0: d975 8c3c 7a07 0fbd 623d 58bd d1da 2a3c
000003b0: 1491 28bd a0b7 a7bd c243 bdbd 50bc 0bbc
000003c0: 6b3f 023e 38bb 8c3d bbc0 d03c 1656 ecbc
000003d0: 569d 92bd c2db 563d 6d3e 55bc aacb 11bd
000003e0: b3ac 26bc cb54 f7bd 456b 203d de2e 02bd
000003f0: da1d a5bd 0f34 263d d996 943c 3e63 95bd

encoder.linear.bias f4 [40]
0.004244761 -0.007860681 -0.0037938366 0.007634429 -0.0026180302 -0.014434905 -0.022964064 0.0044723786
-0.00091517135 0.025503647 0.024720585 0.0085110795 0.017071834 -0.0035414712 -0.0034114483 0.0058911843
0.037340537 0.0005161452 0.03540002 0.0070530106 0.0064898394 0.011415493 -0.015233185 -0.0014373368
-0.005704653 -0.025175005 0.009877174 0.008844686 0.0021272711 -0.00914401 0.00738049 0.013695443
-0.009363752 0.007902819 -0.013039794 -1.6789803e-05 -0.021378305 -0.008288492 0.0053684292 -0.032348476
00000000: a317 8b3b 16ca 00bc 04a2 78bb 3b2a fa3b
00000010: 4293 2bbb 6180 6cbc 221f bcbc 088d 923b
00000020: 1ce8 6fba 06ed d03c d382 ca3c 0e72 0b3c
00000030: 3bda 8b3c 0718 68bb 9b92 5fbb d60a c13b
00000040: 64f2 183d eb4d 073a 9dff 103d f11c e73b
00000050: b8a8 d43b 0c08 3b3c 9c94 79bc 0565 bcba
00000060: 19ee babb d03b cebc dfd3 213c 4de9 103c
00000070: b069 0b3b c2d0 15bc 0ad8 f13b da62 603c
00000080: 6c6a 19bc d37a 013c dca4 55bc d4d7 8cb7
00000090: 8e21 afbc 75cc 07bc a6e9 af3b d67f 04bd

encoder.linear_.weight f4 [40, 2500]
-0.31112567 -0.5109028 -0.53938085 -0.49823195 -0.5002145 -0.6523921 -0.38296217 -0.53274775
-0.40832296 -0.5776247 -0.47644287 -0.63348347 -0.72035533 -0.5944345 -0.6063107 -0.479027
-0.51477873 -0.5995588 -0.5681406 -0.5154724 -0.58373296 -0.41610566 -0.44079685 -0.4549735
-0.5046686 -0.48471773 -0.26685023 -0.55228364 -0.664719 -0.5337528 -0.43992054 -0.44588044
-0.430027 -0.40997043 -0.59579504 -0.33123928 -0.4997983 -0.41735855 -0.5254046 -0.46667945
-0.5320509 -0.48917106 -0.40649155 -0.39966258 -0.4574934 -0.51106876 -0.41980863 -0.5662256
-0.6850908 -0.559757 -0.532133 -0.5570699 -0.54637796 -0.51462674 -0.49863598 -0.4450865
-0.5505807 -0.40352538 -0.48497233 -0.53297734 -0.4791289 -0.44557106 -0.44181296 -0.53747374
-0.41362476 -0.4057157 -0.6560443 -0.6634114 -0.5515206 -0.5664003 -0.55978364 -0.5596983
-0.4436706 -0.34103864 -0.48315594 -0.44368348 -0.4660777 -0.4424419 -0.54475164 -0.47997501
-0.6395727 -0.4247119 -0.48915872 -0.52127904 -0.7070427 -0.6155645 -0.47502336 -0.44996688
-0.50479925 -0.50209624 -0.5215654 -0.45594004 -0.5686169 -0.55076605 -0.5593693 -0.312388
-0.55887866 -0.64326376 -0.39444277 -0.4152041 -0.5506668 -0.63529646 -0.31159076 -0.50966126
-0.485495 -0.4130557 -0.65941375 -0.5327697 -0.52573067 -0.58116627 -0.6302436 -0.6137867
-0.6417502 -0.49302283 -0.57037985 -0.6471069 -0.53445375 -0.52234864 -0.65657055 -0.5609345
-0.5611775 -0.55506504 -0.51920956 -0.5984712 -0.46776032 -0.5776909 -0.54408604 -0.629151
-0.53571945 -0.53011936 -0.6056425 -0.53957736 -0.59761935 -0.48188224 -0.539144 -0.46779093
-0.35382926 -0.47175992 -0.35810792 -0.5097223 -0.4818996 -0.49451232 -0.5749489 -0.62426347
-0.43148136 -0.68352044 -0.4775058 -0.36039853 -0.4720972 -0.4515218 -0.5618779 -0.49668115
-0.5415409 -0.62433946 -0.5675975 -0.62497973 -0.50121 -0.26663408 -0.54091513 -0.50939256
-0.525798 -0.5817943 -0.6163409 -0.49982497 -0.46962422 -0.54687667 -0.42638543 -0.3250961
-0.48579806 -0.5815316 -0.64777255 -0.5040886 -0.61497355 -0.57578206 -0.38076797 -0.5308402
-0.68208903 -0.6191624 -0.43636158 -0.5224643 -0.6389102 -0.6229636 -0.27038756 -0.55607444
-0.6153214 -0.46344444 -0.49683177 -0.6670464 -0.5503353 -0.42759913 -0.4234763 -0.4776904
-0.63759315 -0.45753503 -0.21160121 -0.403418 -0.5582426 -0.5689425 -0.50377864 -0.47821924
-0.5604695 -0.5384528 -0.5965707 -0.49794152 -0.5869235 -0.62212974 -0.47055602 -0.5999899
-0.5052107 -0.5022889 -0.6018499 -0.51356035 -0.15225881 -0.4767821 -0.41233507 -0.69570464
-0.4843449 -0.5331908 -0.5201012 -0.5243567 -0.56014943 -0.5232603 -0.47180358 -0.6513344
-0.60989463 -0.4309148 -0.48955718 -0.5798998 -0.5738325 -0.53239375 -0.6820145 -0.49668017
-0.41201583 -0.50665855 -0.53665346 -0.7314741 -0.55739146 -0.68735605 -0.4993614 -0.43520182
-0.45571202 -0.632616 -0.5887664 -0.55133337 -0.56037563 -0.43469855 -0.60549545 -0.61227334
-0.37754056 -0.4842807 -0.4839677 -0.6075877 -0.45469275 -0.4454607 -0.34199733 -0.56600326
00000000: dd4b 9fbe 87ca 02bf dd14 0abf 4218 ffbe
00000010: 0f0e 00bf 2b03 27bf 9e13 c4be 2862 08bf
00000020: b50f d1be 36df 13bf 52f0 f3be f92b 22bf
00000030: 3569 38bf dc2c 18bf 2e37 1bbf 0743 f5be
00000040: 8ac8 03bf af7c 19bf aa71 11bf 00f6 03bf
00000050: 866f 15bf cd0b d5be 20b0 e1be 49f2 e8be
00000060: f631 01bf ec2c f8be 98a0 88be 7662 0dbf
00000070: 062b 2abf 06a4 08bf 443d e1be 714a e4be
00000080: 802c dcbe a5e7 d1be 0686 18bf 3298 a9be
00000090: 90e5 ffbe 05b0 d5be ea80 06bf 9cf0 eebe
000000a0: 7d34 08bf a174 fabe a91f d0be 93a0 ccbe
000000b0: 933c eabe 67d5 02bf 28f1 d6be 29f4 10bf
000000c0: 1c62 2fbf 3c4c 0fbf de39 08bf 229c 0ebf
000000d0: 6ddf 0bbf 94be 03bf 374d ffbe 61e2 e3be
000000e0: dbf2 0cbf e19a cebe 4b4e f8be 3471 08bf
000000f0: 6250 f5be e421 e4be 4f35 e2be e197 09bf
00000100: a0c6 d3be f8b9 cfbe 85f2 27bf 54d5 29bf
00000110: 7430 0dbf 9cff 10bf fb4d 0fbf 6348 0fbf
00000120: cb28 e3be 9e9c aebe 3760 f7be 7b2a e3be
00000130: bca1 eebe bf87 e2be d874 0bbf 49bf f5be
00000140: 09bb 23bf d773 d9be 0373 fabe 8b72 05bf
00000150: c000 35bf a395 1dbf 4336 f3be 0f62 e6be
00000160: 863a 01bf 6189 00bf 4f85 05bf f970 e9be
00000170: e190 11bf 01ff 0cbf d432 0fbf 52f1 9fbe
00000180: ac12 0fbf efac 24bf 67f4 c9be a295 d4be
00000190: 80f8 0cbf caa2 22bf d388 9fbe 2979 02bf
000001a0: cd92 f8be 097c d3be 57cf 28bf 9863 08bf
000001b0: 4996 06bf 50c7 14bf a557 21bf 2021 1dbf
000001c0: be49 24bf 7d6d fcbe 6a04 12bf cca8 25bf
000001d0: f6d1 08bf a4b8 05bf 0215 28bf 6799 0fbf
000001e0: 54a9 0fbf be18 0ebf ebea 04bf 6935 19bf
000001f0: 487e efbe 8de3 13bf 3949 0bbf 0a10 21bf
00000200: e924 09bf e7b5 07bf 630b 1bbf be21 0abf
00000210: 95fd 18bf 45b9 f6be 5705 0abf 4b82 efbe
00000220: 1c29 b5be 848a f1be ec59 b7be 297d 02bf
00000230: 8bbb f6be b830 fdbe da2f 13bf bbcf 1fbf
00000240: 20eb dcbe 32fb 2ebf a47b f4be 2886 b8be
00000250: b9b6 f1be de2d e7be 3bd7 0fbf fe4c febe
00000260: 6da2 0abf b6d4 1fbf 124e 11bf acfe 1fbf
00000270: 4c4f 00bf 4384 88be 6a79 0abf 8d67 02bf
00000280: b39a 06bf 79f0 14bf 84c8 1dbf 0fe9 ffbe
00000290: 9672 f0be 1c00 0cbf 314f dabe ff72 a6be
000002a0: 86ba f8be 41df 14bf 6cd4 25bf f30b 01bf
000002b0: e86e 1dbf 7466 13bf 05f4 c2be 25e5 07bf
000002c0: 639d 2ebf 6d81 1ebf c96a dfbe 38c0 05bf
000002d0: 9e8f 23bf 8b7a 1fbf 3d70 8abe e55a 0ebf
000002e0: b485 1dbf 9748 edbe bc60 febe 8ec3 2abf
000002f0: c6e2 0cbf 46ee dabe e3d1 d8be d693 f4be
00000300: 4e39 23bf 0842 eabe fdad 58be ce8c cebe
00000310: fde8 0ebf 37a6 11bf a3f7 00bf 27d9 f4be
00000320: ee7a 0fbf 0bd8 09bf dbb8 18bf 31f2 febe
00000330: 9e40 16bf e543 1fbf b8ec f0be f098 19bf
00000340: 7d55 01bf 0196 00bf d612 1abf b178 03bf
00000350: bce9 1bbe c91c f4be 951d d3be b319 32bf
00000360: 0efc f7be 317f 08bf 5a25 05bf 3e3c 06bf
00000370: f465 0fbf 63f4 05bf 3d90 f1be dabd 26bf
00000380: 0e22 1cbf dda0 dcbe 3da7 fabe 5074 14bf
00000390: b0e6 12bf f54a 08bf 8198 2ebf dd4c febe
000003a0: bdf3 d2be 60b4 01bf 1f62 09bf e341 3bbf
000003b0: 35b1 0ebf 91f6 2fbf 4cac ffbe c6d2 debe
000003c0: 1653 e9be 1ff3 21bf 65b9 16bf 2f24 0dbf
000003d0: c774 0fbf cf90 debe c001 1bbf f2bd 1cbf
000003e0: ff4c c1be a4f3 f7be 9dca f7be de8a 1bbf
000003f0: 7dcd e8be 6d13 e4be 461a afbe 97e5 10bf

encoder.linear_.bias f4 [40]
-0.65825766 -0.6586534 -0.6704422 -0.63367766 -0.6031834 -0.68523604 -0.64309096 -0.61298376
-0.7120215 -0.7340131 -0.6459364 -0.5886028 -0.6177625 -0.66285026 -0.6166483 -0.68801665
-0.6583387 -0.63738257 -0.7211924 -0.67425686 -0.7021233 -0.63304424 -0.64670193 -0.6302124
-0.6451122 -0.6964046 -0.72138375 -0.5968565 -0.6296231 -0.6789273 -0.6748688 -0.6527187
-0.68438315 -0.6282198 -0.634682 -0.6107222 -0.6362222 -0.6484328 -0.5996002 -0.76776487
00000000: 9383 28bf 829d 28bf 1aa2 2bbf b338 22bf
00000010: 3a6a 1abf a16b 2fbf 9ca1 24bf 81ec 1cbf
00000020: 0b47 36bf 48e8 3bbf 175c 25bf acae 16bf
00000030: af25 1ebf 8eb0 29bf aadc 1dbf dc21 30bf
00000040: e388 28bf 812b 23bf 11a0 38bf 199c 2cbf
00000050: 5abe 33bf 300f 22bf 428e 25bf 9a55 21bf
00000060: 1326 25bf 9247 32bf 9bac 38bf 96cb 18bf
00000070: fb2e 21bf 2ece 2dbf 34c4 2cbf 9318 27bf
00000080: bc33 2fbf 03d3 20bf 857a 22bf 4a58 1cbf
00000090: 75df 22bf b1ff 25bf 667f 19bf 3d8c 44bf
